Assets/Scripts/Test6.onnx (onnx, 131520 bytes, 13 tensors)

network_body.observation_encoder.processors.0.normalizer.running_mean f4 [92]
0	0x3e34949d	0.17634816
1	0x3e84259b	0.2580994
2	0x3ce6a00f	0.028152494
3	0x3f1467b3	0.5797073
4	0x00000000	0.0
5	0x3f164488	0.5869832
6	0x3d0cc589	0.03436807
7	0x3f25bfe0	0.64745903
8	0x00000000	0.0
9	0x3f153538	0.5828433
10	0x3d87baf8	0.06627458
11	0x3f29af90	0.6628351
12	0x00000000	0.0
13	0x3f68c6bf	0.9092826
14	0x3db9ab65	0.09065894
15	0x3f316f7f	0.69310755
16	0x00000000	0.0
17	0x3f5f07b2	0.8712112
18	0x3e03ac49	0.1285869
19	0x3f365f2c	0.7123897
20	0x00000000	0.0
21	0x3f579ee9	0.8422685
22	0x3e217f92	0.1577132
23	0x3f331365	0.6995147
24	0x00000000	0.0
25	0x3f4e800b	0.8066413
26	0x3e45c033	0.193116
27	0x3f38d618	0.7220168
28	0x00000000	0.0
29	0x3f48b526	0.7840141
30	0x3e5d26ce	0.21596834
31	0x3f360eb5	0.7111619
32	0x00000000	0.0
33	0x3f4d78df	0.8026256
34	0x3e49e5d4	0.19716579
35	0x3f3b5bb9	0.7318683
36	0x00000000	0.0
37	0x3f3f1ecb	0.7465636
38	0x3e81bf73	0.25341377
39	0x3f38fa84	0.72257257
40	0x00000000	0.0
41	0x3f68c540	0.9092598
42	0x3db97709	0.09055907
43	0x3f3b458d	0.73153
44	0x00000000	0.0
45	0x3f584772	0.84484017
46	0x3e1edc83	0.15513806
47	0x3f3a709a	0.72828066
48	0x00000000	0.0
49	0x3f6c5cc1	0.9232903
50	0x3d9cbec0	0.0765357
51	0x3f32c3d7	0.6983008
52	0x00000000	0.0
53	0x3f67a904	0.9049227
54	0x3dc2ad33	0.095056914
55	0x3f33b804	0.7020266
56	0x00000000	0.0
57	0x3f6ee7a0	0.9332218
58	0x3d886a0b	0.06660851
59	0x3f28441b	0.6572892
60	0x00000000	0.0
61	0x3f6d4560	0.9268398
62	0x3d95cb5d	0.07314179
63	0x3f2ae121	0.6674977
64	0x00000000	0.0
65	0x3f6ac26a	0.917029
66	0x3da99a3b	0.0828137
67	0x3f1ff435	0.62482005
68	0x00000000	0.0
69	0x3f6cbc9c	0.92475295
70	0x3d9a1225	0.07522992
71	0x3f23b6ef	0.6395101
72	0x00000000	0.0
73	0x3f6827ea	0.90685904
74	0x3dbe6aba	0.092977
75	0x3f1a0984	0.6017077
76	0x00000000	0.0
77	0x3f689bd5	0.9086278
78	0x3dbb1b75	0.091360964
79	0x3f1e5be1	0.61858946
80	0x00000000	0.0
81	0x3f6401c5	0.890652
82	0x3ddfa1f8	0.10919565
83	0x3f163a21	0.5868245
84	0x00000000	0.0
85	0x3f64a375	0.89311916
86	0x3ddadfd8	0.10687226
87	0x3f1aab7a	0.604179
88	0x00000000	0.0
89	0x3f6168b7	0.8805041
90	0x3df46b7a	0.11934562
91	0x3f133ca9	0.57514435

network_body.observation_encoder.processors.1.normalizer.running_mean f4 [12]
0	0x3eb28633	0.3486801
1	0x40283dee	2.62878
2	0x40a68372	5.2035456
3	0xc75952f1	-55634.94
4	0x491da2f6	645679.4
5	0x472b872d	43911.176
6	0xc08f947c	-4.4868755
7	0x3e70a285	0.23499496
8	0xc0f19848	-7.549839
9	0xc4cf97b7	-1660.7411
10	0x4697583f	19372.123
11	0x44a58b68	1324.3564

network_body._body_endoder.seq_layers.0.weight f4 [128, 104]
0	0x3d53919e	0.051652543
1	0x3de43ba4	0.11144188
2	0x3dd8049b	0.105477534
3	0xbe068e8c	-0.13140315
4	0x3dcee3ed	0.10102067
5	0xbdc969f0	-0.09834659
6	0x3bc5313d	0.0060178326
7	0xbd977d4e	-0.07396947
8	0xbc7f522e	-0.015583558
9	0xbd339d3e	-0.04385113
10	0xbd3ec606	-0.04657557
11	0xbe391951	-0.18076064
12	0x3dd69ca0	0.104790926
13	0xbb06c2a1	-0.0020562785
14	0x3db78890	0.08961594
15	0xbe495355	-0.19660695
16	0xbc40596e	-0.011740072
17	0xbd08d399	-0.03340492
18	0x3d0f45b9	0.034978602
19	0xbbdd3c13	-0.006751546
20	0x3dd37c5c	0.10326454
21	0xbe0e48d0	-0.13894963
22	0x3d26bffe	0.04071044
23	0xbdb752b6	-0.08951323
24	0xbd2b79a5	-0.041864056
25	0x3a9d8b3e	0.0012019647
26	0x3d96f310	0.07370579
27	0x3dc5862c	0.09644732
28	0xbe0f4100	-0.1398964
29	0xbe08c3e2	-0.13355973
30	0xbe03b1c5	-0.12860782
31	0x3df9ead1	0.12202991
32	0x3d69d45b	0.057087284
33	0x3d4db818	0.050224394
34	0xbd155674	-0.0364594
35	0x3e388916	0.18021044
36	0xbd01687c	-0.031593785
37	0xbe8be281	-0.27321246
38	0x3dd877c3	0.10569718
39	0x3da5d51f	0.0809729
40	0xbd8bfd2d	-0.06835399
41	0xbab88fe5	-0.001408097
42	0xbcffd980	-0.031231642
43	0xbca279f5	-0.019833544
44	0x3d9deecd	0.07711563
45	0x3e266b0e	0.16251776
46	0x3e6fb24d	0.2340786
47	0xbd77de11	-0.060514513
48	0xbd3e03e7	-0.04639044
49	0x3d9d4b72	0.07680406
50	0xbe6fe258	-0.23426187
51	0x3e05c7ce	0.130645
52	0xbd19599d	-0.037438978
53	0xbd9bd00e	-0.07608043
54	0xbcfaefb7	-0.030631883
55	0x3da0c2cb	0.07849654
56	0xbe43ca48	-0.19120133
57	0x3d05e4a3	0.032688748
58	0x3d00c97c	0.03144215
59	0x3e1be2ad	0.15223189
60	0xbe10800f	-0.1411135
61	0xbdfca152	-0.12335457
62	0x3c97fbcf	0.018552689
63	0x3ddfaadf	0.10921263
64	0xbd5849e3	-0.05280484
65	0xbd885df5	-0.06658546
66	0xbd230856	-0.03980287
67	0x3dd6eba2	0.10494162
68	0x3cf8e9a5	0.030384848
69	0x3e1afd70	0.15135741
70	0xbe0f8940	-0.140172
71	0xbd3adcd7	-0.045620766
72	0xbd1f0c1a	-0.0388299
73	0x3dac1bd9	0.08403749
74	0xbdf084b9	-0.11744065
75	0x3da427d3	0.08015408
76	0xbdd5a1c0	-0.10431242
77	0x3d405ad2	0.046961613
78	0xbd3135b3	-0.043264102
79	0x3de8ac04	0.113609344
80	0xbd97d7a8	-0.0741418
81	0xbbe3e5ac	-0.0069548693
82	0x3da62d33	0.0811409
83	0x3dd564a8	0.10419589
84	0xbdc0a63e	-0.09406708
85	0x3e020eb1	0.12700917
86	0x3d357d33	0.044308852
87	0x3dd27c7c	0.1027765
88	0x3defa529	0.11701424
89	0x3dfe6139	0.124208875
90	0xbd1cb3ad	-0.03825729
91	0x3d66b512	0.056325026
92	0xbe170d66	-0.14751205
93	0x3d48dcd6	0.04903873
94	0x3cfb33c3	0.03066433
95	0x3e59a786	0.21255311
96	0x3b8721b6	0.0041238917
97	0xbde5a911	-0.112138875
98	0x3e0c4abb	0.13700382
99	0xbdb30cdd	-0.08742688
100	0x3dcd92fe	0.10037802
101	0x3db39b77	0.08769887
102	0x3c8e5539	0.017374622
103	0x3db46e4b	0.08810099
104	0x3d981bc5	0.074271716
105	0x3e42653d	0.18983932
106	0xbd807127	-0.06271582
107	0xbd64d089	-0.055862937
108	0x3ddf365c	0.1089904
109	0xbe3b85b9	-0.1831273
110	0x3de60590	0.1123153
111	0xbdf2acaf	-0.11849343
112	0x3d9b8766	0.075941846
113	0x3ddc5feb	0.107604824
114	0x3cfe4c48	0.031042233
115	0x3ce6300c	0.028099082
116	0x3dc2820c	0.09497461
117	0x3e45962e	0.1929557
118	0xbe3e3a96	-0.18577036
119	0x3dacbce4	0.084344655
120	0xbdcf5632	-0.10123862
121	0x3d1c11e9	0.038103018
122	0x3cd20c0f	0.025640516
123	0xbe12a404	-0.1432038
124	0x3dff10bb	0.12454363
125	0x3d0ed27d	0.034868706
126	0x3e0322be	0.12806222
127	0x3dd458cf	0.103685014
128	0xbd8adaf6	-0.06780045
129	0xbd55255c	-0.05203758
130	0x3d532afe	0.051554672
131	0x3aeac9e1	0.0017912948
132	0xbdf0cc8c	-0.11757764
133	0x3da2142a	0.07914002
134	0x3dc05eb7	0.093930654
135	0x3c1deeb7	0.009639434
136	0x3cd1308e	0.025535848
137	0x3c898220	0.016785681
138	0xbe1d721b	-0.15375559
139	0x3d02e965	0.031960864
140	0x3bf73f7c	0.0075454097
141	0x3d55eb14	0.05222614
142	0xbdb9072d	-0.09034572
143	0x3daa89a9	0.08327038
144	0x3d3bd0b1	0.04585332
145	0xbd9e83d4	-0.07739988
146	0x3c9ab7f0	0.018886536
147	0xbdbc1b42	-0.091848865
148	0x3d278d4d	0.04090624
149	0xbd641288	-0.055681735
150	0xbe2bfd60	-0.16795874
151	0xbd8663be	-0.06561993
152	0x3e1e7ea8	0.15478003
153	0x3da368fb	0.07979008
154	0xbdf29605	-0.1184502
155	0xbd74210b	-0.059601825
156	0x3e0bc5fc	0.13649744
157	0x3ca00528	0.019533709
158	0x3c37bc35	0.011214306
159	0x3d500851	0.05078918
160	0x3e32172d	0.17391653
161	0x3db3e351	0.087835915
162	0x3de12f9a	0.109954074
163	0xbdcfbeeb	-0.101438366
164	0xbdaf5f14	-0.085630566
165	0xbdcb3c89	-0.099236555
166	0x3d3359c0	0.043786764
167	0x3daa862b	0.08326372
168	0xbd24db2e	-0.04024809
169	0x3d80a307	0.06281095
170	0x3cb3e5b7	0.021960123
171	0xbc480fa3	-0.012210759
172	0xbd0f7a5f	-0.03502881
173	0xbdaf2767	-0.08552437
174	0xbdab3460	-0.08359599
175	0x3d5705d6	0.0524958
176	0xbde890e6	-0.11355762
177	0x3d68c123	0.056824815
178	0xbc88fef4	-0.016723134
179	0xbdd7ff9c	-0.105468005
180	0xbd3f50f1	-0.04670805
181	0xbd859644	-0.065228015
182	0xbc8d1589	-0.017222183
183	0xbdc4fe97	-0.09618872
184	0x3e34f699	0.17672195
185	0xbd01971e	-0.031638257
186	0xbdaca287	-0.08429437
187	0x3cfbe4cb	0.030748745
188	0x3dbc135e	0.091833815
189	0x3e3e7c57	0.1860212
190	0x3db80d98	0.08986968
191	0xbd2b5f80	-0.041839123
192	0x3db0c62a	0.08631547
193	0xbd946b40	-0.07247019
194	0x3e1e7669	0.15474857
195	0xbe60f171	-0.21967103
196	0xbd40c0a5	-0.04705872
197	0x3cb586cf	0.022159008
198	0x3de2ea5a	0.11079855
199	0xbe35c035	-0.17749102
200	0xbdbfbd37	-0.09362262
201	0xbb5a544c	-0.0033314405
202	0xbda9d8c2	-0.082932964
203	0x3dbef69e	0.09324382
204	0xbe13ea8f	-0.14444946
205	0x3ca2c9ac	0.019871555
206	0x3e1b2538	0.15150917
207	0x3d8723d8	0.065986335
208	0xbd88379f	-0.06651234
209	0xbe3f2b85	-0.18668945
210	0x3db0e19a	0.0863678
211	0xbdcc72f7	-0.09982865
212	0x3d778af7	0.06043526
213	0xbe0b2e0e	-0.13591787
214	0x3e1d533c	0.15363783
215	0xbe52bce4	-0.20579869
216	0x3cd2fe24	0.02575595
217	0xbd0b6bc3	-0.034038316
218	0xbdc647ae	-0.096816406
219	0x3db03883	0.08604529
220	0xbdeaa1de	-0.11456655
221	0xbdcb0a34	-0.099140555
222	0x3d8099cf	0.06279337
223	0xbd852e2c	-0.06502947
224	0xbd037a13	-0.03209884
225	0xbdabb997	-0.08385008
226	0x3d63c24f	0.05560523
227	0x3de08ac3	0.10963967
228	0x3d2a4aa8	0.041575104
229	0x3b489db0	0.0030611567
230	0xbe431ed0	-0.19054723
231	0xbdaa4e18	-0.083156765
232	0x3c177687	0.009244568
233	0xbe388ae2	-0.1802173
234	0x3c179f9f	0.009254365
235	0x3d85400d	0.06506357
236	0xbe41bab5	-0.1891888
237	0xbcc36069	-0.023849683
238	0x3dbfb522	0.0936072
239	0xbd7955c4	-0.060872808
240	0xbd7c430d	-0.061587382
241	0x3df1d8d6	0.11808936
242	0x3ce7ed85	0.0283115
243	0xbdb875e6	-0.09006862
244	0xbe09d736	-0.13461003
245	0xbd9feda9	-0.07809002
246	0x3c90bdfe	0.01766872
247	0x3ce24f6d	0.027625764
248	0x3d07364e	0.033010773
249	0xbd397b5d	-0.045283664
250	0xbd190272	-0.037355848
251	0xbd80c1ac	-0.0628694
252	0x3db0fd5e	0.08642076
253	0xbdfeeab0	-0.12447107
254	0x3d928939	0.071550794
255	0x3da9c2d8	0.082891166

network_body._body_endoder.seq_layers.0.bias f4 [128]
0	0xbd011671	-0.031515542
1	0x3b9882f8	0.0046542846
2	0x3da0ccfc	0.07851598
3	0xbc7e8a86	-0.015535956
4	0xbd0f10b1	-0.034928028
5	0x3c0fe476	0.008782497
6	0xbc97d509	-0.0185342
7	0xbd3bddfa	-0.04586599
8	0xbd27a5c8	-0.040929586
9	0xbc3ffd65	-0.011718129
10	0xbd07054f	-0.032964047
11	0xbc0ed170	-0.008716926
12	0x3c89f468	0.016840175
13	0xbd535b69	-0.051600847
14	0xbd477ff3	-0.048706006
15	0xbc1d2562	-0.009591432
16	0xbcb97c92	-0.022642408
17	0xbc82133b	-0.01587831
18	0xbc199c62	-0.0093756635
19	0xbcf2093d	-0.02954542
20	0xbc54786b	-0.012968163
21	0xbbd93a45	-0.0066292607
22	0xbb849066	-0.004045534
23	0xbc4a51f1	-0.012348638
24	0xbbbeda55	-0.005824367
25	0xbbfb4bdf	-0.0076689566
26	0xbd3a99bc	-0.04555677
27	0xbd1a6aa2	-0.03769935
28	0xbd0ecde3	-0.034864318
29	0xbd43467f	-0.047674652
30	0xba45c9bd	-0.0007545015
31	0xbd0f3dde	-0.03497111
32	0xbc949c17	-0.018140836
33	0x3d053037	0.032516684
34	0x3cd69eee	0.02619883
35	0xbd64806a	-0.055786528
36	0xbd0b5505	-0.034016628
37	0xbc8f2347	-0.017472876
38	0xbb28b05e	-0.0025739889
39	0xbc616f5e	-0.013759462
40	0xbca3a598	-0.019976422
41	0x3c92b14d	0.01790681
42	0xbc503c99	-0.01270976
43	0x3c55d961	0.013052315
44	0xbad15036	-0.0015969339
45	0x3b78ddb6	0.0037973947
46	0xbcea1f57	-0.028579397
47	0xbafbaa2e	-0.0019200498
48	0xbceb5ea0	-0.028731644
49	0xbc7881d0	-0.015167668
50	0xbc2fb51f	-0.010724335
51	0xbce56e50	-0.028006703
52	0xbcdca862	-0.02693576
53	0x3cdfcb67	0.02731867
54	0x3c0c5c68	0.008566953
55	0xbaf35f23	-0.0018567782
56	0xbc8a3c29	-0.01687439
57	0xbc520c70	-0.012820348
58	0xbc3f44cd	-0.011674118
59	0x3c488c34	0.012240458
60	0xbc63a5a6	-0.013894474
61	0x3cf3c9a3	0.029759234
62	0x3c71a0da	0.014747823
63	0xbccda968	-0.025105193
64	0xbc30a3bc	-0.010781225
65	0xbc726d3a	-0.014796549
66	0xbcd148b1	-0.025547357
67	0xbd1bc53f	-0.038029905
68	0x3bafc7ad	0.0053643794
69	0x3a3774d6	0.0006998306
70	0x3ce37d69	0.027769761
71	0xbb4c0ef5	-0.0031136845
72	0x3d269bae	0.04067581
73	0x3c5ab1d7	0.013348064
74	0xbb9660f0	-0.0045891926
75	0x3c6b6923	0.014368328
76	0x3cd19300	0.02558279
77	0xbcc15e18	-0.023604438
78	0xbcb080d0	-0.021545798
79	0xbcf7131e	-0.030160483
80	0xbc13aaf4	-0.009012926
81	0xbb9e7de4	-0.0048367847
82	0xbc809f18	-0.015700862
83	0x3bbd8946	0.0057841865
84	0xbce94865	-0.028476903
85	0x3d07cc8c	0.033154055
86	0xbb888448	-0.00416616
87	0xbc3b0fe7	-0.011417366
88	0xbb98a4cc	-0.004658317
89	0x3ba74e21	0.0051057492
90	0x3c3cdf6f	0.01152788
91	0xbc82601a	-0.015914965
92	0xbce341fc	-0.027741425
93	0x3c83995a	0.016064335
94	0x3b23b1ca	0.0024977797
95	0x3d02a5e5	0.03189649
96	0x3c38eb76	0.011286607
97	0xbb494864	-0.0030713314
98	0xbd1a0af0	-0.037608087
99	0x3c605b84	0.013693694
100	0xbbf9caf7	-0.0076230722
101	0xbca7e41a	-0.02049451
102	0x3d13cff2	0.036086984
103	0xbc02f793	-0.007993597
104	0xbca830b9	-0.020531045
105	0xbbec89ce	-0.007218576
106	0xbc319a12	-0.010839956
107	0xbc4227fe	-0.011850355
108	0x3b5516a3	0.0032514713
109	0x3cb48f86	0.022041094
110	0xbcfff1fa	-0.031243313
111	0xbcc41b89	-0.023938911
112	0xbbfe9e09	-0.007770304
113	0x3c2a81bb	0.010406907
114	0xbcba93e1	-0.022775592
115	0xba8d72cb	-0.0010791657
116	0xbc0e2b0b	-0.008677254
117	0x3ce8ad9a	0.028403092
118	0x3a0e103e	0.00054192904
119	0xbd07688f	-0.0330587
120	0x3bb3f41c	0.0054917466
121	0xbca66af8	-0.020314679
122	0xbb9a9880	-0.0047178864
123	0xbce70e96	-0.028205197
124	0xbc519026	-0.012790715
125	0x3bac6cb3	0.0052619814
126	0xbc6e7365	-0.014553879
127	0x3b6986e2	0.0035633375

network_body._body_endoder.seq_layers.2.weight f4 [128, 128]
0	0xbc141d87	-0.009040243
1	0xbe2c7e42	-0.16845039
2	0x3d1ac0a6	0.03778138
3	0xbdbacc4d	-0.091209985
4	0xbe3110bc	-0.1729154
5	0x3dc9ed52	0.098597184
6	0xbdae76ff	-0.085187905
7	0x3d5e8a7b	0.054331284
8	0xbe4512f8	-0.19245517
9	0x3e044e02	0.12920383
10	0xbe43335b	-0.1906256
11	0xbcdffff6	-0.027343731
12	0xbd1ae7d7	-0.037818756
13	0xbdd90e5e	-0.105984434
14	0xbd91f416	-0.07126634
15	0x3dcc9947	0.09990173
16	0xbe77573c	-0.24154371
17	0xbdec3001	-0.115325935
18	0xbe2ca3b3	-0.16859321
19	0x3da33dd9	0.07970781
20	0x3b53b01a	0.003230101
21	0x3ba8673d	0.00513926
22	0xbe4a9762	-0.1978431
23	0x3cd7c5d7	0.026339455
24	0xbd770cc1	-0.060314897
25	0xbd1394f5	-0.03603073
26	0x3e0ae1dd	0.13562723
27	0xbd8c77f9	-0.068588205
28	0x3ba7db0b	0.0051225475
29	0xbd375a21	-0.044763688
30	0x3cc0b4f7	0.02352379
31	0xbd537c4b	-0.051632207
32	0xbd7242f7	-0.059145894
33	0x3bb3593d	0.0054732845
34	0x3dc2aa7c	0.095051736
35	0xbbaac39c	-0.0052113067
36	0xbe13ae29	-0.14421906
37	0x3daaf533	0.08347549
38	0xbc3dbbcf	-0.011580422
39	0xbcf18070	-0.02948019
40	0x3e2bf793	0.16793661
41	0x3dcd9252	0.10037674
42	0xbe40a82f	-0.18814157
43	0x3d06a17c	0.032868847
44	0xbda58191	-0.080813535
45	0xbd2b7e5a	-0.041868545
46	0xbd809195	-0.062777676
47	0x3dc8f129	0.09811623
48	0xbdca1c56	-0.09868686
49	0xbdff1624	-0.12455395
50	0x3d0e707a	0.034775235
51	0x3af5eb18	0.001876208
52	0x3dfd8c92	0.12380327
53	0x3d811014	0.06301895
54	0xbe81ab75	-0.25326124
55	0xbe009ac9	-0.12559046
56	0xbcd8aedf	-0.026450573
57	0x3db41e43	0.087948345
58	0xbcfed189	-0.031105774
59	0xbdc68934	-0.09694138
60	0x3e05390d	0.13010044
61	0xbd7eff6e	-0.062255315
62	0xbd9bff84	-0.07617095
63	0x3af9ec40	0.00190676
64	0x3e4655f2	0.19368723
65	0x3c7ebdd8	0.015548192
66	0x3ca3f2ca	0.020013232
67	0x3d853ecf	0.065061204
68	0xbd6e800b	-0.05822758
69	0xb96cd4d1	-0.00022585994
70	0x3b83734d	0.0040115477
71	0xbc02a9f3	-0.007975089
72	0x3e0a4e4b	0.13506429
73	0xbc073acb	-0.008253763
74	0xbd8b09d1	-0.06788982
75	0xbd5e968c	-0.05434279
76	0x3dab0a53	0.083515786
77	0x3e0102a8	0.1259867
78	0x3d009699	0.03139362
79	0xbdc57d8f	-0.09643089
80	0xbe856dae	-0.2606024
81	0xbdc87247	-0.09787422
82	0xbb9c96e9	-0.004778732
83	0xbdbdea6c	-0.09273228
84	0xbdbe1c98	-0.092827976
85	0xbe2ed840	-0.1707468
86	0x3d68a656	0.056799255
87	0x3c839dfd	0.016066546
88	0xbe06fb72	-0.13181856
89	0xbe2c681a	-0.16836587
90	0xbcd122ff	-0.025529383
91	0xbcc5d0c1	-0.024147393
92	0x3dc7d2cb	0.097570024
93	0x3e0e3fe0	0.13891554
94	0xbc9bfc8a	-0.019041318
95	0xbe1ff127	-0.15619336
96	0xbdec1f64	-0.11529425
97	0xbd37596d	-0.044763017
98	0xbe1516a6	-0.14559421
99	0xbd62b16d	-0.055344988
100	0x3d05d23d	0.032671202
101	0x3d106061	0.035248164
102	0xbd81ea35	-0.063434996
103	0x3dd51820	0.10404992
104	0xbd409de7	-0.047025587
105	0xbacd9bb8	-0.0015686667
106	0xbc341e66	-0.010993576
107	0x3cc0cff2	0.023536656
108	0x3d1b519e	0.037919633
109	0x3d23689b	0.03989468
110	0x3e0b59a6	0.13608417
111	0xbcb86167	-0.022507383
112	0xbd4b6cde	-0.04966437
113	0xbdc18e5b	-0.0945098
114	0x3c9801ec	0.018555604
115	0x3c106d8a	0.008815179
116	0xbdd06cdc	-0.10177013
117	0x3c919b37	0.017774208
118	0xbdc55f10	-0.09637272
119	0x3dbd7c6c	0.09252247
120	0xbd7a005b	-0.061035495
121	0xbe1c2c03	-0.15251164
122	0x3d04846f	0.03235286
123	0xbdd417ec	-0.10356125
124	0x3dc57528	0.096414864
125	0xbcfbe614	-0.030749358
126	0x3d87b3c4	0.066260844
127	0xbe1116d6	-0.14168867
128	0x3dc454c0	0.09586477
129	0x3dfdc3ba	0.123908475
130	0x3bf8ab16	0.0075887544
131	0xbdba183b	-0.09086653
132	0x3e737ee4	0.23778874
133	0x3df22811	0.11824048
134	0xbc8bb0d9	-0.017052101
135	0x3d5386c2	0.051642187
136	0x3dc99d0a	0.09844406
137	0xbd8e49fc	-0.06947705
138	0xbde30285	-0.11084465
139	0xbd269b39	-0.040675376
140	0xbd649505	-0.05580618
141	0xbda14429	-0.07874329
142	0x3de2a5b7	0.11066764
143	0xbdd48a06	-0.103778884
144	0x3dc46507	0.09589582
145	0xbd5e4820	-0.054268003
146	0xbc08f780	-0.00835979
147	0xbda7f9e3	-0.08201959
148	0x3dab82c1	0.08374549
149	0x3d26b21f	0.040697213
150	0xbe0318f3	-0.12802486
151	0xbe27e560	-0.16396093
152	0x3d950cee	0.07277857
153	0x3b8915e7	0.004183519
154	0x3ce66b37	0.028127296
155	0x3c1ee455	0.009697993
156	0xbd33b55b	-0.043874126
157	0xbd403479	-0.04692504
158	0xbd6eab42	-0.058268793
159	0x3e112c2b	0.14177005
160	0x3deea90a	0.116533354
161	0xbd366e9c	-0.04453908
162	0xbde2fc19	-0.1108324
163	0xbd21ce44	-0.03950335
164	0x3d694aed	0.05695622
165	0xbd9113a5	-0.07083825
166	0xbdcf0d71	-0.101099856
167	0xbd359819	-0.044334505
168	0xbbd3ae3b	-0.006459979
169	0xbdd73915	-0.105089344
170	0x3d5018f8	0.050805062
171	0xbe2a5065	-0.1663223
172	0x3d8a13c6	0.06742053
173	0xbe46baf4	-0.19407254
174	0xbc0fe472	-0.008782493
175	0x3e822c69	0.25424507
176	0xbe3ac177	-0.18237863
177	0xbd52794f	-0.05138522
178	0x3a455fe7	0.0007529244
179	0xbd7058da	-0.058678485
180	0x3d238c9b	0.039929014
181	0x3d1e498a	0.03864435
182	0xbc9c6cc9	-0.019094842
183	0xbbeaa218	-0.0071604364
184	0xbc8270a2	-0.015922848
185	0xbcfbf982	-0.030758623
186	0x3dd530cb	0.10409697
187	0x3ca8ac4b	0.020589968
188	0x3bc1df6d	0.005916527
189	0xbdca59a9	-0.098803826
190	0xbe00d46b	-0.12581031
191	0xbd26ec28	-0.04075256
192	0x3e245826	0.16049251
193	0xbd95258a	-0.07282551
194	0x3c59af57	0.013286433
195	0x3e314b1f	0.17313813
196	0xbc22fbc8	-0.009947725
197	0x3d516541	0.051121954
198	0xbb71e616	-0.0036910824
199	0x3e3a2876	0.18179497
200	0xbdb12cca	-0.08651121
201	0x3d9b13cd	0.07572136
202	0x3db8a756	0.09016292
203	0xbd89fd77	-0.06737798
204	0x3d0b495e	0.034005515
205	0xbda1762e	-0.07883869
206	0x3d034e97	0.03205737
207	0x3d6ddeb5	0.058073718
208	0x3d82c943	0.06386044
209	0x3e2b7f4c	0.16747779
210	0xbdd0fe8c	-0.10204801
211	0x3d8a2132	0.06744613
212	0x3ce023bf	0.027360795
213	0xbd01c154	-0.031678513
214	0xbd59bb8e	-0.05315738
215	0xbd3d315e	-0.04618966
216	0xbe12c31f	-0.14332245
217	0x3cfc20bc	0.030777328
218	0x3d42f8e9	0.04760066
219	0xbc96d137	-0.018410308
220	0x3c20da3c	0.009817656
221	0xbdad0e57	-0.08450001
222	0xbdc2a799	-0.09504623
223	0xbd02e8af	-0.031960186
224	0x3d9dcd00	0.07705116
225	0xbd23b228	-0.039964825
226	0x3da862f1	0.082219966
227	0x3e0a06e6	0.13479194
228	0xbdce7e78	-0.10082716
229	0x3bac3175	0.005254919
230	0x3c51e7a3	0.012811574
231	0xbdb7d4c9	-0.089761324
232	0x3d3a8b5a	0.045543052
233	0x3e37deae	0.1795604
234	0xbc27f0a0	-0.010250241
235	0x3ce9ba9d	0.028531367
236	0xbe2de06c	-0.16980141
237	0xbd12104b	-0.03566007
238	0xbd3dfc7c	-0.046383366
239	0xbde7642c	-0.11298403
240	0xbd1b753c	-0.0379536
241	0x3dc81b23	0.09770801
242	0x3cb9f7a1	0.022701086
243	0x3dc66620	0.096874475
244	0x3e272c50	0.16325498
245	0xbe0007aa	-0.12502924
246	0x3d88198d	0.066454984
247	0x3ceecc47	0.029150141
248	0xba26d925	-0.00063647545
249	0x3b083c12	0.0020787758
250	0x3cf8b08f	0.030357627
251	0x3c9f324f	0.019433169
252	0xbcce17c7	-0.025157822
253	0xbd7249dc	-0.05915247
254	0xbcf41988	-0.02979733
255	0xbca6031c	-0.020265155

network_body._body_endoder.seq_layers.2.bias f4 [128]
0	0xbd4b0578	-0.049565762
1	0xbc69b5bd	-0.014264521
2	0x3c62f8de	0.01385328
3	0xbd1a958a	-0.037740268
4	0xbc6784da	-0.014130795
5	0x3b2f4806	0.002674581
6	0xb94d77b8	-0.00019594922
7	0xbca1d45b	-0.01975458
8	0xbae32e51	-0.0017332529
9	0xbce6fb32	-0.028195951
10	0xbd427beb	-0.04748146
11	0xbc93613c	-0.0179907
12	0xbce6da52	-0.028180275
13	0xbcfea317	-0.031083627
14	0xbd0a00e4	-0.033692256
15	0x3bfa1c9f	0.0076328064
16	0xbd5c5aa7	-0.05379739
17	0x3c91d38f	0.017801074
18	0xba16ab40	-0.0005747564
19	0xbb1240bd	-0.002231642
20	0x3c908745	0.017642627
21	0xbd63cbd6	-0.055614315
22	0xbd464c93	-0.04841287
23	0xbca0ef88	-0.019645467
24	0x3bd35ab1	0.0064500202
25	0xbac445b4	-0.0014974386
26	0xbce577b1	-0.028011175
27	0xbcf121ae	-0.029435005
28	0xbd4aefce	-0.0495451
29	0xbcb3db91	-0.021955283
30	0xbd324dce	-0.04353123
31	0x3b7659ba	0.0037590102
32	0xbd5afc6d	-0.05346339
33	0xbcb60968	-0.022221282
34	0xbcb24ae0	-0.021764219
35	0xbcaf121b	-0.021370938
36	0xbcc63e14	-0.024199523
37	0xbc9070ec	-0.01763197
38	0xbd1cc279	-0.0382714
39	0x3c296479	0.010338896
40	0xbbfc6c8d	-0.00770337
41	0xbc42fedb	-0.011901583
42	0xbcb0c916	-0.02158026
43	0xbb142063	-0.0022602312
44	0xbbc8a700	-0.0061234236
45	0xbd1b9458	-0.03798327
46	0xbd0487f9	-0.032356236
47	0xbd11d4d6	-0.035603367
48	0x3b8467d2	0.0040406967
49	0xbc8fb89f	-0.017544089
50	0xbca0bb5d	-0.019620592
51	0xbcb9ed79	-0.022696244
52	0x3bb0c74b	0.0053948513
53	0xbcaa506c	-0.020790301
54	0xbd32b459	-0.043629024
55	0x3c8baf37	0.017051322
56	0xbbc821b9	-0.0061075357
57	0xbd3c7f16	-0.046019636
58	0xbcbee241	-0.023301246
59	0xbd1c5338	-0.0381653
60	0xbd3adbb7	-0.045619693
61	0xbcb8cd43	-0.022558814
62	0x3c4b8e4b	0.012424062
63	0xbc9cf9a8	-0.019162014
64	0xb9b67cc7	-0.00034806711
65	0xbd49e48c	-0.049290225
66	0xbc418c6d	-0.011813265
67	0xbb33c2b4	-0.0027429285
68	0xbcef69c2	-0.029225234
69	0x3b12e462	0.0022413959
70	0xbbb8bcbe	-0.005637734
71	0xbc2308a0	-0.009950787
72	0xbbca611f	-0.0061761285
73	0xbc1020c1	-0.008796872
74	0x3c20411e	0.00978115
75	0x3b5aa5ba	0.003336294
76	0xbc0e84c7	-0.008698649
77	0x3c43d491	0.011952535
78	0xbc6f7095	-0.014614244
79	0xbc2e60b1	-0.01064317
80	0xbcb6613f	-0.022263167
81	0xbcaa0bdd	-0.02075761
82	0xbd1059e8	-0.03524199
83	0xbc347973	-0.011015284
84	0xbcac0a72	-0.021001074
85	0xbd446d94	-0.047956064
86	0xbcd6cb34	-0.026219942
87	0xbd1d50f4	-0.03840728
88	0xbc0cf0ce	-0.008602334
89	0xbc148090	-0.009063855
90	0xbc58a749	-0.013223478
91	0xbcd4dc29	-0.025983887
92	0x3c144e7a	0.009051913
93	0x3afb1971	0.0019157362
94	0xb9e44eed	-0.00043546353
95	0xbd7ed1b2	-0.0622117
96	0xbc86a513	-0.016436135
97	0xbd24566b	-0.040121477
98	0xbc3e1354	-0.011601288
99	0xbbf69cde	-0.0075260242
100	0xbc89dcd6	-0.016828936
101	0xbd049df3	-0.032377195
102	0x3bcc44ea	0.006233801
103	0x3c25beee	0.010116322
104	0xbb7b3a3e	-0.0038334276
105	0xbd85bad2	-0.06529774
106	0xbd495c03	-0.049160015
107	0xbc75a717	-0.014993451
108	0xbc2d2682	-0.010568263
109	0xbbc0f806	-0.0058889417
110	0xbca94a7a	-0.020665396
111	0xbcefdc75	-0.029279927
112	0xbc7f0cbb	-0.015567
113	0xbceedca9	-0.029157953
114	0x3bc90b0d	0.0061353506
115	0xbd2cd515	-0.0421954
116	0xbd017dc5	-0.031614084
117	0xbce7cc99	-0.028295802
118	0x3c8a66e5	0.016894767
119	0xbc4968dd	-0.012293068
120	0xbc1cbb60	-0.009566158
121	0xbb5dfbfb	-0.0033872116
122	0x3c2ea23b	0.010658796
123	0x3c4a5557	0.012349448
124	0xbaac8a51	-0.001316378
125	0xbd0ecda7	-0.034864094
126	0x3a43d350	0.00074701477
127	0xbd6b538e	-0.05745273

action_model._continuous_distribution.log_sigma f4 [1, 2]
0	0xbd9bd30f	-0.076086156
1	0xbe15bbd8	-0.14622438

action_model._continuous_distribution.mu.weight f4 [2, 128]
0	0xbb3700f0	-0.0027924143
1	0xbafb552c	-0.0019175163
2	0xbc695649	-0.014241763
3	0xbae10670	-0.0017168056
4	0x3b23397c	0.002490609
5	0x3b171baf	0.0023057272
6	0x3c8b47e2	0.01700205
7	0xbc9515a3	-0.018198794
8	0x3c70bd07	0.014693505
9	0xbc91079d	-0.017703826
10	0x3c0ea226	0.008705651
11	0x3bf38e33	0.007432723
12	0x3b8ebe2d	0.004356167
13	0x3c83daa7	0.016095472
14	0x3ae04cac	0.0017112694
15	0x3c0baad4	0.008524615
16	0xbd2711ac	-0.040788338
17	0x3c98ea51	0.018666418
18	0xb9582a11	-0.00020615036
19	0x3b59bb66	0.003322327
20	0x3d0b9ae6	0.03408327
21	0xbceb63a6	-0.02873404
22	0xbd083201	-0.033250812
23	0xbb0d05c7	-0.0021518336
24	0xbbe89736	-0.007098104
25	0xbbf79e77	-0.0075567323
26	0x3b09ee42	0.0021046554
27	0x3a1393be	0.000562962
28	0xbc3e3122	-0.011608394
29	0x3ca2b8cc	0.019863509
30	0xbd0071f5	-0.031358678
31	0x3c14345b	0.009045686
32	0x3bca6dc9	0.006177638
33	0xbc60954f	-0.013707473
34	0x3c1d7349	0.009610006
35	0xbb362809	-0.002779486
36	0x3bb11de0	0.0054051727
37	0x3c63fd99	0.013915443
38	0x3bfd6fc1	0.0077342694
39	0x3c67d694	0.0141502805
40	0x3c6859ba	0.014181549
41	0x3b7cbc02	0.003856421
42	0x3b69ff3f	0.0035705117
43	0x3be12c77	0.0068717557
44	0x3b54eb37	0.0032488832
45	0xbcbc77aa	-0.023006279
46	0xbc6fd172	-0.014637338
47	0x3a1c303b	0.00059581146
48	0x3cb58ff4	0.022163369
49	0xbb3a537d	-0.002843111
50	0x3baaf219	0.0052168486
51	0x3c85ee03	0.016348844
52	0x3ca00d44	0.019537576
53	0x3b01729c	0.001975215
54	0xba07f292	-0.0005185987
55	0x3b96fed2	0.0046080137
56	0x3bd3edae	0.0064675426
57	0x3c5af518	0.013364099
58	0x3c03ee2a	0.008052388
59	0xbcba1759	-0.022716211
60	0x3ba57d68	0.00505035
61	0xba96802a	-0.0011482288
62	0xbc27d888	-0.010244496
63	0xbc2a1447	-0.010380811
64	0xbcad3a1d	-0.021145875
65	0xbd2b4ccd	-0.04182129
66	0x3c333c87	0.010939724
67	0xb9671c46	-0.0002204041
68	0xbc8b01de	-0.016968664
69	0x3b57e435	0.0032942418
70	0x3b2a3384	0.0025970647
71	0x3c33551b	0.010945584
72	0x3c88dde8	0.016707376
73	0xbbcc0089	-0.0062256497
74	0x3c8a90f6	0.016914826
75	0x3c06b8cd	0.008222771
76	0xbbbd4e11	-0.0057771285
77	0xbc7ff801	-0.015623094
78	0x3c6e5378	0.014546268
79	0x3a4b03dd	0.0007744411
80	0x3c09fe2a	0.008422414
81	0xbc444735	-0.011979868
82	0xbc6b9f2f	-0.014381214
83	0xbc3152e4	-0.010822985
84	0x3c41a52b	0.011819164
85	0xbcd990ee	-0.026558366
86	0xbc9199c9	-0.017773526
87	0xbc89acbe	-0.016806003
88	0xbce5f0cf	-0.028068928
89	0xbbef5c63	-0.0073047145
90	0xbc82716b	-0.015923223
91	0xbb1413e4	-0.0022594864
92	0xba3a1cd6	-0.0007099634
93	0x3c87b0f9	0.01656388
94	0x3b4d7a10	0.0031353272
95	0xbce82cf4	-0.028341748
96	0xbb5888cd	-0.0033040524
97	0x3ad1f7cc	0.0016019284
98	0x3b5ac983	0.003338427
99	0x3becf100	0.007230878
100	0x3bab472f	0.0052269916
101	0x3b7253ad	0.0036976144
102	0x3c4beae2	0.012446137
103	0x3c726a58	0.014795862
104	0x3b2c6c37	0.0026309618
105	0xbbd20d56	-0.006410281
106	0xbb44d603	-0.0030034787
107	0xbacbbb89	-0.0015543561
108	0x3a866aa4	0.001025517
109	0x3c9796ce	0.018504526
110	0xbbe73339	-0.0070556668
111	0x3c225325	0.0099075185
112	0x3c086e45	0.008327072
113	0x3c11ae7c	0.008891698
114	0x3c319595	0.010838886
115	0xbccd020d	-0.025025392
116	0x3c280c56	0.010256847
117	0xba8f63e4	-0.0010939804
118	0xbaa93bfa	-0.0012911551
119	0xbb000de7	-0.0019539536
120	0x3bba72fc	0.0056899767
121	0x3b95725f	0.0045607532
122	0xbb1d1f08	-0.0023974795
123	0x3c9ba869	0.019001203
124	0x3cb8a9d1	0.022541912
125	0xbc0941cd	-0.008377505
126	0x3b571efb	0.0032824862
127	0xbbf191da	-0.007372123
128	0xbb8c9473	-0.0042901575
129	0xbbd9a439	-0.0066418913
130	0xba287b14	-0.00064270315
131	0xb9b72c33	-0.0003493741
132	0x3c2d73ea	0.010586718
133	0x3c756d00	0.014979601
134	0x3c9fdbd7	0.019514007
135	0x3c704191	0.01466407
136	0x3c318538	0.0108349845
137	0xbc9f20b9	-0.019424783
138	0xbccdcb55	-0.02512137
139	0x3aa84436	0.0012837711
140	0x3c3c7a4a	0.011503765
141	0xbc598414	-0.013276119
142	0xbbc85f4d	-0.0061148764
143	0x3c843b46	0.016141545
144	0xbc730b30	-0.01483421
145	0x3d1dd439	0.03853247
146	0xbab5154f	-0.0013815555
147	0x3c208b7e	0.0097988825
148	0x3a9346bc	0.001123629
149	0xbd03226d	-0.032015253
150	0xbc0c54d7	-0.008565149
151	0x3c5523fa	0.013009066
152	0x3c53722d	0.01290564
153	0x3ac79a10	0.0015228409
154	0xbb90abac	-0.004414996
155	0xbc5672d5	-0.0130889015
156	0xbaf4a3a7	-0.0018664495
157	0xbc9fe371	-0.019517632
158	0xbca38d27	-0.019964768
159	0x3d22f5a1	0.03978503
160	0xbc102174	-0.008797038
161	0x3c47099e	0.012148289
162	0xbb2f91ac	-0.0026789708
163	0xbc25b6b3	-0.01011436
164	0x3c1c937c	0.009556647
165	0xbb348e1d	-0.0027550526
166	0x3c33d6f7	0.010976545
167	0xbb4647e6	-0.0030255257
168	0xbc37a841	-0.011209548
169	0x3c5095ac	0.012730997
170	0xbcbda066	-0.023147773
171	0xbc82baa5	-0.01595814
172	0x3ab25a07	0.0013607153
173	0x3967dcc1	0.00022112114
174	0xbc5e7c39	-0.013579422
175	0xbb86b2cb	-0.0041106693
176	0xbd24023b	-0.04004119
177	0x3c784b14	0.015154619
178	0x3bbea680	0.005818188
179	0xbb37d2b8	-0.0028049182
180	0xbc11e183	-0.008903864
181	0x3b4019ae	0.0029312181
182	0xbc0a01cd	-0.008423281
183	0xbbc40b71	-0.0059828092
184	0x3b8b4893	0.004250595
185	0x3bbca0b2	0.005756461
186	0x3c618b29	0.0137660885
187	0xbc40f0b2	-0.011776136
188	0xbc59e40a	-0.013298998
189	0xbc2b41fb	-0.010452743
190	0x3b2857a4	0.0025687004
191	0xbc1d3e31	-0.009597347
192	0x3b9781d3	0.0046236305
193	0x3afb3375	0.0019165116
194	0xbcc8962c	-0.02448567
195	0x3bf0c595	0.0073477724
196	0x3bca3f1d	0.0061720745
197	0xbcc6ad84	-0.02425266
198	0xbb816ba1	-0.003949598
199	0xbc840ae1	-0.016118469
200	0x3b92d687	0.00448114
201	0x3b1161ed	0.0022183612
202	0x3ba51bad	0.0050386996
203	0xbc866bad	-0.016408766
204	0xbbe2462d	-0.0069053383
205	0x3bc72d1d	0.006078376
206	0xbca773e9	-0.020441012
207	0x3c4ffb9e	0.012694268
208	0x3c0097ee	0.007848723
209	0xbb15d234	-0.0022860887
210	0xbbcc26f9	-0.006230232
211	0x3cc0bae7	0.023526622
212	0xbc03d174	-0.008045543
213	0xbcc1ed1a	-0.02367263
214	0xbcc47383	-0.023980862
215	0x3ae380ae	0.0017357075
216	0x3ca10c7f	0.019659279
217	0xbcadae9c	-0.021201424
218	0x3c21fa75	0.009886374
219	0xbc6f07ac	-0.014589231
220	0xbb4e3e50	-0.0031470247
221	0xbbcfde40	-0.006343633
222	0x3caf00f9	0.021362768
223	0xbbd67475	-0.0065446445
224	0x3bacfc63	0.0052791103
225	0xbc82e4af	-0.015978185
226	0xbb530122	-0.003219672
227	0x3d19bb20	0.037531972
228	0xbb699a26	-0.0035644858
229	0xbc20a75d	-0.0098055275
230	0xbc825d2b	-0.015913567
231	0x3c99e27a	0.01878475
232	0x3bb87048	0.0056286193
233	0xbc57d47c	-0.013173219
234	0x3b98f604	0.004667999
235	0x3babc158	0.005241554
236	0xbc55e262	-0.013054462
237	0xbbaf705c	-0.0053539705
238	0x3c056a00	0.008142948
239	0x3ba10526	0.004913944
240	0x3c3ac903	0.011400464
241	0xbc0f645c	-0.008751955
242	0x3b7cc677	0.0038570443
243	0x3b898e87	0.004197899
244	0x3c146ee4	0.0090596415
245	0xbbd5ab36	-0.006520654
246	0x3c0c0731	0.008546636
247	0xbb5f7022	-0.0034093936
248	0xbc5e6858	-0.013574682
249	0x3c2b73ba	0.010464603
250	0x3c1b424d	0.009476257
251	0xbc153452	-0.009106712
252	0x3b919976	0.004443343
253	0xbad4bc49	-0.001623043
254	0x3c47e077	0.012199513
255	0xbbf15e74	-0.007365996

action_model._continuous_distribution.mu.bias f4 [2]
0	0x3d1654c7	0.036701944
1	0x3c66fb94	0.014098067

action_model._discrete_distribution.branches.0.weight f4 [2, 128]
0	0xbc5ebebf	-0.013595282
1	0xbc905356	-0.017617863
2	0x3ca71fae	0.020400848
3	0xbbf00553	-0.0073248534
4	0xbd48b3f4	-0.04899974
5	0x3d270e07	0.040784862
6	0xbd3ef280	-0.046617985
7	0xbcbd2fbe	-0.023094054
8	0x3cca090a	0.024662513
9	0x3c05bbe6	0.008162474
10	0xbcbafe68	-0.022826388
11	0xbc9c7fb5	-0.019103864
12	0xbcdcf242	-0.026970986
13	0xbd3d6d1e	-0.04624664
14	0xbc855f40	-0.01628077
15	0x3c2e4fde	0.010639159
16	0x3b3af1b0	0.0028525405
17	0x3d01a9f3	0.031656217
18	0x3ce46130	0.027878374
19	0x3cddcab8	0.027074203
20	0xbd75a6fd	-0.059973706
21	0xbcc88892	-0.024479184
22	0xbcc9bd19	-0.024626302
23	0xbd40f424	-0.04710783
24	0x3c9517f9	0.018199908
25	0xbcc2da8c	-0.023785852
26	0x3d25f3f7	0.040515866
27	0xbd2db282	-0.042406566
28	0xb999ab20	-0.00029309932
29	0xbd1eeb2a	-0.03879849
30	0x3c0e926d	0.008701903
31	0x3c36aad6	0.011149129
32	0xbd041097	-0.032242384
33	0xbc9f6319	-0.019456433
34	0xbc9cd63b	-0.019145122
35	0x3c935de5	0.017989108
36	0xbc245766	-0.010030603
37	0xbd1a5a98	-0.037684053
38	0xbd191765	-0.037375826
39	0x3d1c843e	0.038212053
40	0x3cbe65c9	0.023241894
41	0x3c801eca	0.015639681
42	0x3c11fa9a	0.008909846
43	0x3cd3d8a7	0.025860144
44	0x3c44c989	0.01201094
45	0xbc6ef3f2	-0.014584528
46	0x3c63847a	0.013886565
47	0xbc2ca1dc	-0.010536637
48	0xbb872f19	-0.0041254875
49	0x3bfca054	0.0077095423
50	0x3a5a68dc	0.00083316653
51	0xbbe07114	-0.0068494175
52	0x3c839d4c	0.016066216
53	0xbc6cb8a0	-0.014448315
54	0xbc9645e0	-0.018343866
55	0x3ca66081	0.020309689
56	0xbd50a483	-0.05093814
57	0xbc856c0d	-0.016286874
58	0xbc7972d6	-0.015225133
59	0x3c0a817a	0.008453721
60	0xbc8d7ee5	-0.017272422
61	0x3d1ae0b7	0.03781196
62	0x3cdb26a3	0.026751822
63	0x3cd69500	0.026194096
64	0xbc4bdcb9	-0.012442761
65	0xbd00100e	-0.03126531
66	0x3b0248d9	0.0019879846
67	0x3cee99b5	0.029126028
68	0xbba4839b	-0.0050205714
69	0x3c12f226	0.0089688655
70	0x3c7bc10e	0.015365852
71	0xbc576ad9	-0.013148033
72	0xbcc0d345	-0.023538241
73	0x3bbc23c8	0.00574157
74	0xbd5ebd5a	-0.0543798
75	0x3c9889d2	0.018620405
76	0x3c801363	0.015634244
77	0x3d00a953	0.03141148
78	0x3902fe74	0.00012492557
79	0x3be0c22a	0.0068590837
80	0xbc61b0f6	-0.013775101
81	0xbcdfeefb	-0.027335634
82	0xbd25051a	-0.04028807
83	0xbceb21e9	-0.028702693
84	0xbcac2dd5	-0.021017948
85	0xbbd6dd53	-0.0065571456
86	0x3b385c1d	0.0028131076
87	0xbc897672	-0.016780112
88	0xbc138c00	-0.009005547
89	0x3cdd21dc	0.026993684
90	0x3c88b818	0.016689345
91	0xbc075d16	-0.0082619395
92	0x3d201ba8	0.039088875
93	0x3d004a2d	0.03132074
94	0x3d431557	0.047627773
95	0xbc27848b	-0.010224472
96	0xbb81d3ae	-0.0039620018
97	0x3c51d02e	0.012805982
98	0xbc7f8687	-0.015596039
99	0xbd30cba2	-0.04316295
100	0xbbb86d16	-0.0056282384
101	0xbc579501	-0.013158084
102	0xbd09d6fd	-0.033652294
103	0xbd0a83f3	-0.033817243
104	0x3b87d733	0.004145527
105	0xbc1917d5	-0.009344061
106	0xbca015f0	-0.01954171
107	0xbba5bdc7	-0.0050580236
108	0x3c18357a	0.009290094
109	0x3c22c07a	0.009933585
110	0x3c8de2db	0.017320087
111	0xbbf6c2f0	-0.0075305626
112	0x3c42e46e	0.011895282
113	0xbcf277e9	-0.029598193
114	0xbd566de2	-0.052350886
115	0xbc813b74	-0.01577542
116	0x3c3e6af6	0.011622181
117	0xbd2c2d3e	-0.042035334
118	0xbc248b1d	-0.010042933
119	0x3bd46fb1	0.006483041
120	0x3c6b8993	0.014376062
121	0xbd02400c	-0.03179936
122	0x3c2cbbb2	0.010542797
123	0xbd1a42a6	-0.037661217
124	0xbcf63034	-0.030052282
125	0xbc8c78ba	-0.01714741
126	0x3ca3a968	0.01997824
127	0xbc388fb4	-0.01126473
128	0x3c1cbfea	0.00956724
129	0x3cce1da2	0.025160614
130	0xbb962948	-0.004582558
131	0xbbf21cf2	-0.0073887045
132	0x3cc0ee6f	0.023551194
133	0xbccf4030	-0.025299162
134	0x3d4fa6d1	0.050696198
135	0x3d1b7e54	0.037962273
136	0xbcb49678	-0.022044405
137	0xbc21d0ab	-0.0098764105
138	0x3cc36186	0.023850214
139	0x3cb806b8	0.022464141
140	0x3bac15e4	0.005251633
141	0x3d3d2cc0	0.046185255
142	0x3c28e167	0.010307646
143	0xbc8b8af6	-0.017034035
144	0x3c90a712	0.01765779
145	0xbd5a9f71	-0.05337471
146	0xbc58dcc8	-0.013236232
147	0xbd08a7a7	-0.03336301
148	0x3d2f7a63	0.042841326
149	0x3d38b32a	0.04509274
150	0x3cf7b019	0.030235337
151	0x3d23776f	0.039908823
152	0x3b549cc0	0.0032442063
153	0x3c29467b	0.010331745
154	0xbcaa7abb	-0.020810476
155	0x3d138c48	0.036022455
156	0x3c373d3c	0.011184033
157	0x3d2f379f	0.042777654
158	0xbb60d3ee	-0.0034306007
159	0xbd18f792	-0.037345476
160	0x3c6aac13	0.014323252
161	0x3c888323	0.016664093
162	0x3d252e73	0.0403275
163	0xbbe94d51	-0.0071198125
164	0x3c850d59	0.016241716
165	0x3d1e90b0	0.038712204
166	0x3c9b61cd	0.018967533
167	0xbd051cc6	-0.032498144
168	0xbcb4c7de	-0.02206796
169	0xbbdab6d9	-0.006674629
170	0xbc899c72	-0.016798232
171	0xbc9aa970	-0.018879622
172	0xbca46d91	-0.020071777
173	0x3cb4e0a3	0.022079771
174	0xbbb6cd12	-0.0055786455
175	0x3d03770f	0.032095965
176	0x3c4b84c9	0.012421795
177	0x39a06aa0	0.0003059702
178	0xbbe93bc3	-0.00711772
179	0x3ba9c987	0.0051814946
180	0xbb9c1937	-0.004763748
181	0x3d1297a0	0.035789132
182	0x3c33e377	0.010979525
183	0xbc764850	-0.015031889
184	0x3d070d6e	0.032971792
185	0x3cfe5449	0.03104605
186	0x3c7af9ba	0.0153183285
187	0xbaf2b0a8	-0.0018515782
188	0x3c31b417	0.010846159
189	0xbca0554b	-0.01957192
190	0xbcaa4d43	-0.020788794
191	0xbcab737f	-0.020929096
192	0x3bc919d8	0.006137114
193	0x3c7ff53b	0.015622432
194	0xbc2bfcb6	-0.010497263
195	0xbc37e1aa	-0.011223236
196	0x3b8b9a0f	0.0042603086
197	0xbcc4f044	-0.024040349
198	0xbcc75c1d	-0.024335915
199	0x3ad27e30	0.0016059335
200	0x3c6b5ea2	0.014365824
201	0xbc414578	-0.011796348
202	0x3d1f25d1	0.038854424
203	0xbc896c6d	-0.016775334
204	0xbc398966	-0.011324262
205	0xbcf5c44a	-0.030000824
206	0x3c8c0439	0.017091857
207	0x3bfd360a	0.007727389
208	0x3b47b39b	0.0030472043
209	0x3ce797bb	0.028270593
210	0x3d22a62d	0.03970926
211	0x3d00b248	0.031420022
212	0x3b8ea42b	0.0043530664
213	0x3af59380	0.0018735975
214	0xbcb8a912	-0.022541557
215	0x3c8279d4	0.015927233
216	0xbb336995	-0.0027376164
217	0xbcff3cbb	-0.031156888
218	0xbc48dc88	-0.01225961
219	0xba0cd066	-0.000537163
220	0xbd13db04	-0.03609754
221	0xbc354cc2	-0.011065664
222	0xbd39150a	-0.04518608
223	0x3bee4d79	0.007272419
224	0xbb8d581c	-0.004313482
225	0xbc33255b	-0.010934199
226	0xbb6676c5	-0.0035166007
227	0x3d45407e	0.048157208
228	0xbc014886	-0.007890826
229	0x3c0edd68	0.00871978
230	0x3cc3971c	0.023875766
231	0x3d38f1ba	0.045152403
232	0x3bbd09c5	0.005768987
233	0xbb92b35b	-0.0044769472
234	0x3ce28d31	0.027655216
235	0x3ccef1ae	0.025261726
236	0xbc325d5c	-0.010886516
237	0xb9fd8bf5	-0.00048360197
238	0xbbd4c352	-0.0064930106
239	0x3cb25695	0.021769801
240	0xbc89ba40	-0.016812444
241	0x3cc4f8ae	0.024044361
242	0x3d18c18a	0.03729395
243	0x3bfe2c37	0.0077567357
244	0x3c08fea3	0.008361491
245	0x3d2b6dc4	0.041852728
246	0x3ceacf2b	0.028663239
247	0xba96f487	-0.0011516967
248	0xbcbb9f09	-0.022902982
249	0x3cca8b5c	0.024724655
250	0xbc2283ac	-0.009919088
251	0x3d86db00	0.0658474
252	0x3d0e04e2	0.034672625
253	0x3958c9a9	0.0002067449
254	0xbcd2c05b	-0.025726488
255	0x3c4513e4	0.012028668

action_model._discrete_distribution.branches.0.bias f4 [2]
0	0x3c38083c	0.011232432
1	0xbc38083c	-0.011232432

onnx::Div_80 f4 [92]
0	0x3ec3221a	0.38111955
1	0x3ee00bfd	0.43759146
2	0x3e296276	0.16541466
3	0x3e5d3547	0.21602355
4	0x3ab95bda	0.0014141754
5	0x3efc18e7	0.4923775
6	0x3e3a8cff	0.18217848
7	0x3e719d5b	0.23595183
8	0x3ab95bda	0.0014141754
9	0x3efc7683	0.49309167
10	0x3e7ebc4f	0.24876522
11	0x3e736f9f	0.23773049
12	0x3ab95bda	0.0014141754
13	0x3e930d33	0.28721008
14	0x3e930266	0.28712767
15	0x3e6718f8	0.22568119
16	0x3ab95bda	0.0014141754
17	0x3eab811d	0.33496943
18	0x3eab63b5	0.33474508
19	0x3e645955	0.22299702
20	0x3ab95bda	0.0014141754
21	0x3eba9eb4	0.36449206
22	0x3eba9c7b	0.3644751
23	0x3e7c1079	0.24615659
24	0x3ab95bda	0.0014141754
25	0x3eca34c0	0.3949337
26	0x3eca1c32	0.39474636
27	0x3e70f0d3	0.23529367
28	0x3ab95bda	0.0014141754
29	0x3ed2b114	0.41150725
30	0x3ed2af69	0.41149452
31	0x3e85d5fc	0.2613982
32	0x3ab95bda	0.0014141754
33	0x3ecbc94e	0.3980202
34	0x3ecbb468	0.39786077
35	0x3e7740b9	0.24145783
36	0x3ab95bda	0.0014141754
37	0x3edeb5f1	0.43498185
38	0x3edeb43b	0.4349688
39	0x3e8a60ec	0.2702707
40	0x3ab95bda	0.0014141754
41	0x3e9311a4	0.28724396
42	0x3e92efa5	0.2869846
43	0x3e702920	0.23453188
44	0x3ab95bda	0.0014141754
45	0x3eb95fd2	0.36205918
46	0x3eb95d20	0.3620386
47	0x3e8a4361	0.2700453
48	0x3ab95bda	0.0014141754
49	0x3e884251	0.26613095
50	0x3e881e69	0.265857
51	0x3e6036ec	0.21895951
52	0x3ab95bda	0.0014141754
53	0x3e962e9c	0.29332435
54	0x3e962aff	0.29329678
55	0x3e820ca6	0.25400275
56	0x3ab95bda	0.0014141754
57	0x3e7fa224	0.24964195
58	0x3e7f54c2	0.24934676
59	0x3e63199f	0.22177742
60	0x3ab95bda	0.0014141754
61	0x3e85538c	0.26040304
62	0x3e854fae	0.26037353
63	0x3e7d59f4	0.24741346
64	0x3ab95bda	0.0014141754
65	0x3e8d3b5c	0.2758435
66	0x3e8d1c06	0.27560443
67	0x3e6e5556	0.2327474
68	0x3ab95bda	0.0014141754
69	0x3e870fb6	0.26379174
70	0x3e870c5a	0.2637661
71	0x3e8013f8	0.25015235
72	0x3ab95bda	0.0014141754
73	0x3e94cddf	0.29063317
74	0x3e94afc2	0.29040343
75	0x3e7baebb	0.24578373
76	0x3ab95bda	0.0014141754
77	0x3e938758	0.28814197
78	0x3e938519	0.28812483
79	0x3e836cbc	0.25668895
80	0x3ab95bda	0.0014141754
81	0x3e9fc8b8	0.31207824
82	0x3e9fafcd	0.31188813
83	0x3e847d49	0.25876835
84	0x3ab95bda	0.0014141754
85	0x3e9e3085	0.30896392
86	0x3e9e2f2c	0.30895364
87	0x3e87da77	0.26533863
88	0x3ab95bda	0.0014141754
89	0x3ea61447	0.32437345
90	0x3ea5fd3b	0.32419762
91	0x3e8a697a	0.27033597

onnx::Div_83 f4 [12]
0	0x40681e7c	3.6268606
1	0x3b825c95	0.003978322
2	0x40599a9c	3.4000616
3	0x491a5678	632167.5
4	0x49219e46	661988.4
5	0x4736dfc4	46815.766
6	0x3bd5176c	0.0065030362
7	0x3abe685c	0.0014526951
8	0x3c307546	0.010770148
9	0x467e97e9	16293.978
10	0x465a02d9	13952.712
11	0x447cc41c	1011.0642
