Assets/Scripts/Test11.onnx (onnx, 131520 bytes, 13 tensors)

network_body.observation_encoder.processors.0.normalizer.running_mean f4 [92]
0	0x3f7faa4f	0.99869245
1	0x00000000	0.0
2	0x00000000	0.0
3	0x3ef32e48	0.47496247
4	0x00000000	0.0
5	0x3f7ffc63	0.99994487
6	0x00000000	0.0
7	0x3f1ae819	0.605104
8	0x3f56c813	0.8389904
9	0x00000000	0.0
10	0x00000000	0.0
11	0x3ed9ec2c	0.42562997
12	0x00000000	0.0
13	0x3f7ffc63	0.99994487
14	0x00000000	0.0
15	0x3f1dd484	0.616524
16	0x00000000	0.0
17	0x3f5ee662	0.87070286
18	0x00000000	0.0
19	0x3f0e03d9	0.5547462
20	0x00000000	0.0
21	0x3f7ffc63	0.99994487
22	0x00000000	0.0
23	0x3f22e989	0.63637596
24	0x00000000	0.0
25	0x3f659bf3	0.89691085
26	0x00000000	0.0
27	0x3f14876a	0.58019125
28	0x00000000	0.0
29	0x3f7ffc63	0.99994487
30	0x00000000	0.0
31	0x3f2a80de	0.66602886
32	0x00000000	0.0
33	0x3f69b5bf	0.9129295
34	0x00000000	0.0
35	0x3f1d3330	0.6140623
36	0x00000000	0.0
37	0x3f7ffc63	0.99994487
38	0x00000000	0.0
39	0x3f352db5	0.7077287
40	0x00000000	0.0
41	0x3f6c14d4	0.9221928
42	0x00000000	0.0
43	0x3f2823eb	0.65679806
44	0x00000000	0.0
45	0x3f7ffc63	0.99994487
46	0x00000000	0.0
47	0x3f43dab8	0.76505613
48	0x00000000	0.0
49	0x3f6d209e	0.92627895
50	0x00000000	0.0
51	0x3f363d80	0.7118759
52	0x00000000	0.0
53	0x3f7ffc63	0.99994487
54	0x00000000	0.0
55	0x3f4e3a9c	0.8055818
56	0x00000000	0.0
57	0x3f6e052b	0.92976636
58	0x00000000	0.0
59	0x3f320de7	0.69552463
60	0x00000000	0.0
61	0x3f7ffc63	0.99994487
62	0x00000000	0.0
63	0x3f3a6350	0.7280779
64	0x00000000	0.0
65	0x3f6eb420	0.932436
66	0x00000000	0.0
67	0x3f2156b6	0.63022935
68	0x00000000	0.0
69	0x3f7ffc63	0.99994487
70	0x00000000	0.0
71	0x3f2bf689	0.6717306
72	0x00000000	0.0
73	0x3f6e93fd	0.9319456
74	0x00000000	0.0
75	0x3f14c4d0	0.5811281
76	0x00000000	0.0
77	0x3f7ffc63	0.99994487
78	0x00000000	0.0
79	0x3f217503	0.6306917
80	0x00000000	0.0
81	0x3f6df352	0.929494
82	0x00000000	0.0
83	0x3f0b52b3	0.54423064
84	0x00000000	0.0
85	0x3f7ffc63	0.99994487
86	0x00000000	0.0
87	0x3f19f2e5	0.6013625
88	0x00000000	0.0
89	0x3f6d20a3	0.92627925
90	0x00000000	0.0
91	0x3f0466ea	0.51719534

network_body.observation_encoder.processors.1.normalizer.running_mean f4 [12]
0	0x3eaf182f	0.34198138
1	0x40283cb7	2.6287057
2	0x4092127c	4.5647564
3	0xc25f4c85	-55.824726
4	0x408c598c	4.385931
5	0x4287352a	67.603836
6	0xc08f938e	-4.486762
7	0x3e70a078	0.23498714
8	0xc0f19637	-7.549587
9	0xbc18f04e	-0.009334637
10	0x403688a6	2.8520904
11	0x40bc07bf	5.8759456

network_body._body_endoder.seq_layers.0.weight f4 [128, 104]
0	0xbe87d2c2	-0.26527983
1	0xbd255300	-0.040362358
2	0x3da7bc46	0.08190207
3	0xbdc4e990	-0.09614861
4	0xbd40dfc0	-0.047088385
5	0xbd253c41	-0.040340666
6	0xbd283c62	-0.04107321
7	0xbb88d933	-0.004176283
8	0xbc1e9ec9	-0.009681412
9	0xbd6df117	-0.05809125
10	0xbd919e2d	-0.07110248
11	0x3e44de85	0.1922551
12	0x3d94ca28	0.07265121
13	0x3d24668d	0.040136863
14	0xbdd4fd46	-0.103998706
15	0x3d7a56be	0.06111788
16	0x3cec4783	0.028842693
17	0x3b60cc17	0.0034301335
18	0xbcef246c	-0.029192172
19	0xbe0da27f	-0.13831519
20	0xbd02bac0	-0.03191638
21	0xbcc0294a	-0.023457188
22	0xbbb77f1a	-0.0055998685
23	0xbd4b6f7a	-0.04966686
24	0xbcec87b7	-0.028873308
25	0xbd942032	-0.07232703
26	0x3b4d6325	0.0031339612
27	0x3d6338f8	0.05547425
28	0x3e0499ca	0.12949291
29	0x3bda381f	0.006659522
30	0xbc631470	-0.013859853
31	0xbdad25bc	-0.08454463
32	0x3d9108bb	0.07081743
33	0x3cdc07d1	0.026859196
34	0xbcc55caa	-0.024092037
35	0x3d845771	0.064619906
36	0xbd7b008f	-0.06127983
37	0xbcc09dae	-0.023512688
38	0xbe7c3b69	-0.24632038
39	0x3d808354	0.06275049
40	0x3e29120b	0.16510789
41	0x3c8647f0	0.016391724
42	0x3ca0354c	0.019556664
43	0xbdfdec04	-0.12398532
44	0x3e14a507	0.14516078
45	0xbd3af0e8	-0.045639902
46	0x3df67291	0.120335706
47	0x3e4000b9	0.18750276
48	0x3b2dec2f	0.0026538481
49	0x3d9316d2	0.07182087
50	0x3c98bc0d	0.018644357
51	0x3e08841f	0.1333165
52	0x3ba47796	0.0050191386
53	0xbd28f375	-0.041247804
54	0x3d6ec197	0.05829009
55	0xbd3e7a16	-0.04650315
56	0x3cc7f79e	0.024410065
57	0x3bd4a220	0.0064890534
58	0x3d00cd93	0.03144605
59	0x3d713d76	0.058896504
60	0xbb87e9d9	-0.00414775
61	0xbe2e299f	-0.17008065
62	0x3e0350ed	0.1282384
63	0x3cf0827e	0.029359099
64	0xbc8ce00c	-0.017196678
65	0xbdb46aa9	-0.08809406
66	0x3ce0edba	0.027457107
67	0xbd9a4dea	-0.07534392
68	0x3d7a671c	0.06113349
69	0x3d4f51f6	0.050615273
70	0x3b9b1df2	0.0047337944
71	0x3d8ad959	0.06779737
72	0x3e2818a0	0.16415644
73	0xbdbf2369	-0.09332926
74	0x3df4da00	0.11955643
75	0xbd534355	-0.051577885
76	0xbd96f6a1	-0.073712595
77	0xbb794b97	-0.003803944
78	0xbcb82da4	-0.0224827
79	0xbc4dbfb4	-0.012557913
80	0x3cd1c6fc	0.025607578
81	0xbe0bf45a	-0.13667431
82	0xbde45f41	-0.11150981
83	0xbdf3cb25	-0.11903981
84	0xbdf61eec	-0.12017617
85	0x3d6efbbd	0.058345545
86	0xbd885b92	-0.06658091
87	0x3d21f7bd	0.039542902
88	0x3e78778c	0.24264354
89	0x3d9ed4d0	0.077554345
90	0x3be958dc	0.0071211886
91	0x3dd45e4d	0.10369549
92	0x3be381b5	0.0069429525
93	0x3d1928c9	0.03739241
94	0x3af9f1c2	0.0019069242
95	0x3dbecc92	0.093163624
96	0xbd50bb91	-0.050960127
97	0x3d92638f	0.071478955
98	0xbd7f11a7	-0.062272694
99	0xbdc31afe	-0.09526633
100	0x3d4f0421	0.050541047
101	0x3db55652	0.08854355
102	0xbdaf85fb	-0.085704766
103	0xbd080472	-0.033207364
104	0x3de30495	0.11084858
105	0xbe04eae4	-0.12980229
106	0xbe05aaae	-0.1305339
107	0xbd760f1c	-0.060073003
108	0x3db9d103	0.09073069
109	0xbddf812e	-0.10913311
110	0x3d1c1c05	0.03811266
111	0xbdac1dfd	-0.08404157
112	0xbd1c786f	-0.038200792
113	0x3df8e4a5	0.121529855
114	0x3c899c25	0.016798088
115	0x3de4f8a2	0.111802354
116	0x3e0a59af	0.13510774
117	0xbddfc6bb	-0.10926577
118	0x3d216177	0.03939959
119	0xbe37deee	-0.17956135
120	0x3cceb36e	0.025232043
121	0x3d4f2ed5	0.050581772
122	0x3cdd0925	0.0269819
123	0x3e1f8363	0.15577464
124	0xbd28bbb0	-0.041194618
125	0xbe3dbed0	-0.1852982
126	0xbd000e9e	-0.03126394
127	0xbc81de5f	-0.015853105
128	0xbd10cfde	-0.035354488
129	0x3d93f0f7	0.07223695
130	0xbe126061	-0.14294578
131	0xbe01b95a	-0.12668362
132	0xbd822397	-0.063544445
133	0xbdfba577	-0.12287419
134	0x3cbc14cb	0.022959134
135	0x3dc1e301	0.09467126
136	0xbde25d5d	-0.11052964
137	0x3e89596d	0.2682604
138	0x3b71cb52	0.003689487
139	0xbd58c7ee	-0.052925043
140	0x3da56ce7	0.08077412
141	0xbe6bfe3d	-0.23046203
142	0xbdc6bd22	-0.09704043
143	0xbdd573bb	-0.104224645
144	0x3c348d64	0.011020038
145	0x3d131114	0.03590496
146	0x3d194ed8	0.037428707
147	0xbd445214	-0.04792984
148	0xbe059b36	-0.1304749
149	0xbe4cf9e1	-0.20017196
150	0xbc943a29	-0.01809414
151	0xbe16b5f6	-0.1471785
152	0x3cb8831f	0.02252346
153	0xbd264075	-0.040588815
154	0x3daca43c	0.08429763
155	0xbdbe6a6e	-0.092976436
156	0xbdcb1cb6	-0.099175856
157	0xbc523802	-0.012830736
158	0xbe0c0c17	-0.13676487
159	0xbde7b730	-0.11314237
160	0xbd80ad55	-0.062830605
161	0xbe21222b	-0.1573569
162	0x3d157c93	0.036495756
163	0xbb84968d	-0.0040462674
164	0xbdcfeb83	-0.10152342
165	0xbe325b9f	-0.17417763
166	0xbe08e4ac	-0.13368481
167	0xbdbf6dec	-0.09347138
168	0xbe23d2a0	-0.15998316
169	0xbd797dd6	-0.060911022
170	0x3d99dbd2	0.075126305
171	0x3d5941fb	0.05304144
172	0xbdf1ed86	-0.11812882
173	0x3dc4ff71	0.09619034
174	0xbd0b26a4	-0.033972397
175	0xbe1020b4	-0.14074975
176	0xbd570a97	-0.052500334
177	0x3d9fd928	0.07805091
178	0x38a65f99	7.933303e-05
179	0x3cea99e6	0.028637838
180	0xbd36928b	-0.044573348
181	0xbd60b4ca	-0.054859914
182	0xbd6ec578	-0.05829379
183	0xbc28616c	-0.010277133
184	0xbcebd6ce	-0.02878895
185	0x3d185b42	0.037196405
186	0xbd603f51	-0.054747883
187	0x3bb2b5c9	0.0054537994
188	0x3e77f082	0.2421284
189	0xbe35807f	-0.17724799
190	0x3c21b329	0.009869375
191	0xbe554513	-0.20827131
192	0xbe50fa37	-0.2040795
193	0x3d894fcf	0.067046754
194	0x3db935cb	0.09043463
195	0xbe104546	-0.14088926
196	0x3d1ae1c5	0.037812967
197	0xbc05acfb	-0.008158918
198	0xbec21181	-0.3790398
199	0x3d174da1	0.036939267
200	0x3e4739c9	0.19455637
201	0xbd835f6f	-0.06414687
202	0x3e4687ae	0.19387695
203	0xbe878ed1	-0.26476148
204	0x3d4e7a7d	0.050409783
205	0x3dd80f9f	0.105498545
206	0x3debb9fb	0.11510082
207	0xbd169053	-0.036758732
208	0x3d691db7	0.056913104
209	0x3d975cac	0.07390723
210	0x3d7d2bab	0.061809223
211	0x3dc4c6a4	0.096082
212	0x3c5ecd70	0.013598785
213	0x3e366a7f	0.17814063
214	0xbd0617a8	-0.032737404
215	0x3d8df52c	0.069315284
216	0x3cb6bdb0	0.022307247
217	0x3d8acfa9	0.06777889
218	0xbe3b0c65	-0.18266447
219	0xbddb0500	-0.10694313
220	0x3c579e39	0.013160282
221	0x3e1100cf	0.14160465
222	0xbdadd6fd	-0.084882714
223	0x3e7a08c1	0.24417402
224	0xbe163ccf	-0.14671634
225	0xbda0a762	-0.07844426
226	0x3ddada30	0.10686147
227	0xbdb1d001	-0.08682252
228	0x3cd4a591	0.025957854
229	0xbd9b3879	-0.07579131
230	0x3c44bde9	0.012008169
231	0x3d92f6f7	0.07176011
232	0x3ddad49e	0.10685085
233	0xbd9dffaa	-0.0771478
234	0x3e77d951	0.24203993
235	0x3d162e24	0.036665097
236	0xbdabd9b2	-0.083911315
237	0x3e1270a6	0.14300784
238	0x3d65f3e9	0.056140814
239	0x3d53d08e	0.051712565
240	0xbce21f6e	-0.027602877
241	0xbdb054c6	-0.08609919
242	0x3d08ac27	0.033367302
243	0x3c249072	0.010044204
244	0x3e1c7d78	0.15282238
245	0x3e01966d	0.12655039
246	0xbd6fbc6b	-0.0585293
247	0x3e1c0378	0.15235698
248	0xbdbe25e6	-0.09284572
249	0x3be59b78	0.0070070587
250	0xbe4b2d0b	-0.19841401
251	0x3e3effe8	0.18652308
252	0x3dffff27	0.12499838
253	0x3dbb31aa	0.09140332
254	0xbc22c59b	-0.009934808
255	0xbd16c434	-0.036808208

network_body._body_endoder.seq_layers.0.bias f4 [128]
0	0xbd1e92a7	-0.038714077
1	0xbdc0e429	-0.09418518
2	0x3dc7f1dc	0.09762928
3	0xbcb37123	-0.021904534
4	0xbdae436c	-0.085089535
5	0x3dcbca2f	0.09950673
6	0xbb46af03	-0.0030316717
7	0x3d903c97	0.070428066
8	0xbdc58994	-0.096453816
9	0x3d322518	0.043492407
10	0x3dccabf2	0.099937335
11	0x3d791759	0.06081328
12	0xbcd580a9	-0.026062327
13	0x3dcf0485	0.10108284
14	0x3dc2d051	0.095123895
15	0xbde08554	-0.1096293
16	0xbd82e3e9	-0.06391127
17	0x3dcc24f0	0.09967983
18	0x3dbbd42a	0.091713265
19	0x3da90d0e	0.08254443
20	0x3d8d8f94	0.06912151
21	0x3d1e1c25	0.03860106
22	0x3cec8824	0.02887351
23	0x3dd45d26	0.10369329
24	0xbd5d63f1	-0.05405039
25	0x3d94453e	0.072397694
26	0xbd0484e5	-0.0323533
27	0xbda352ed	-0.07974801
28	0x3dad65fe	0.08466719
29	0xbd2508ba	-0.040291525
30	0xbb0ab3bc	-0.002116426
31	0x3d92106e	0.0713204
32	0xbd895320	-0.06705308
33	0xbce8e230	-0.028428167
34	0xbc61adfb	-0.01377439
35	0x3d88bd23	0.066767
36	0x3dc6f5c7	0.09714847
37	0x3e011e6a	0.12609258
38	0xbcfb9b30	-0.030713648
39	0x3daf49fd	0.08559034
40	0x3de9c160	0.114138365
41	0x3df5f4b7	0.12009566
42	0xbd0ad937	-0.03389856
43	0xbd8ecfd8	-0.06973237
44	0xbd8f7c0a	-0.070060804
45	0x3d91b4ca	0.07114561
46	0xbdc15714	-0.09440437
47	0xbd8e225b	-0.069401465
48	0x3de35df4	0.111019045
49	0x3d33f015	0.043930132
50	0xbe002bab	-0.12516658
51	0x3ded0c97	0.11574667
52	0x3dcdb73e	0.10044716
53	0x3da04014	0.07824722
54	0x3d839469	0.06424791
55	0x3dc4c94c	0.09608707
56	0xbde00921	-0.10939241
57	0x3d93cfa7	0.07217341
58	0x3dd72f1f	0.105070345
59	0x3db77ce4	0.08959368
60	0x3dd95932	0.10612716
61	0x3dd3a0fa	0.10333438
62	0xbc05ab48	-0.008158512
63	0x3dd63ff0	0.10461414
64	0x3db5f798	0.088851154
65	0xbdbab5b0	-0.091166854
66	0x3dc0ba76	0.094105646
67	0xbda2296b	-0.07918056
68	0xbdc19a7d	-0.094532944
69	0x3df000f3	0.11718931
70	0x3dcaeaf0	0.09908092
71	0xbddbc9c3	-0.10731842
72	0x3de567e9	0.1120146
73	0x3d9de801	0.07710267
74	0xbdc2acb9	-0.095056005
75	0x3db9dcee	0.09075342
76	0xbc06bfb5	-0.008224417
77	0x3dded39e	0.108802065
78	0xbc6adfd0	-0.014335588
79	0x3de195b9	0.110148855
80	0xbdb45c7e	-0.08806704
81	0x3dbccd63	0.09218862
82	0xbdd1df4d	-0.10247669
83	0x3daddd4b	0.08489474
84	0xbdc7003c	-0.097168416
85	0xbd14452a	-0.036198772
86	0xbd6ff462	-0.05858267
87	0x3d2f6059	0.042816494
88	0xbdbfc028	-0.09362823
89	0xbdc80ea3	-0.09768417
90	0x3daf6606	0.08564381
91	0x3dd4c5e2	0.10389306
92	0xba95ec23	-0.0011438172
93	0xbcbb678c	-0.022876523
94	0x3d9d1816	0.0767061
95	0xbd103420	-0.03520596
96	0x3d9933cb	0.07480582
97	0x3dbea948	0.093096316
98	0x3cdaa2c7	0.026688946
99	0xbd9055a6	-0.07047586
100	0x3db95068	0.090485394
101	0xbdaa2711	-0.083082326
102	0xbde2a489	-0.11066539
103	0xbd28e246	-0.041231416
104	0xbda370ed	-0.07980523
105	0xbda20c6f	-0.07912528
106	0x3d7c613d	0.06161617
107	0xbd73eac5	-0.059550066
108	0x3d9cc5a9	0.07654888
109	0xbdcfcb5b	-0.10146209
110	0xbbad45ae	-0.0052878475
111	0x3d74c613	0.05975921
112	0xbd0caa37	-0.034342017
113	0xbcb51c51	-0.022108229
114	0x3dc48788	0.09596163
115	0x3dd284ae	0.10279213
116	0x3dc12d51	0.094324715
117	0x3daf6188	0.085635245
118	0x3df82be7	0.12117749
119	0x3ce65389	0.028116005
120	0x3de5cf40	0.112211704
121	0xbcf7b599	-0.03023796
122	0x3db6dccc	0.089288324
123	0x3df1d21c	0.11807653
124	0x3dda4a47	0.106586985
125	0x3c70dd94	0.014701266
126	0xbdb217fe	-0.086959824
127	0x3db3af5d	0.08773682

network_body._body_endoder.seq_layers.2.weight f4 [128, 128]
0	0xbda4c3d3	-0.08045163
1	0xbd30fc39	-0.04320929
2	0xbd80c744	-0.06288007
3	0xbdf3c8aa	-0.11903508
4	0xbbbebc29	-0.0058207703
5	0xbe09fa39	-0.13474359
6	0x3d2a5589	0.04158548
7	0xbd990e72	-0.07473458
8	0x3d3d4f69	0.04621831
9	0x3e588dee	0.21147892
10	0xbd86cb2c	-0.06581721
11	0xbd93b907	-0.072130255
12	0xbc866fb7	-0.016410692
13	0x3cb9fafd	0.022702688
14	0xbd5d6121	-0.054047707
15	0xbc711125	-0.01471356
16	0xbddeb7db	-0.108749114
17	0x3a636e0e	0.0008675762
18	0x3bee1778	0.0072659813
19	0xbc38b14a	-0.011272738
20	0xbcb24f11	-0.021766217
21	0xbcb0f959	-0.021603273
22	0xbd61b0bd	-0.05510019
23	0xbdf45d9c	-0.11931917
24	0xbe11eb82	-0.14249995
25	0xbd1e2eda	-0.0386189
26	0x3e330273	0.17481403
27	0xbda4a99c	-0.08040163
28	0xbdbfa60a	-0.09357841
29	0xbcb0c9e9	-0.021580653
30	0x3e370498	0.17872846
31	0xbcc32ecb	-0.023826024
32	0xbddc335b	-0.10751983
33	0x3dcdf932	0.10057296
34	0xbdd6aaf3	-0.10481825
35	0x3cdb0d04	0.026739605
36	0xbe03855f	-0.12843846
37	0xbdad839e	-0.084723696
38	0x3c921cb7	0.017835958
39	0xbdde1f21	-0.10845781
40	0xbc243d32	-0.010024356
41	0xbe4e8a36	-0.20169911
42	0x3da0b856	0.07847659
43	0x3d8dcac0	0.06923437
44	0xbd628168	-0.055299193
45	0xbd56bbd4	-0.05242522
46	0xbc06ccc3	-0.00822753
47	0x3bb351e2	0.0054724077
48	0x3dadd33d	0.08487556
49	0x3de487a8	0.11158687
50	0x3dd9dadd	0.10637448
51	0x3df25a5a	0.118336394
52	0xbd93fb47	-0.07225662
53	0x3b94753a	0.004530576
54	0x3da0a354	0.07843652
55	0xbd0af49c	-0.033924684
56	0xbe957dbc	-0.2919749
57	0x3b0b8529	0.0021289086
58	0x3c8702c2	0.016480807
59	0x3e1519af	0.14560579
60	0x3c02083b	0.007936533
61	0x3e3478f7	0.1762427
62	0xbd1f264b	-0.03885488
63	0xbd9ec0cc	-0.07751617
64	0x3d93694d	0.07197819
65	0xbe1edf93	-0.15514974
66	0x3dba1844	0.090866596
67	0xbc30cb39	-0.01079064
68	0xbcd9dd55	-0.026594797
69	0x3ceee067	0.029159738
70	0x3df6e906	0.120561644
71	0x3e0cc792	0.13748005
72	0x3e0104e8	0.12599528
73	0xbd89cb6a	-0.06728251
74	0xbd9947e2	-0.07484414
75	0xbe1078d6	-0.14108595
76	0x3cc5322e	0.02407178
77	0x3a8bd3b5	0.0010667952
78	0x3ba8e3aa	0.005154093
79	0x3d5a39f9	0.053277943
80	0xbd716d32	-0.058942027
81	0xbd230247	-0.039797094
82	0xbd48f772	-0.049064107
83	0x3de94ab2	0.113912
84	0x3d8203f1	0.06348408
85	0xbc9e78bb	-0.019344678
86	0xbd2eddc4	-0.04269196
87	0xbe4527b4	-0.19253427
88	0x3c8fccf5	0.017553786
89	0x3d9f5702	0.07780267
90	0x3dc066aa	0.093945816
91	0xbdb14d57	-0.086573295
92	0x3b91c6ac	0.0044487324
93	0xbd357d8f	-0.044309195
94	0xbd9c9658	-0.07645863
95	0x3def5ba1	0.11687399
96	0xbc93d5df	-0.018046318
97	0x3dc5ad25	0.09652165
98	0xbc32558b	-0.010884653
99	0xbd1f3436	-0.03886815
100	0x3dc77b41	0.09740306
101	0x3dde7906	0.10862927
102	0xbdc366ec	-0.09541115
103	0x3c0f5268	0.0087476745
104	0x3cb1663f	0.0216552
105	0x3e5a4035	0.21313556
106	0xbd1acae8	-0.037791163
107	0xbb7a478a	-0.0038189613
108	0xbe292f41	-0.16521932
109	0x3ddc59af	0.10759293
110	0x3c8a3c73	0.016874528
111	0x3c8943ed	0.016756022
112	0xbbd6f99d	-0.006560518
113	0x3b686c86	0.0035465076
114	0xbdb83f47	-0.08996444
115	0x3e31a0bf	0.17346476
116	0xbe150748	-0.14553559
117	0x3d854571	0.065073855
118	0xbdbff922	-0.0937369
119	0x3d153431	0.036426727
120	0x3d5d482a	0.0540239
121	0xbd2aacae	-0.041668586
122	0xbe1406eb	-0.14455764
123	0xba117cce	-0.00055499084
124	0xbda4e46e	-0.08051382
125	0x3da43503	0.08017924
126	0x3e3dee86	0.1854802
127	0xbd0c3161	-0.03422678
128	0x3d54a857	0.051918354
129	0xbd543a7b	-0.051813584
130	0x3e33e08f	0.17566131
131	0xbe45c4d5	-0.19313367
132	0x3dd4d609	0.103923865
133	0xbd5fd33e	-0.054644816
134	0xbd7e3c11	-0.062069003
135	0x3e52b071	0.2057512
136	0x3949b190	0.00019235001
137	0x3cab4de7	0.02091117
138	0x3b96d0be	0.0046025207
139	0x3e38b206	0.1803666
140	0x3e5f9674	0.21834737
141	0xbba9d9bb	-0.005183426
142	0xbddc0bfd	-0.10744474
143	0xbd495048	-0.049148828
144	0xbd78c459	-0.060734127
145	0x3e2df3ad	0.16987486
146	0x3b92562d	0.0044658394
147	0xbd1ee1b7	-0.038789477
148	0xbda14aed	-0.07875619
149	0xbe23f544	-0.1601153
150	0xbe2bef1e	-0.16790435
151	0x3d2602f8	0.040530175
152	0x3d903b17	0.070425205
153	0x3d51d5ef	0.051229414
154	0x3d9923f5	0.074775614
155	0x3d4a5b29	0.049403343
156	0x3d9f4efc	0.07778737
157	0x3e119f85	0.14221008
158	0xbc76287c	-0.015024301
159	0x3c5afb1b	0.013365532
160	0xbc92d21d	-0.017922455
161	0x3db42c9f	0.08797573
162	0xbdad0e03	-0.08449938
163	0x3e9e6a90	0.30940676
164	0x3e809614	0.251145
165	0x3e5d895b	0.21634428
166	0xbdb09805	-0.086227454
167	0x3e31be5b	0.17357771
168	0x3d0a24d8	0.033726543
169	0xbdc1d47d	-0.09464357
170	0x3c4b9b16	0.012427112
171	0x3dff2a86	0.124592826
172	0x3cdff5b1	0.027338834
173	0x3e3ad873	0.18246631
174	0x3e043cab	0.12913768
175	0xbe160133	-0.14648895
176	0x3d94fa86	0.07274346
177	0x3e150094	0.14551002
178	0xbdd5a78f	-0.1043235
179	0x3e4a84e8	0.19777262
180	0x3d5a742d	0.05333345
181	0x3d0ae665	0.033911128
182	0x3daca8e6	0.08430652
183	0x3e143947	0.14474975
184	0xbdca4ee3	-0.09878328
185	0x3d2cd105	0.042191524
186	0x3d8fac89	0.0701533
187	0x3e83b07a	0.25720578
188	0x3c80cc59	0.01572244
189	0x3e1779e5	0.14792593
190	0x3e1e7372	0.15473726
191	0x3be98ee7	0.007127631
192	0x3c852473	0.016252732
193	0xbdffb4f0	-0.12485683
194	0xbd04129e	-0.032244317
195	0x3dbc39b6	0.09190695
196	0x3d8ccc49	0.06874902
197	0x3d604a0a	0.05475811
198	0x3e7df654	0.24800998
199	0x3ac2e41d	0.0014869008
200	0x3d91b820	0.07115197
201	0xbe155fa4	-0.14587265
202	0x3ca182a5	0.019715616
203	0xbd9e58a2	-0.07731749
204	0xbdbb5cff	-0.09148597
205	0xbda352d1	-0.0797478
206	0xbd1381d2	-0.03601248
207	0xbc218e3b	-0.009860571
208	0x3d8073a7	0.06272059
209	0x3d8dbf47	0.06921249
210	0x3d11f9eb	0.03563873
211	0x3e5c5abc	0.21518987
212	0x3c56ef49	0.013118573
213	0xbd3d0be0	-0.046153903
214	0xbdce71cc	-0.10080299
215	0xbdbc42c5	-0.09192423
216	0xbdb3c644	-0.087780505
217	0xbde52082	-0.11187841
218	0xbd63858d	-0.055547286
219	0x3e29c8da	0.16580525
220	0xbce58b49	-0.028020518
221	0xbd8b5d3a	-0.06804891
222	0x3c28af72	0.010295736
223	0xbdd55a3b	-0.10417601
224	0xbdac02f7	-0.08399003
225	0x3e472516	0.19447741
226	0x3d76077e	0.06006574
227	0x3e01d018	0.12677038
228	0x3d7715e3	0.060323607
229	0x3db88379	0.090094514
230	0x3de74c5c	0.11293861
231	0x3c007721	0.007840903
232	0x3da0e5d3	0.078563355
233	0xbe7b1f82	-0.24523738
234	0x3be4cfd1	0.0069827815
235	0xbe951060	-0.29114056
236	0x3da9b6b5	0.08286802
237	0x3d1e7ae1	0.038691405
238	0x3e12bf4a	0.14330783
239	0x3dc07670	0.0939759
240	0xbba96317	-0.005169283
241	0xbaca0f5f	-0.0015415958
242	0x3ddea847	0.1087194
243	0xbd07844d	-0.033085156
244	0x3c76911c	0.015049245
245	0x3e06d45e	0.13166949
246	0x3d0dc216	0.034608923
247	0x3dd0285a	0.101639464
248	0x3dca0064	0.09863356
249	0x3d1d09ed	0.038339544
250	0x3e1031d1	0.14081503
251	0xbd2c200c	-0.04202275
252	0x3d1a3b10	0.037653983
253	0x3e4b1a1f	0.19834183
254	0xbd4d6164	-0.050141707
255	0xbaa7507a	-0.0012765073

network_body._body_endoder.seq_layers.2.bias f4 [128]
0	0xbd6aa324	-0.05728449
1	0x3de11771	0.10990799
2	0x3d0f63dc	0.035007343
3	0xbd876f41	-0.06613017
4	0xb9ba2cd5	-0.00035510087
5	0x3dde2545	0.10846952
6	0xbd536c75	-0.051617105
7	0x3d8446d0	0.06458819
8	0x3d4bc54d	0.049748708
9	0x3d7276ed	0.059195448
10	0x3d45b42a	0.04826752
11	0x3d56c9b5	0.052438457
12	0xbd0f0c7c	-0.034924015
13	0xbd804790	-0.062636495
14	0x3cf03c0b	0.029325506
15	0x3d5c3066	0.053757094
16	0xbd574cc8	-0.05256346
17	0x3d3d2254	0.046175316
18	0xbd5d936f	-0.05409568
19	0xbdd94f84	-0.106108695
20	0xbd7ee890	-0.062233508
21	0x39065210	0.00012809807
22	0xbd37a386	-0.044833682
23	0xbc021470	-0.007939443
24	0x3ddd4b40	0.108053684
25	0xbd071e16	-0.032987677
26	0x3d4b89e0	0.049692035
27	0x3dde44ce	0.10852967
28	0x3de7bfe0	0.11315894
29	0xbce62b6c	-0.028096877
30	0xbcd3fa07	-0.025876058
31	0xbd88c482	-0.06678106
32	0xbdab75ea	-0.083721
33	0x3dba4d5d	0.09096787
34	0x3cb2b6e7	0.02181573
35	0xbc6a2f9a	-0.014293576
36	0xbcb49e78	-0.02204822
37	0xbc1bd05c	-0.009510126
38	0x3d775eb6	0.060393058
39	0xbd54d099	-0.051956747
40	0xbd0b0979	-0.03394458
41	0xbd193113	-0.037400316
42	0x3dca2492	0.098702565
43	0x3dd33de6	0.103145406
44	0x3da11e28	0.0786708
45	0xbd996974	-0.07490817
46	0x3da96e3c	0.08272979
47	0xbc3a7a69	-0.011381724
48	0xbd8209b1	-0.06349505
49	0xbd93aaab	-0.07210287
50	0xbd63d340	-0.055621386
51	0xbd4e556a	-0.050374426
52	0x3d9459b9	0.07243676
53	0x3de0f990	0.109851
54	0x3c9a163c	0.01880943
55	0xbd6365d4	-0.055517033
56	0x3d471bee	0.04861062
57	0xbd5c5b5b	-0.05379806
58	0x3ddfae90	0.10921967
59	0xbdb141e6	-0.08655147
60	0xbd83ab22	-0.06429125
61	0xbcb03aee	-0.021512475
62	0xbdb0903c	-0.086212605
63	0x3da6726e	0.081272945
64	0xbd3a9284	-0.045549884
65	0x3dc07601	0.093975075
66	0x3dbf31de	0.09335683
67	0x3d0a1cc2	0.03371883
68	0x3da963b9	0.08270974
69	0x3dc004b3	0.09375896
70	0xbcf1da9d	-0.029523188
71	0x3dbd2300	0.09235191
72	0x3db27df9	0.087154336
73	0x3ded043d	0.11573074
74	0xbd8f859d	-0.070079066
75	0x3d9fffef	0.07812487
76	0xbd4b0e83	-0.049574386
77	0x3cea42a9	0.02859624
78	0x3dc912dc	0.0981805
79	0x3dcd07a7	0.10011225
80	0xbcd68041	-0.026184203
81	0xbdd8d0d6	-0.10586707
82	0x3dda6013	0.10662856
83	0xbdb7cd94	-0.08974758
84	0xbda07f18	-0.07836741
85	0x3de082ea	0.1096247
86	0x3d8d376c	0.068953365
87	0x3dbfca28	0.0936473
88	0x3dd6b305	0.10483364
89	0x3d7bbcd4	0.061459377
90	0x3dd9bf39	0.10632176
91	0x3c37df1e	0.011222629
92	0x3dbcc27f	0.09216785
93	0x3d68df9e	0.056853883
94	0xbde5b5f5	-0.11216346
95	0xbd20fb7d	-0.039302338
96	0x3d0deb29	0.034648094
97	0x3dc974f1	0.09836758
98	0xbc689483	-0.014195564
99	0x3dae4d3a	0.085108235
100	0xbc78a75b	-0.015176619
101	0x3dd15766	0.10221748
102	0xbd5f55dc	-0.05452524
103	0xbd1e96f7	-0.03871819
104	0xbd97739d	-0.07395098
105	0xbc23d08c	-0.009998452
106	0xbd47a0d2	-0.048737355
107	0x3d48c4e2	0.049015887
108	0xbccbd3a6	-0.024881195
109	0xbd578b8a	-0.05262331
110	0xbc863451	-0.016382368
111	0x3de845aa	0.11341412
112	0x3dc88a0c	0.09791955
113	0xbda006f6	-0.07813828
114	0xbda187a2	-0.07887198
115	0x3d904a0a	0.07045372
116	0xbd942d4c	-0.07235202
117	0x3d57f134	0.052720264
118	0xbad052ae	-0.0015893781
119	0x3d7528db	0.059853416
120	0xbd95d481	-0.073159225
121	0x3dcdeb78	0.10054678
122	0x3dbc919b	0.092074595
123	0xbd8bf402	-0.0683365
124	0xbd9e2d38	-0.077234685
125	0xbd9f45c8	-0.077769816
126	0x3dd6e6f9	0.10493273
127	0x3cf341d1	0.02969447

action_model._continuous_distribution.log_sigma f4 [1, 2]
0	0xbd5017a7	-0.050803807
1	0xbcf118ab	-0.029430708

action_model._continuous_distribution.mu.weight f4 [2, 128]
0	0x3ba96235	0.005169178
1	0xbd8bd11e	-0.06826995
2	0xbcb0f07e	-0.02159905
3	0x3d047db2	0.032346435
4	0x3bff350b	0.0077883056
5	0xbdebfd05	-0.11522869
6	0x3d0725b1	0.03299493
7	0xbd898daf	-0.06716477
8	0xbcba6755	-0.02275435
9	0xbd3dc7ae	-0.046333008
10	0x3b2876a9	0.0025705493
11	0xbcf7b77b	-0.030238857
12	0x3c9eed60	0.019400299
13	0x3d49f250	0.049303353
14	0xbd055103	-0.032547962
15	0xbd527970	-0.051385343
16	0x3d2bfbcc	0.04198818
17	0xbd65680f	-0.05600744
18	0x3ce747ed	0.02823254
19	0x3dc11d3c	0.09429404
20	0x3d4e7adf	0.050410148
21	0x3c36efc7	0.011165566
22	0x3d421beb	0.047389906
23	0x3c1b776e	0.0094889235
24	0xbd6d7721	-0.05797494
25	0x3d2d66a2	0.042334206
26	0xbce6d4fd	-0.028177733
27	0xbd5d4ce3	-0.054028403
28	0xbd9f606a	-0.077820614
29	0x3c43be98	0.011947297
30	0x3be02549	0.0068403822
31	0x3cd0fa7a	0.025510062
32	0x3cf5e269	0.030015187
33	0xbd82eb4b	-0.06392535
34	0xbce7c5f0	-0.028292626
35	0xba57d666	-0.0008233547
36	0xbb75a7ff	-0.0037484167
37	0xba28a4a1	-0.0006433223
38	0xbd6d4045	-0.05792262
39	0x3ccff7cd	0.025386715
40	0x3c50e531	0.012749956
41	0x3cc7c672	0.024386618
42	0xbdd39d32	-0.10332717
43	0xbd3d60e8	-0.046234995
44	0xbd88d6c1	-0.06681586
45	0x3d3285fe	0.043584816
46	0xbcabf2ef	-0.020989863
47	0xba8fd5c2	-0.0010973739
48	0x3d0230d8	0.031784862
49	0x3d7c6bea	0.061626352
50	0x3d5292dc	0.051409587
51	0x3d903533	0.07041397
52	0xbd051348	-0.03248909
53	0xbd03c999	-0.03217468
54	0x3b30e270	0.0026990436
55	0x3d3869fd	0.045022953
56	0xbce9f4f7	-0.028559191
57	0x3ca06c49	0.019582884
58	0xbdb7c491	-0.08973039
59	0x3d34bc00	0.044124603
60	0x3d272f01	0.04081631
61	0xbc5ff8f6	-0.013670197
62	0x3d22b0bf	0.03971934
63	0xbc9b003a	-0.018921006
64	0x3d5bf5fd	0.05370139
65	0xbd4d5ffb	-0.050140362
66	0xbd65f3a7	-0.056140568
67	0xbc4225f5	-0.01184987
68	0xbd669814	-0.056297377
69	0xbd4f9276	-0.050676785
70	0x3c80060d	0.015627885
71	0xbd7f53de	-0.06233584
72	0xbd66e360	-0.056369185
73	0xbd85c536	-0.065317556
74	0x3d56bb9b	0.05242501
75	0xbce35e36	-0.027754884
76	0x3cea479a	0.028598595
77	0xbc308cc9	-0.010775753
78	0xbd657442	-0.056019075
79	0xbd9af62d	-0.075664856
80	0x3d13bf08	0.036070853
81	0x3d16c3f8	0.036807984
82	0xbdc1babc	-0.09459445
83	0x3db536f9	0.08848376
84	0x3d66b047	0.056320455
85	0xbd89985f	-0.067185156
86	0xbd6b9ccb	-0.057522576
87	0xbd13f812	-0.03612525
88	0xbd87b883	-0.0662699
89	0xbc6d5949	-0.014486619
90	0xbd333872	-0.043755002
91	0xbbedb937	-0.0072547453
92	0xbd01adc1	-0.031659845
93	0xbd33d7a1	-0.04390681
94	0x3db7eccf	0.089807145
95	0x3ca61762	0.020274822
96	0xbcc3ef66	-0.023917865
97	0xbd83fe25	-0.064449586
98	0x3c045b5a	0.008078421
99	0xbd66be58	-0.05633387
100	0x3be869e6	0.007092702
101	0xbda02dd1	-0.07821239
102	0x3c3fdcba	0.01171034
103	0x3d374b45	0.044749517
104	0x3d247280	0.04014826
105	0x3c0a34c7	0.008435435
106	0xbbe7789d	-0.007063939
107	0xbd33fdc6	-0.04394319
108	0xbce0dc07	-0.027448667
109	0x3d07a651	0.033117596
110	0xbc9d7c14	-0.019224204
111	0xbd262625	-0.04056372
112	0xbd82d15a	-0.06387587
113	0x3d721ef7	0.05911156
114	0x3d73f8a8	0.05956331
115	0xbd14ac8f	-0.036297377
116	0x3d185808	0.03719333
117	0xbd16aa8f	-0.03678375
118	0x3c775abd	0.015097317
119	0xbd221995	-0.03957518
120	0x3d74c90d	0.05976205
121	0xbdc631a2	-0.096774355
122	0xbd83e8ce	-0.06440888
123	0x3d5e3517	0.05424985
124	0x3d1b72e6	0.037951373
125	0x3d8b8f16	0.06814401
126	0xbdb3f172	-0.087862864
127	0xbcd5aac2	-0.0260824
128	0xbcd4fc5f	-0.025999246
129	0xbd6db213	-0.058031153
130	0x3c67096d	0.014101368
131	0x3d0174f3	0.031605672
132	0x3bf5059a	0.0074774744
133	0xbd1b08cf	-0.037850197
134	0xbca574eb	-0.020197352
135	0x3d69f8e7	0.057122137
136	0x38ae24b1	8.303801e-05
137	0xbd14276f	-0.03617042
138	0xbd5ace8f	-0.053419646
139	0xbc1a834e	-0.00943072
140	0x3b866f2f	0.0041026096
141	0xbbc5a1b1	-0.006031238
142	0xbd468623	-0.048467766
143	0x3d58bdf0	0.052915514
144	0x3d0a7d53	0.033810925
145	0x3d9f48f5	0.07777587
146	0x3bfd7116	0.007734428
147	0x3d055d1b	0.032559495
148	0xbd0c0f10	-0.034194052
149	0x3c365a52	0.0111299325
150	0xbc905fba	-0.017623771
151	0xbd1c69ea	-0.038186945
152	0xbd51f12d	-0.051255394
153	0x3cb46641	0.022021415
154	0x3d20052c	0.039067432
155	0xbcac9dbb	-0.021071305
156	0xbd513d9b	-0.051084142
157	0xbc19b54d	-0.009381604
158	0xbc904979	-0.01761316
159	0xbac1c454	-0.0014783242
160	0x3c53e4c8	0.012932964
161	0xba4af8b6	-0.00077427493
162	0xbd06915e	-0.032853477
163	0x3cd17865	0.025570104
164	0xbd017068	-0.03160134
165	0xbc9981e6	-0.018738698
166	0xbab07e3a	-0.0013465353
167	0xbd358605	-0.044317264
168	0xbd3bc68f	-0.045843657
169	0xb89e95ec	-7.561952e-05
170	0xbce50316	-0.027955573
171	0xbce7ad70	-0.028280944
172	0xbd00828e	-0.031374507
173	0x3cd7a9de	0.026326116
174	0xbcb2378e	-0.021755006
175	0xbd5b2bfa	-0.053508736
176	0x3c1d0f9b	0.00958624
177	0xbac3889d	-0.0014918033
178	0x3b0d8b19	0.0021597801
179	0xbd336751	-0.043799702
180	0x3cb4eda5	0.022085974
181	0xbc7511b4	-0.014957834
182	0x3c8a9a47	0.016919268
183	0x3c16cd95	0.009204288
184	0xbd6b8841	-0.05750299
185	0xbd0b9b8d	-0.03408389
186	0x3ca909a2	0.020634476
187	0xbc9eaf9b	-0.019370845
188	0x3cb6f065	0.022331426
189	0xbd1cd57c	-0.038289532
190	0x3c509dd2	0.01273294
191	0xbd5de519	-0.054173563
192	0x3d67ed56	0.056622826
193	0xbd4faa6f	-0.050699648
194	0xbd567302	-0.052355774
195	0xbd30be9b	-0.043150526
196	0xbd3393e5	-0.043842215
197	0xbc841928	-0.016125277
198	0xbd41a2f6	-0.047274552
199	0xbcacc879	-0.021091687
200	0xbcd7c1ae	-0.02633747
201	0xbd1f4607	-0.038885143
202	0xba8aa1fe	-0.0010576842
203	0xbcdc6da8	-0.026907757
204	0x3c966458	0.018358395
205	0xbc5ad902	-0.013357403
206	0xbcf6a043	-0.030105716
207	0xbd64c996	-0.05585631
208	0x3bd3b6db	0.006461007
209	0x3a20e136	0.00061370747
210	0xbd732f75	-0.05937143
211	0x3d0dea65	0.034647364
212	0xbcdee4e3	-0.027208751
213	0xbd54a38e	-0.05191379
214	0x3c2d3005	0.010570531
215	0xbd9872ae	-0.074437484
216	0xbd83566b	-0.06412967
217	0x3c66947f	0.01407349
218	0xbd21c68f	-0.039496
219	0x3d4f7ab1	0.050654117
220	0xbc748846	-0.014925068
221	0xbdad3339	-0.084570356
222	0x3bfa6e3e	0.0076425364
223	0x3c9f7f06	0.01946975
224	0x3d9990ad	0.07498298
225	0xbbb25810	-0.005442627
226	0x3d8dece7	0.06929951
227	0xbd09c295	-0.033632834
228	0x3d29794f	0.041375455
229	0xbd0f2cab	-0.034954708
230	0xbca60da6	-0.02027018
231	0x3cd7f110	0.026360065
232	0x3d30d8bc	0.043175444
233	0x3d289e4b	0.041166585
234	0x3a79482d	0.0009509351
235	0x3d2683cc	0.040653035
236	0xbc05c8b1	-0.008165524
237	0xbb084a0c	-0.0020796089
238	0xbcfefab0	-0.031125396
239	0xbd24ed69	-0.040265474
240	0xbb0e7fde	-0.0021743695
241	0x3c7fb745	0.01560766
242	0xbc0911a9	-0.008366027
243	0xbbb96282	-0.005657495
244	0xbd096545	-0.033543844
245	0xbd51f9aa	-0.05126349
246	0xbba78c8b	-0.0051131896
247	0xbdc2fbf4	-0.095207125
248	0x3c767dfc	0.015044685
249	0xbc516687	-0.012780792
250	0xbd5c1fa0	-0.053741097
251	0xbd8e7e1f	-0.069576494
252	0xbcef5daa	-0.029219467
253	0xbbfcad2c	-0.0077110734
254	0xbcb3dbe6	-0.021955442
255	0xbd41e14b	-0.047333997

action_model._continuous_distribution.mu.bias f4 [2]
0	0xbdc44cf0	-0.09584987
1	0xbc97e047	-0.018539561

action_model._discrete_distribution.branches.0.weight f4 [2, 128]
0	0x3c85f5a1	0.016352477
1	0xbc8e8844	-0.01739896
2	0x3b3b450a	0.0028575086
3	0xbc8828c1	-0.016620995
4	0xbd970689	-0.07374293
5	0xbd3d15ad	-0.04616325
6	0xbc57428a	-0.013138423
7	0xbbe6e6ac	-0.007046541
8	0x3bf80781	0.007569254
9	0x3b404542	0.0029338156
10	0xbcec8d09	-0.028875845
11	0xbcbfad90	-0.02339819
12	0xbd14c59d	-0.03632127
13	0x3d5de02d	0.05416887
14	0x3d2111e9	0.03932372
15	0xbd49b18d	-0.04924159
16	0xbcb12868	-0.021625713
17	0xbc7a6fab	-0.015285413
18	0xbd19d09b	-0.037552457
19	0x3d0a0da4	0.033704415
20	0xbc966311	-0.018357785
21	0xbd53eb21	-0.05173791
22	0xbce7b779	-0.028285729
23	0x3d7f7de8	0.062375933
24	0xbd28b60c	-0.04118924
25	0xbd823675	-0.06358043
26	0xbd870bcb	-0.06594046
27	0xbd584d1f	-0.052807923
28	0xbce4f6e7	-0.027949763
29	0xbcfc1daf	-0.030775873
30	0xbd210d56	-0.03931936
31	0x3d2c929a	0.042131998
32	0x3d1e7729	0.03868786
33	0xbc9b5879	-0.018963085
34	0x3ca7bd17	0.020475907
35	0xbc124bc8	-0.0089292005
36	0x3c7a8bfe	0.015292166
37	0x3d8ba13a	0.06817861
38	0x3c9ee7a1	0.019397559
39	0x3b128a8e	0.0022360417
40	0x3bd9b7c5	0.0066442215
41	0xbd51193b	-0.051049452
42	0xbc8fa8a3	-0.017536467
43	0xbcc84524	-0.024447031
44	0x3c451758	0.012029491
45	0x3c983332	0.0185791
46	0xbcd50b0c	-0.026006244
47	0x3af0b628	0.0018364834
48	0xbc9e190f	-0.019299058
49	0xbc468087	-0.012115604
50	0xbd49c712	-0.049262114
51	0x3ccebbf2	0.025236104
52	0xbd59fa09	-0.053216968
53	0xbd4ea3d5	-0.05044921
54	0xbd62d685	-0.055380363
55	0xba3928ef	-0.00070632895
56	0x3b9f57ad	0.0048627467
57	0x3c914ba6	0.017736267
58	0xbd2c74b0	-0.04210347
59	0x3cdcbdf0	0.026946038
60	0xbca38b85	-0.019963989
61	0xbc865332	-0.016397092
62	0x3d342d84	0.04398872
63	0xbd57424f	-0.05255347
64	0xbd5b127e	-0.053484432
65	0xbc5e3a25	-0.013563667
66	0xbc839468	-0.016061977
67	0xbda0cbfc	-0.07851407
68	0x3c650c38	0.013979964
69	0xbc89a0a5	-0.016800234
70	0x3d18d00e	0.03730779
71	0xbc01574e	-0.00789435
72	0xbc2f0898	-0.010683201
73	0xbd2ce976	-0.042214833
74	0xbca94ed5	-0.020667473
75	0x3ab3a8a3	0.0013706874
76	0xbc79ad6b	-0.0152391
77	0xbd58e38d	-0.052951384
78	0xbd0ff469	-0.035145197
79	0xbc55555d	-0.0130208405
80	0xbd82495e	-0.0636165
81	0x3d41da7c	0.047327504
82	0xbd243cd4	-0.040097073
83	0xbbeee907	-0.0072909626
84	0x3d06fd1c	0.032956228
85	0xbc281e0c	-0.01026107
86	0xbb2b5fe9	-0.0026149696
87	0xbcf75794	-0.030193128
88	0xbcaebcd7	-0.02133028
89	0xbd08aa8f	-0.033365782
90	0xbcc0a01e	-0.02351385
91	0xbd3468b8	-0.04404518
92	0xbd1f71c6	-0.038926862
93	0x3d557dae	0.05212181
94	0x3d5e71f4	0.054307893
95	0xbd1a9d41	-0.037747625
96	0x3a7dd75f	0.0009683277
97	0xbbc3935d	-0.005968495
98	0xbcaf40d7	-0.021393223
99	0xbc144b82	-0.009051206
100	0xbcdac869	-0.026706891
101	0xbd19ebc0	-0.037578344
102	0x3d236571	0.039891664
103	0xbcf172c2	-0.029473666
104	0x3d80ea25	0.062946595
105	0xbc1b4046	-0.009475773
106	0x3d0b65e0	0.034032702
107	0x3c1113b1	0.008854792
108	0x3cc68c82	0.024236921
109	0xbd07cadb	-0.033152442
110	0x3cf3c3c1	0.029756429
111	0xbd0412b3	-0.032244395
112	0xbcaedfe9	-0.021347003
113	0xb70854eb	-8.126003e-06
114	0x3d0b4f03	0.0340109
115	0xbce7d360	-0.028299034
116	0x3cac6700	0.021045208
117	0xbcd99dda	-0.026564527
118	0xbdb51a3f	-0.08842897
119	0xbc9a9c15	-0.018873254
120	0xbcb25eab	-0.021773657
121	0xbd06aad3	-0.032877754
122	0xbbf13a50	-0.0073616877
123	0x3d20cb88	0.039256603
124	0x3c8d51a6	0.017250847
125	0x39b36dc2	0.00034223316
126	0xbc617849	-0.013761588
127	0x3d87a450	0.06623137
128	0xbd1e8836	-0.03870412
129	0x3cdb3654	0.026759304
130	0x3c1d5b9e	0.009604363
131	0x3c904f11	0.017615827
132	0x3d8097ba	0.062789395
133	0x3d246c76	0.0401425
134	0x3c1c4371	0.009537564
135	0x3cad147e	0.021127935
136	0xbba7e865	-0.005124139
137	0xbb7c4cfc	-0.0038498035
138	0x3c8bd5cb	0.017069718
139	0x3c83a68d	0.016070629
140	0x3ca388cc	0.01996269
141	0xbd4dce8b	-0.050245803
142	0xbd445bcc	-0.047939107
143	0x3d495a20	0.049158216
144	0x3d02ab59	0.03190169
145	0x3c31149a	0.010808134
146	0x3d2b2399	0.041781995
147	0xbcd3fe2e	-0.025878038
148	0x3c4af105	0.012386565
149	0x3d4b8a74	0.049692586
150	0x3d0748b9	0.033028338
151	0xbd9efadc	-0.077626914
152	0x3d04685e	0.032326095
153	0x3db842b9	0.08997101
154	0x3d734fd3	0.0594023
155	0x3d6701c0	0.056398153
156	0x3d13a964	0.036050215
157	0x3cafa5a4	0.021441288
158	0x3d125db5	0.035733897
159	0xbd838758	-0.06422299
160	0xbd1b423f	-0.037904974
161	0x3d231eb9	0.03982422
162	0xbcc72b02	-0.0243125
163	0x3ce28a82	0.027653936
164	0xbc8658c0	-0.016399741
165	0xbd7fa327	-0.062411454
166	0xbca3f1f0	-0.020012826
167	0x3c38afde	0.011272399
168	0x39982d2f	0.00029025364
169	0x3d3c73f5	0.046009023
170	0x3c7453b3	0.014912534
171	0x3ca28767	0.019839955
172	0xbccc54e0	-0.024942815
173	0xbd31801a	-0.043335058
174	0x3cc2f6c2	0.023799304
175	0xbb892491	-0.0041852673
176	0x3caa6e6c	0.020804606
177	0xbbd5b3ac	-0.0065216627
178	0x3d518d98	0.051160425
179	0xbd1b82d7	-0.037966575
180	0x3d3f9017	0.046768274
181	0x3d2fff9e	0.042968385
182	0x3d30ec0b	0.043193858
183	0x3c279a8d	0.010229719
184	0x3bd5e4e1	0.0065275286
185	0xbc495c74	-0.012290109
186	0x3d53efca	0.051742353
187	0xbbf87025	-0.007581728
188	0x3c8afc6d	0.01696607
189	0x3c1a33e5	0.009411787
190	0xbd5b1535	-0.05348702
191	0x3d219723	0.039450776
192	0x3d5aeac5	0.05344655
193	0x3bffbd42	0.0078045437
194	0x3c9cbe6d	0.01913377
195	0x3d9b0e4f	0.075710885
196	0xbcdc8b9a	-0.026922036
197	0x3c5a710f	0.013332619
198	0xbd153044	-0.036422983
199	0x3bca42a6	0.006172496
200	0x3bdf4821	0.0068140184
201	0x3d0af906	0.033928894
202	0x3c8625ab	0.016375383
203	0x3cfd7606	0.030940067
204	0x3c5906b4	0.013246227
205	0x3d236dc6	0.03989961
206	0x3d1b2a98	0.037882417
207	0x3cc3cf4d	0.02390256
208	0x3d7ff466	0.062488936
209	0xbca15a5a	-0.019696403
210	0x3d00c14a	0.031434335
211	0xbbae8e15	-0.005326996
212	0xbccb46e6	-0.02481408
213	0x3c19aa75	0.009379019
214	0x3cb0e929	0.021595554
215	0x3caaf5c9	0.020869153
216	0x3d0850e0	0.033280253
217	0x3ba7a885	0.0051165246
218	0x3d3bb190	0.045823634
219	0x3d5e7926	0.054314755
220	0x3d3fff1d	0.046874154
221	0xbd8a6c06	-0.06758885
222	0xbd438829	-0.047737274
223	0x3d13e7b7	0.036109652
224	0xbc3b409f	-0.011428981
225	0x3d2a1acd	0.041529465
226	0x39d3d407	0.0004040303
227	0x3c882ee6	0.016623925
228	0x3d183b6c	0.037166044
229	0x3afaaeb0	0.0019125547
230	0xbd07b667	-0.033132937
231	0x3d01f810	0.03173071
232	0xbd83ddc1	-0.064387806
233	0xbc27c4eb	-0.01023982
234	0xbcb380f4	-0.021912076
235	0xbcb68857	-0.022281809
236	0xbcc43878	-0.023952708
237	0x3d0735ae	0.033010177
238	0xbcef0039	-0.02917491
239	0x3d3ae7c2	0.045631178
240	0x3cb0dcd1	0.021589668
241	0xbcb4d063	-0.022072023
242	0xbc860fde	-0.016364988
243	0x3d3177d9	0.043327186
244	0xbc680a8e	-0.014162673
245	0x3d0b7e87	0.034056213
246	0x3dae99b6	0.08525412
247	0x3c1442ce	0.009049131
248	0x3d06a0a6	0.03286805
249	0x3c6f4615	0.014604111
250	0x3c5c29ca	0.013437698
251	0xbd1a509d	-0.037674535
252	0xbcbc532f	-0.022988884
253	0x3c1f9486	0.009740001
254	0x3ca1f3ad	0.019769514
255	0xbcebe708	-0.028796688

action_model._discrete_distribution.branches.0.bias f4 [2]
0	0xbd2c4a19	-0.042062853
1	0x3d2c4a16	0.04206284

onnx::Div_80 f4 [92]
0	0x3d171432	0.036884494
1	0x3bf1e0c6	0.0073815314
2	0x3bf1e0c6	0.0073815314
3	0x3c06d08f	0.008228435
4	0x3bf1e0c6	0.0073815314
5	0x3c2b080b	0.010438929
6	0x3bf1e0c6	0.0073815314
7	0x3c0d5b6c	0.008627754
8	0x3ebc37d6	0.3676135
9	0x3bf1e0c6	0.0073815314
10	0x3bf1e0c6	0.0073815314
11	0x3dc62c76	0.09676449
12	0x3bf1e0c6	0.0073815314
13	0x3c2b080b	0.010438929
14	0x3bf1e0c6	0.0073815314
15	0x3c0e13c0	0.008671701
16	0x3bf1e0c6	0.0073815314
17	0x3eabd51e	0.33561033
18	0x3bf1e0c6	0.0073815314
19	0x3e26c0bb	0.16284458
20	0x3bf1e0c6	0.0073815314
21	0x3c2b080b	0.010438929
22	0x3bf1e0c6	0.0073815314
23	0x3c0f5a0d	0.008749497
24	0x3bf1e0c6	0.0073815314
25	0x3e9bbb8c	0.30416524
26	0x3bf1e0c6	0.0073815314
27	0x3e2abac4	0.16672808
28	0x3bf1e0c6	0.0073815314
29	0x3c2b080b	0.010438929
30	0x3bf1e0c6	0.0073815314
31	0x3c114f14	0.008868951
32	0x3bf1e0c6	0.0073815314
33	0x3e9066d6	0.28203458
34	0x3bf1e0c6	0.0073815314
35	0x3e2d2824	0.16909844
36	0x3bf1e0c6	0.0073815314
37	0x3c2b080b	0.010438929
38	0x3bf1e0c6	0.0073815314
39	0x3c142a03	0.0090432195
40	0x3bf1e0c6	0.0073815314
41	0x3e89335e	0.26797003
42	0x3bf1e0c6	0.0073815314
43	0x3e33fd26	0.17577037
44	0x3bf1e0c6	0.0073815314
45	0x3c2b080b	0.010438929
46	0x3bf1e0c6	0.0073815314
47	0x3c184659	0.009294116
48	0x3bf1e0c6	0.0073815314
49	0x3e85d8e8	0.2614205
50	0x3bf1e0c6	0.0073815314
51	0x3e416a11	0.18888117
52	0x3bf1e0c6	0.0073815314
53	0x3c2b080b	0.010438929
54	0x3bf1e0c6	0.0073815314
55	0x3c1b4d43	0.00947887
56	0x3bf1e0c6	0.0073815314
57	0x3e82e42e	0.25564712
58	0x3bf1e0c6	0.0073815314
59	0x3e39b2c4	0.181346
60	0x3bf1e0c6	0.0073815314
61	0x3c2b080b	0.010438929
62	0x3bf1e0c6	0.0073815314
63	0x3c15997c	0.009130832
64	0x3bf1e0c6	0.0073815314
65	0x3e8090c9	0.25110462
66	0x3bf1e0c6	0.0073815314
67	0x3e253878	0.16134822
68	0x3bf1e0c6	0.0073815314
69	0x3c2b080b	0.010438929
70	0x3bf1e0c6	0.0073815314
71	0x3c11b134	0.008892346
72	0x3bf1e0c6	0.0073815314
73	0x3e80ff37	0.25194713
74	0x3bf1e0c6	0.0073815314
75	0x3e191a22	0.14951375
76	0x3bf1e0c6	0.0073815314
77	0x3c2b080b	0.010438929
78	0x3bf1e0c6	0.0073815314
79	0x3c0efbdf	0.008727043
80	0x3bf1e0c6	0.0073815314
81	0x3e832027	0.25610468
82	0x3bf1e0c6	0.0073815314
83	0x3e123e8b	0.14281671
84	0x3bf1e0c6	0.0073815314
85	0x3c2b080b	0.010438929
86	0x3bf1e0c6	0.0073815314
87	0x3c0d1f99	0.0086134905
88	0x3bf1e0c6	0.0073815314
89	0x3e85d8e3	0.26142034
90	0x3bf1e0c6	0.0073815314
91	0x3e0e6abe	0.13907906

onnx::Div_83 f4 [12]
0	0x3bffa170	0.0078012273
1	0x3caa12dc	0.020760946
2	0x3d0d4a74	0.034494832
3	0x4231152c	44.270676
4	0x3ff0b14d	1.8804108
5	0x4088ee4c	4.279089
6	0x3d0afcfd	0.033932675
7	0x3bf8773f	0.0075825746
8	0x3d664274	0.05621572
9	0x3ef8c7e3	0.4859
10	0x40787cde	3.8826213
11	0x40b5b632	5.6784906
