Assets/Scripts/Test1.onnx (onnx, 131520 bytes, 13 tensors)

network_body.observation_encoder.processors.0.normalizer.running_mean f4 [92]
000000 e8 cf e8 3c db 25 2b 3f 00 00 00 00 9e 6f bd 3e
       0.02841945 0.6685464 0.0 0.3699922
000010 39 0c c3 3c 63 15 28 3f 00 00 00 00 70 38 bb 3e
       0.02380954 0.65657634 0.0 0.36566496
000020 90 6b ca 3c c5 4a 2c 3f 00 00 00 00 a5 20 bb 3e
       0.024709493 0.6730159 0.0 0.36548343
000030 6d 4f c2 3b a3 3f 29 3f 00 00 00 00 57 66 bb 3e
       0.0059298784 0.66112727 0.0 0.36601517
000040 c9 b7 aa 3b 19 0f 37 3f 00 00 00 00 92 26 ba 3e
       0.005209897 0.7150741 0.0 0.36357552
000050 cb c4 a7 39 7b 85 20 3f 00 00 00 00 cc a1 b6 3e
       0.00031999344 0.62703675 0.0 0.35670316
000060 ca 2a f1 39 de 62 33 3f 00 00 00 00 26 1c b9 3e
       0.00045998982 0.70072734 0.0 0.36154288
000070 00 00 00 00 43 f8 1b 3f 00 00 00 00 ab 69 b2 3e
       0.0 0.6092569 0.0 0.34846243
000080 00 00 00 00 8b 71 2f 3f 00 00 00 00 3f e3 b7 3e
       0.0 0.6853263 0.0 0.35915563
000090 00 00 00 00 96 42 1a 3f 00 00 00 00 83 60 b1 3e
       0.0 0.6025785 0.0 0.34643945
0000a0 00 00 00 00 ba ce 2d 3f 00 00 00 00 92 70 b9 3e
       0.0 0.67893565 0.0 0.36218697
0000b0 00 00 00 00 13 c7 18 3f 00 00 00 00 2c 56 b2 3e
       0.0 0.59678763 0.0 0.3483137
0000c0 00 00 00 00 6d 46 2a 3f 00 00 00 00 92 61 bb 3e
       0.0 0.6651371 0.0 0.36597878
0000d0 00 00 00 00 2a f2 17 3f 00 00 00 00 2b 07 b5 3e
       0.0 0.5935389 0.0 0.3535703
0000e0 00 00 00 00 07 af 29 3f 00 00 00 00 e1 ba be 3e
       0.0 0.66282696 0.0 0.37251952
0000f0 00 00 00 00 07 4b 17 3f 00 00 00 00 48 b4 b8 3e
       0.0 0.5909886 0.0 0.36075044
000100 00 00 00 00 63 07 27 3f 00 00 00 00 c4 cc c2 3e
       0.0 0.65245646 0.0 0.3804685
000110 00 00 00 00 2e a4 17 3f 00 00 00 00 5d 84 bd 3e
       0.0 0.59234893 0.0 0.37015048
000120 00 00 00 00 64 c9 27 3f a9 39 47 39 91 60 c8 3e
       0.0 0.6554167 0.00018999599 0.39136174
000130 00 00 00 00 1f ec 17 3f 00 00 00 00 14 7c c3 3e
       0.0 0.5934467 0.0 0.38180602
000140 00 00 00 00 1e d3 29 3f e9 4f 08 3b 54 e9 ce 3e
       0.0 0.66337764 0.0020799583 0.4041239
000150 00 00 00 00 c3 a2 17 3f 00 00 00 00 80 26 cb 3e
       0.0 0.5923273 0.0 0.3967781
000160 00 00 00 00 07 db 2c 3f c5 96 8b 3b 81 14 d6 3e
       0.0 0.6752171 0.0042599165 0.41812518

network_body.observation_encoder.processors.1.normalizer.running_mean f4 [12]
000000 f4 df 0f 3f 0b 3e 28 40 83 96 03 41 fc fa 12 c6
       0.562011 2.6287868 8.224246 -9406.746
000010 96 11 bb 45 0c 6a c1 46 a3 94 8f c0 7f a2 70 3e
       5986.198 24757.023 -4.486894 0.23499487
000020 42 98 f1 c0 97 f9 93 c3 65 1a 32 43 69 cb 3c 44
       -7.549836 -295.94992 178.1031 755.1783

network_body._body_endoder.seq_layers.0.weight f4 [128, 104]
000000 7d 86 31 3b 70 4a 09 3e b2 f2 d5 3d b9 0d 68 3d
       0.0027088218 0.13407302 0.10446681 0.056653712
000010 3c a1 90 bd 37 16 92 bd 88 16 2f 3e 4c 22 e0 3c
       -0.07062003 -0.071331434 0.17098439 0.027360104
000020 7f 28 a4 bd 40 aa 84 3d b4 22 90 bd 28 73 94 3d
       -0.080155365 0.06477785 -0.07037869 0.07248527
000030 7e 45 7c 3c c7 d4 54 bc a8 a6 a7 bc 00 a2 bf bc
       0.015397428 -0.012990183 -0.02046521 -0.023392677
000040 00 e1 04 be 57 42 82 3c 87 05 d2 3c 6f 01 59 bc
       -0.12976456 0.015900774 0.025637401 -0.013244971
000050 af 72 48 3e 2f db 0f 3d 08 03 07 be 27 68 15 bd
       0.19574998 0.03512114 -0.1318475 -0.03647628
000060 c8 b7 3d 3d 34 d6 20 3e c6 b8 3b bd 51 bb bd bd
       0.046317846 0.15706712 -0.04583051 -0.092642434
000070 50 1e ed 3d 2c 8a a7 bd b0 dd 37 3d 03 61 d0 bb
       0.11578047 -0.08180651 0.044889152 -0.006359221
000080 8f 4d e3 3d d6 49 94 bd 1a 3a 71 3d bb 25 22 3c
       0.110987775 -0.072406456 0.0588933 0.009896691
000090 43 fe cc bd 54 04 c5 bc c2 36 bd 3c f7 26 30 be
       -0.10009434 -0.024049915 0.0230974 -0.17202364
0000a0 05 66 c1 3d ef e2 14 3e 0f 12 0e be 94 8c ce 3d
       0.09443287 0.14539693 -0.13874076 0.10085407
0000b0 3e 1c e7 bc 82 6e a2 bc 24 52 20 bd f9 06 24 bd
       -0.02821171 -0.019828085 -0.039140835 -0.040045712
0000c0 64 b3 0e 3a 75 76 3d 3e 89 19 ad 3c f1 88 0a be
       0.00054436014 0.18502219 0.02113034 -0.13528802
0000d0 f6 f4 dc bd b8 b3 e1 3c b4 67 c9 3d 9b b8 8e 3b
       -0.1078891 0.027551517 0.09834233 0.004355503
0000e0 cd b4 26 bd cb eb 44 ba 23 d4 50 bc 23 e4 80 bd
       -0.04069977 -0.00075119425 -0.01274589 -0.062935136
0000f0 3a e8 84 bd 32 7b 16 3e a7 8b 44 bd e0 4c 38 3d
       -0.06489606 0.14695433 -0.047984745 0.04499519
000100 66 0a 2d 3c c7 14 17 3e 25 ab 2b 3e bf aa 74 3d
       0.010561561 0.1475402 0.16764505 0.05973315
000110 4c c3 0f be 91 b6 1f 3e 82 81 03 be 44 55 3c bd
       -0.14039344 0.15596987 -0.12842372 -0.045979753
000120 d2 1a 05 bd 1b 7f 7c 3a 36 33 f3 3b 52 db a7 bc
       -0.03249628 0.00096319773 0.0074218763 -0.020490322
000130 bf 1e 5c bd be 43 25 be 2e 53 20 bb 02 71 88 bb
       -0.05374026 -0.16139123 -0.0024463641 -0.004163862
000140 fc 7c 16 3d 55 18 cf 3b 0a 6b aa bc 9e 1b 9c 3d
       0.03674029 0.0063200393 -0.020802993 0.07622455
000150 d6 76 47 be 64 35 c1 bc 6f 25 16 be 14 4b e2 3d
       -0.19478926 -0.023585029 -0.14662717 0.11049476
000160 4b 2d 90 3d 01 a3 43 3c 6f 61 eb bd 6e d3 04 3e
       0.07039889 0.011940719 -0.11493193 0.12971279
000170 8a 43 08 be 8b f0 5e be c0 66 fd bc 34 06 21 be
       -0.13307014 -0.21771447 -0.030932784 -0.15725023
000180 3c e3 a1 bd 84 60 34 3e 9a 99 be bc a5 f1 4c bc
       -0.0790467 0.17614943 -0.023266602 -0.012508784
000190 65 97 91 3d 2b ac b3 bd 7f 15 1d 3e 54 3d 7e bd
       0.07108954 -0.08773073 0.15340231 -0.062070206
0001a0 b1 7c 16 3e 98 1f de 3d b0 92 dc 3d 04 55 8d be
       0.14696003 0.1084587 0.10770166 -0.27603924
0001b0 b5 e3 25 3d ff a8 ff 3d fa cc 04 bd f1 e6 df bd
       0.04050036 0.12483405 -0.032422043 -0.109327205
0001c0 5d c6 df 3d ea f1 a1 3d dc 21 3d bd 3c 81 c2 3d
       0.10926507 0.079074696 -0.04617487 0.09497306
0001d0 d2 ae 6d be 8c a9 db 3d c0 ba 86 3d 32 da c8 bd
       -0.2321122 0.10725698 0.065785885 -0.098072425
0001e0 a6 24 49 be 39 9a 2d bd fb 42 0d 3d 91 8b 11 bd
       -0.19642887 -0.042383406 0.034487706 -0.03553349
0001f0 9a a5 ce 3c 49 a9 fd bd cd 85 22 bd 1a a9 a1 bc
       0.02522545 -0.12385804 -0.039678384 -0.019733954
000200 e2 3d 95 bd 16 e2 91 bd 00 de cd bd 7c 21 f2 bd
       -0.07287194 -0.071232006 -0.10052109 -0.11822793
000210 b1 e7 a3 bc 3d ee 04 3e f1 2c 21 3e 04 4a 03 be
       -0.02000794 0.12981506 0.157398 -0.12821203
000220 f0 c7 5b bd 0d a4 13 ba 08 32 43 3e a3 51 f5 ba
       -0.053657472 -0.00056320505 0.19062054 -0.0018716346
000230 08 77 af bc 97 ea 2c 3d 8b 0c 9f 3d ee 7a 0a 3c
       -0.021419063 0.04221591 0.07766064 0.00845216
000240 21 01 48 3d 8f 0a c7 bd a6 4f 1c bd a9 1d c4 bd
       0.0488292 -0.09718811 -0.038161896 -0.0957597
000250 74 d1 82 bc 97 3d be bc 49 58 2a 3c c6 28 5e bd
       -0.015969016 -0.023222728 0.010397025 -0.054238103
000260 b7 14 32 3d e7 fc 2b 3d 60 aa 22 3e c5 f9 1a 3e
       0.043476786 0.041989233 0.15885305 0.15134342
000270 a4 f1 ef bc 10 51 3a be 43 8b 79 bd ce f2 59 3e
       -0.029290028 -0.18194985 -0.060923826 0.21284029
000280 ad 6c 59 bd c7 6b a2 3d ba 67 c9 3b 7f 39 d5 bd
       -0.053082157 0.07930713 0.0061463984 -0.10411357
000290 21 10 88 3d b3 12 e2 3d 30 e4 07 3d a7 5c ff bb
       0.06643701 0.11038723 0.0331766 -0.0077930274
0002a0 5c c7 46 bd 69 c6 01 be c7 8c 40 3d f7 99 96 ba
       -0.048529968 -0.12673344 0.047009256 -0.0011489977
0002b0 bf 77 2b be 22 47 20 3c 42 d2 8d bd 83 93 0c 3d
       -0.16744898 0.009782584 -0.06924869 0.034320366
0002c0 10 7d 03 3d 5f e8 a0 3d 36 f7 b6 3d 1e 94 39 3d
       0.03210169 0.07856821 0.089338705 0.04530727
0002d0 1a 34 08 3c ff 84 2d be 69 fd 4c be b8 30 b7 3d
       0.008313203 -0.16945265 -0.20018543 0.08944839
0002e0 67 20 0b 3c cb 22 58 3d 3e 2b d4 bd 6d f4 75 bc
       0.008491612 0.052767556 -0.1035981 -0.015011889
0002f0 4b 46 30 bd f6 ee e8 bc c0 6c 90 bc 76 4e 57 3d
       -0.043035787 -0.028434258 -0.017629981 0.05256506
000300 dc 46 db bd ea 48 b3 3e 62 ea bb 3d fc 13 89 3d
       -0.10706875 0.35016567 0.09175564 0.06693265
000310 8c 21 98 3c 6b 65 02 be b0 c1 85 3e 36 0d 8f 3e
       0.018570684 -0.12734 0.26124334 0.27939767
000320 95 38 cc 3a 1a 02 ee bd 28 3e 1d be 76 84 58 3d
       0.0015580828 -0.116214946 -0.15355742 0.0528607
000330 7f 8b 03 be 15 01 54 bd 29 4f d6 bd b1 c1 f7 3a
       -0.12846182 -0.051758844 -0.10464317 0.0018902329
000340 42 1c c2 bd eb 0f 0b 3e 3b 1c 08 3d 4a 18 0a 3d
       -0.09478046 0.13580291 0.033230048 0.03371457
000350 c9 e1 7d 3d 9b 2b 59 bc 11 58 45 bc af d8 8e bd
       0.061982904 -0.013255025 -0.012044922 -0.06974923
000360 14 ef ec bc 76 40 5b 3d d3 17 2c 3c e7 19 47 bc
       -0.028922595 0.05352827 0.010503727 -0.012152172
000370 f2 1a a6 3d 62 15 3c bd e4 01 4c bd 07 39 d8 3d
       0.08110608 -0.04591883 -0.04980649 0.10557752
000380 4d 32 fa bd a9 52 96 bd 04 9e 23 3e 43 0c 8a bd
       -0.12216625 -0.07339985 0.15978247 -0.0674062
000390 77 eb a0 3c 93 ef 38 bc 27 62 f9 bd 08 f9 98 bd
       0.019643528 -0.011287588 -0.12176924 -0.07469374
0003a0 f4 e0 e1 bd dd b1 45 3d 9b cc e8 bd fc 2d 7a bd
       -0.110292345 0.048265327 -0.113671504 -0.06107901
0003b0 ea 91 63 bd 2a a6 01 3d 6e af b6 bd b4 3a 31 bd
       -0.055559076 0.031652607 -0.08920179 -0.043268874
0003c0 53 e0 cd 3d 44 ea 75 3d 25 39 af bd 59 50 a7 3d
       0.10052552 0.060037866 -0.08555821 0.08169622
0003d0 7b 5b a1 3d df 8d d6 bd cb 4f 6b 3d f0 37 bb 3c
       0.07878777 -0.104762785 0.057449143 0.022853822
0003e0 75 6e da 3d c8 00 f1 3d a7 23 27 3e 30 5f 81 bc
       0.10665599 0.11767727 0.16322194 -0.01579246
0003f0 69 8e e2 38 5d f0 da 3d 3c 8f 05 bd 29 b3 a1 3c
       0.00010803046 0.10690377 -0.032607302 0.01973875

network_body._body_endoder.seq_layers.0.bias f4 [128]
000000 2b 28 f6 bb 99 22 92 3b 6b 36 94 3b ec 64 b0 bb
       -0.0075121126 0.004459691 0.0045230887 -0.0053831246
000010 b1 ce c2 bb cb ff dd 3b df df 24 3b 9f f2 0d 3c
       -0.0059450497 0.0067748777 0.0025157852 0.008663802
000020 bb 1c 4d 3c f4 a3 65 bb 1f 6c 4f bc a9 87 87 bc
       0.012519057 -0.003504035 -0.012660055 -0.01654418
000030 a9 52 8c bb 66 6b 7c 3b 42 d0 66 bc 9a 47 1b 3c
       -0.004282315 0.0038516163 -0.0140877385 0.00947752
000040 b5 94 a1 bc dd 8c 06 bc 3f a4 ec bb 6e 69 a7 3b
       -0.01972423 -0.008212295 -0.007221728 0.0051090037
000050 3c 73 4a 3c 88 01 07 bb ce cb 66 bc f0 92 02 3c
       0.012356576 -0.0020600278 -0.014086677 0.007969603
000060 11 0d 7e bc ea b0 73 38 39 b4 26 bc 82 45 0f 3c
       -0.015506045 5.810048e-05 -0.010174804 0.008744599
000070 4c 54 39 3c 9a 92 b7 bb bc 72 89 bb 22 4d 02 b9
       0.011311602 -0.005602193 -0.0041945856 -0.000124265
000080 70 fa 8d 3a 0c b4 f2 3b 2e 6f a9 bb 15 3c 12 bb
       0.0010832082 0.007406717 -0.0051707244 -0.0022313644
000090 05 c1 25 3c 7b bf 2a 3c 8c 7e a9 bc 66 33 db 3b
       0.01011682 0.010421629 -0.020690225 0.006689477
0000a0 57 12 28 bc 4c e7 06 3b d3 0a 29 3c 7b f5 3a bb
       -0.010258279 0.002058464 0.010317522 -0.0028527665
0000b0 f6 3e 11 bc 94 39 05 bc 29 2c ad 3b 2f f5 cf bb
       -0.008865109 -0.0081314035 0.0052848053 -0.006346367
0000c0 f2 17 2a bc da 46 2a bc 7c c5 4c bc 17 90 89 bc
       -0.010381686 -0.010392869 -0.012498256 -0.01679234
0000d0 7d ea 87 bc 72 30 0e bc d9 9c 97 bc f5 8c 51 bc
       -0.016591305 -0.008678542 -0.018507408 -0.012789954
0000e0 da ed b6 bb b9 38 56 bb 73 85 98 bb c6 8d d5 37
       -0.0055825533 -0.0032687618 -0.0046545803 2.5457597e-05
0000f0 d9 7c 7b 3b da 00 e3 bb f8 46 5b bb af e9 98 3a
       0.0038373976 -0.0069275917 -0.0033459049 0.0011666323
000100 7b 2c 8c bb 4e c4 0c bc 9c cc 7b 3c 25 ce aa bb
       -0.0042777634 -0.008591725 0.015368607 -0.0052125626
000110 ea 83 dd bb e9 da 90 bb fc 46 25 bc 30 8e 3e 3a
       -0.00676011 -0.0044206274 -0.010087725 0.00072691124
000120 60 14 31 3c 8d 8d 49 bb f5 b2 44 3b fb 79 4f 3c
       0.01080808 -0.0030754537 0.0030013893 0.01266336
000130 84 bd 9d 3b 87 78 62 3a bc 43 97 bc 13 77 99 3b
       0.004813852 0.0008639176 -0.018464915 0.004683384
000140 38 43 aa 3b a8 72 b2 bb 29 b8 0b 3c 8b 9c 41 3c
       0.0051960014 -0.005445797 0.008527794 0.011817108
000150 a6 b5 ac ba db 07 0b 3c da 22 12 bc 78 ae 06 bc
       -0.0013176694 0.00848576 -0.008919442 -0.0082203075
000160 a5 eb 9b bc 00 7b a3 3a 8e e6 29 3b 5b 73 39 bc
       -0.019033263 0.001247257 0.0025924775 -0.011319007
000170 78 5b 7b bc fa b0 85 bc 78 e8 df bb 16 cf a6 bc
       -0.015341632 -0.01631974 -0.0068331324 -0.020362418
000180 19 41 57 ba 94 63 9a 3c 0d a0 58 3c a3 28 9d 3b
       -0.00082112994 0.01884631 0.013221753 0.004796104
000190 ff 57 11 bb ff 69 8c bb c9 f2 2e ba 83 0f 60 bc
       -0.0022177694 -0.0042850967 -0.0006673751 -0.013675573
0001a0 25 03 84 3c f9 4c e3 3b 5a cc d9 3b 82 73 59 3c
       0.01611478 0.006936666 0.006646675 0.013272168
0001b0 93 ac 11 3c d8 47 c8 ba 4f a9 6f bb 0a c9 4a 3b
       0.008891243 -0.00152802 -0.0036569422 0.0030942583
0001c0 b4 85 dd bb 23 f4 1d bc 56 7e 29 bc 7c 4e b9 3b
       -0.0067603234 -0.009640726 -0.010345062 0.005655108
0001d0 50 bf 09 bc e8 79 25 bb 77 b8 2e bb 07 c0 7c ba
       -0.008407429 -0.0025249664 -0.0026660243 -0.00096416514
0001e0 5d 4d 4a 3a 82 35 d9 3b ba df 32 3c 02 76 34 3b
       0.00077172165 0.006628693 0.010917598 0.0027536158
0001f0 e5 ac 8b bb a3 0c 91 3c 59 d4 82 3b b3 df e9 ba
       -0.004262554 0.017706221 0.003992599 -0.0017843157

network_body._body_endoder.seq_layers.2.weight f4 [128, 128]
000000 1a 0b 9f 3d 88 53 bc 3d 2f 62 0a bd ac 2b e5 3d
       0.07765789 0.0919562 -0.03378504 0.111899704
000010 f9 84 28 3d a4 50 f7 bd 37 71 47 bb f5 15 c7 3b
       0.041142438 -0.12075928 -0.0030432472 0.0060756155
000020 c5 1e a5 bd 5e 01 16 be 76 c3 a8 bb ef 2e b8 3b
       -0.080625094 -0.14648959 -0.005150254 0.0056208293
000030 bf b9 12 bc 2f 1d 47 bd 06 54 b0 3d 21 85 c1 bc
       -0.008955418 -0.048611816 0.08609776 -0.023623051
000040 c3 65 04 3e f3 33 bc 3d 42 40 4a bd 66 3b dc bd
       0.12929444 0.09189596 -0.049377687 -0.10753517
000050 02 2d 18 be 9b be ce 3d c2 31 5c bc 7d 25 c9 3c
       -0.14860919 0.10094949 -0.013439598 0.024554009
000060 e2 e0 b1 bc 56 9a d0 bc d8 68 84 3b e2 9f 9b bd
       -0.021713678 -0.025464218 0.0040408187 -0.075988546
000070 a8 37 1d bc 6a 93 31 be 65 1f 2c bc da d4 af 3b
       -0.009595789 -0.1734139 -0.010505532 0.00536595
000080 9d 1a 31 bd 10 48 39 3e 24 5f 84 bd b5 7c 87 3d
       -0.04323827 0.18093896 -0.06463459 0.06615583
000090 1a e8 10 bd e9 2f a2 bd 6a 72 95 3d 62 68 da bd
       -0.0353776 -0.079192944 0.072972134 -0.10664441
0000a0 c1 90 74 3c 20 a2 e9 3d 63 03 0b bc 3d d9 6f 3d
       0.01492709 0.11407876 -0.008484694 0.058556784
0000b0 5a 93 34 bc 3a b5 b4 3c 91 33 2d bd 9e b4 c6 bc
       -0.0110214595 0.022059072 -0.042285506 -0.024256047
0000c0 db 72 cc 3d c0 4b 51 3b ba 8d 39 3e af af 90 3c
       0.099828444 0.003193602 0.1812047 0.017661897
0000d0 15 cd 15 3b 71 d6 55 bd dc 4d e3 3d d5 65 c3 3d
       0.0022857834 -0.05220646 0.11098835 0.09540907
0000e0 8d 57 c5 3b 58 40 63 3d a7 ce 90 3c 12 99 78 3d
       0.0060223998 0.055481285 0.017676665 0.060692854
0000f0 c6 da b1 3c 5f c6 9c bc bb 98 1b be 9f c4 b8 3c
       0.021710765 -0.01913756 -0.15194981 0.022554694
000100 f2 80 45 bd 0b 80 9d 3d 95 01 e6 bd fb cb a2 3d
       -0.048218675 0.07690438 -0.112307705 0.079490624
000110 69 82 5f bc 62 f4 a8 bd 9e db 31 bd f5 c0 e9 bd
       -0.013641932 -0.08249737 -0.043422334 -0.11413757
000120 78 aa 05 3e 43 39 a1 bd 60 5f 08 bd 75 52 4b be
       0.1305331 -0.0787225 -0.03329408 -0.19855674
000130 96 89 cf bc d0 b9 44 3d ba 0f 33 bd 02 d4 7c 3d
       -0.02533416 0.048028767 -0.04371617 0.061725624
000140 37 e3 9f 3d 75 a1 85 3c 60 68 ba bc 0e c9 16 3d
       0.0780701 0.01631234 -0.022754848 0.036812834
000150 12 bf 04 be 6a 12 1f 3c 92 31 53 3e 18 1f ab bc
       -0.12963513 0.00970898 0.20624378 -0.02088885
000160 81 26 03 3d c8 76 40 3d 3a 54 74 3d 0c 35 bd 3d
       0.032019142 0.04698828 0.059650637 0.092386335
000170 fe c1 ef 3d b4 f9 a3 bd ff 21 2b 3d 73 97 83 bd
       0.11706923 -0.080066115 0.041780468 -0.06425371
000180 78 37 af bd 02 5e d5 3c 2d 9f 8d bd 4d 43 68 bd
       -0.08555502 0.026045803 -0.06915126 -0.056704808
000190 41 75 9c 3c ce 81 27 3c 63 b9 7e 3d 01 6c 72 3c
       0.01909888 0.010223819 0.062188517 0.014796258
0001a0 34 af 06 be 9c 64 8b bd ee f5 0d 3e b9 89 cf bd
       -0.13152772 -0.06806299 0.13863346 -0.101336904
0001b0 85 d6 85 bd f4 68 4d bb fd f3 de 3c b8 e9 14 be
       -0.06535057 -0.0031343075 0.027215952 -0.14542282
0001c0 3d 66 e8 3d a0 d6 95 bd 8a c2 9a bc 96 23 94 3b
       0.113476254 -0.07316327 -0.018891592 0.0045208437
0001d0 34 01 2f 3e 79 5b cb 3d 79 80 bc 3c 18 03 10 3d
       0.17090303 0.099295564 0.02301048 0.0351592
0001e0 73 43 bb 3d 67 12 99 bd 99 dd 3b 3d b8 f8 f3 3c
       0.09143724 -0.07474213 0.04586563 0.029781684
0001f0 46 24 a2 3d 1a 4e ae bd de 80 0e 3d bd 39 8b bb
       0.07917075 -0.085109904 0.034790866 -0.0042488263
000200 17 d0 84 bd 8e 03 42 3c 44 7c be bd 98 d2 59 be
       -0.064850025 0.011841668 -0.093010455 -0.21271741
000210 9b 35 3d bd ed f4 9c 3d 0e 0d a4 bd 06 69 0b bd
       -0.0461937 0.076639034 -0.080103025 -0.034035705
000220 95 2d 1f be 10 e7 47 bd 42 b3 e2 3d 38 fe 4f bc
       -0.15544732 -0.048804343 0.11069347 -0.012694888
000230 d4 c6 a6 bb c4 5d e9 3c 5b 67 9c bb e2 51 e6 3d
       -0.00508962 0.028487094 -0.004773063 0.11246087
000240 ae 80 b5 3c 62 02 36 bd 32 21 af bd 58 b6 2f 3d
       0.022156086 -0.044435866 -0.085512534 0.042898506
000250 fe 23 ff bd e1 01 d9 3c 07 09 5d bd 39 1f 8c be
       -0.12458037 0.026490154 -0.053963687 -0.2736757
000260 83 6b 91 3d 6d 43 84 3d 0b 6d 6a 3c e4 b7 cf 3d
       0.07100584 0.06458173 0.014308224 0.10142496
000270 b9 fd 9a bd ac 63 88 bc ce d6 16 be 1f 72 da 3d
       -0.07567925 -0.01664909 -0.14730379 0.10666298
000280 0e bf d2 bc 19 00 73 3c c5 ef 81 3c da 3b 92 3e
       -0.025725868 0.014831566 0.015861401 0.28561288
000290 82 c6 84 3c a5 5e dd bd bc f0 99 bd e4 f1 80 3d
       0.016207937 -0.10809068 -0.075166196 0.06296137
0002a0 79 a2 a2 3b 68 c6 f6 bd 21 90 bb bc 7b d8 83 3d
       0.004963216 -0.12049562 -0.022895874 0.06437775
0002b0 68 da ad 3d 2c ca 3e bc 61 5b 89 3d d7 d9 9d 3c
       0.08488923 -0.011644881 0.06706882 0.019268913
0002c0 4a ae d3 3c c7 d6 8a bd 41 8d 32 3a 4e 30 97 bd
       0.025839943 -0.06779247 0.00068112096 -0.0738226
0002d0 22 24 6e 3e 43 30 79 3d 2a 44 92 bd 0c 2a 70 3e
       0.23255971 0.06083704 -0.071419075 0.2345354
0002e0 8a 5b 71 3c 66 44 19 3d 4b 2d 2e 3e 66 a3 0d 3d
       0.014731297 0.037418745 0.17009465 0.034579657
0002f0 49 9b 2b 3d bf 69 51 3e 38 3f 6a bd da 02 b1 bd
       0.04189614 0.20450495 -0.057189196 -0.08643122
000300 d6 61 c3 3d 5e b1 d6 3d 7d 3f ce bd 3d da 23 be
       0.09540145 0.10483049 -0.10070703 -0.1600122
000310 f6 23 05 be 02 4a 19 3d db 3c 21 bd 14 2e 62 bd
       -0.13002 0.037424095 -0.039364677 -0.055219725
000320 29 c8 ff 3c 24 61 26 be 3a b0 e3 bc c8 10 f5 3d
       0.031223373 -0.16247994 -0.027793992 0.119660914
000330 58 ca 25 bd de cb 26 3e df 8a ca bd c4 55 b5 3d
       -0.040476173 0.16288707 -0.09889769 0.08854249
000340 85 f9 4b be 4b a3 c7 3d ce 3b 6f be 06 0d b8 3d
       -0.19919403 0.097479425 -0.23362657 0.08986859
000350 f5 00 9e 3d b2 ab f3 3d 4f dd 3e 3d 64 9c cc 3d
       0.07715026 0.11897983 0.046597775 0.09990767
000360 9e 15 45 3d 6d 16 8c bd 59 56 ea 3c 2c 93 db bb
       0.04811632 -0.06840215 0.028605627 -0.006700894
000370 fe 54 7b 3c b8 25 ef bd 25 32 84 3d 55 36 17 be
       0.015340088 -0.11677116 0.06454877 -0.1476682
000380 3d 1e ab 3d bd d2 21 3d 5e d9 c0 bd 44 88 b6 3d
       0.08355377 0.039507616 -0.094164595 0.08912709
000390 e5 2e 80 3d ca 82 86 3d 94 25 72 3d f3 be 46 be
       0.062589444 0.06567915 0.05911787 -0.19408779
0003a0 c5 e5 cd 3d 7a 35 97 bd 22 57 8b 3c be 99 2a bd
       0.10053591 -0.07383247 0.017009322 -0.041650526
0003b0 e7 95 29 3e 2c fd b1 3c 6c f5 9d 3d 87 2f 0b 3c
       0.1656109 0.021727167 0.07712826 0.008495218
0003c0 11 75 de bd b3 62 7a bd 38 4b b1 bd 00 6a 45 3c
       -0.108621724 -0.061129283 -0.08656925 0.012049198
0003d0 64 60 2e 3d 40 d5 45 bc 3e 71 11 bd ee 5b 99 3d
       0.042572394 -0.012074769 -0.035508387 0.07488237
0003e0 77 da 78 3c 30 17 c1 3c cb c8 d8 bc 13 89 bb bd
       0.015188805 0.023570627 -0.026462933 -0.09157004
0003f0 7b ea 59 be 8a 43 09 3e 8d 71 93 bd 1d 7f f4 3c
       -0.21280853 0.1340467 -0.071993925 0.029845769

network_body._body_endoder.seq_layers.2.bias f4 [128]
000000 0c cd 42 bc c0 b3 9e 3b 40 de 2c 3b 2b 5f 64 bc
       -0.011889707 0.004843205 0.0026377589 -0.013938705
000010 cf 8c 78 3c f8 85 89 bc c4 5b e8 bb b9 78 46 ba
       0.01517029 -0.016787514 -0.0070910174 -0.00075710897
000020 8d ae c9 3b a7 48 59 39 de ab 67 3c cc fc 28 bc
       0.0061548413 0.00020721798 0.014140097 -0.010314178
000030 fa 55 80 bb d0 56 51 bc f1 4e 81 bc 05 18 6c bc
       -0.003916499 -0.012777045 -0.015784713 -0.014410024
000040 22 0f 1d bc 3e 66 04 bc 71 72 60 bb 5d 26 87 bc
       -0.0095861275 -0.008081017 -0.00342479 -0.016497785
000050 15 b9 3d bc f2 7d 3e 3a a0 10 04 38 c8 c3 36 bc
       -0.0115797715 0.0007266692 3.1486736e-05 -0.011155076
000060 aa e2 8d bb c1 3b 8b b8 92 c8 0d 39 06 77 44 bb
       -0.004329999 -6.6391665e-05 0.00013521526 -0.002997817
000070 5f 58 1b bc e2 c6 a9 b9 63 5d 8b 39 64 ed 97 3b
       -0.0094815185 -0.0003238237 0.00026581725 0.0046364535
000080 bc 4e 33 bc e9 6d ce ba 6a 32 3f 3b 64 94 93 3a
       -0.010944065 -0.0015749309 0.0029174336 0.0011259434
000090 47 cf d4 3b 8a 71 25 3c 6f d7 fc bb ae 02 11 3c
       0.006494436 0.010097871 -0.0077161114 0.008850737
0000a0 ed cb a7 bb 82 83 75 3b cb a9 81 bc 44 73 36 3c
       -0.0051207454 0.0037462418 -0.015828034 0.01113588
0000b0 6d 57 3d bc b5 c0 2d bc 0d 8c 75 bb 85 74 b6 36
       -0.011556488 -0.010605027 -0.003746751 5.4375873e-06
0000c0 c5 76 3c bc 0a 02 e6 3b 9a f4 9e bb 04 3f 65 bb
       -0.011502926 0.007019286 -0.004850936 -0.0034980187
0000d0 b6 c8 15 3c d3 b3 18 bc 4e ec 20 bc af a4 31 3a
       0.0091420915 -0.009320217 -0.009821964 0.0006776554
0000e0 e3 14 3b 3b 32 4c 80 3b c8 6b a8 3c 48 53 28 bc
       0.0028546385 0.003915333 0.020559207 -0.010273762
0000f0 d0 05 6e bc 40 3c e3 ba 38 7b a3 ba 9a db 2e 3a
       -0.014527753 -0.0017336681 -0.0012472635 0.00066702964
000100 c6 6c 5c bc b8 bd 08 3c 32 f0 8e bb 59 f4 89 bb
       -0.013453668 0.008346014 -0.0043621296 -0.0042100367
000110 1e 84 5d 3b 43 29 74 3b 69 5a 9b bb 39 2d 97 3b
       0.0033800672 0.003725604 -0.0047410023 0.0046135453
000120 f2 51 45 3c 9c 9a fc 39 8b 55 8a bc 2e 5c 23 bc
       0.012043463 0.00048180379 -0.016886493 -0.009970708
000130 53 4b c9 bb ef 1e 9f 3b c9 6a 1b 3b 8f 0a f1 3b
       -0.0061430125 0.0048559825 0.0023714772 0.007355995
000140 6d 5b ae 3b 38 c4 10 3b 03 11 62 3b 69 58 1b bc
       0.0053209574 0.0022089612 0.0034495003 -0.009481528
000150 35 66 86 bb 6a fb f6 3b f5 c4 f8 3a 43 6c 1f bc
       -0.0041015395 0.007537295 0.0018979596 -0.009730401
000160 e2 7b 2d 3c 69 b6 fa 39 61 03 a4 3a 40 9d 59 bc
       0.010588618 0.00047819622 0.0012513214 -0.01328212
000170 78 4c 89 ba 62 40 4a bc f3 03 f9 3a 57 f0 29 3c
       -0.001047506 -0.012344452 0.0018998369 0.010372243
000180 a0 f1 e6 ba 3d 64 14 bc 9c 2f 00 3b 0b 32 1a bb
       -0.0017619617 -0.009057102 0.0019559627 -0.0023528363
000190 2f 16 1d 3b ed 09 c7 bb ff 98 81 bb 02 2a 74 bc
       0.0023969521 -0.0060741813 -0.003955006 -0.014902594
0001a0 e7 e0 03 bc a5 3e 77 bc c7 7e 13 3b dd 7b 85 bb
       -0.008049226 -0.015090619 0.0022505985 -0.0040736035
0001b0 01 e1 b4 bb 14 db 42 bb 20 f1 01 bc fe 3b 11 3b
       -0.0055199866 -0.0029732632 -0.007931024 0.0022161002
0001c0 48 e5 fc bb 4b f9 9e bb 09 5b 18 bc 15 4a 9d 3b
       -0.007717762 -0.0048514954 -0.009299048 0.004800091
0001d0 ca 3d 36 bc 91 02 55 bc ba 7f 59 bc 2a 00 21 bc
       -0.01112313 -0.0130011 -0.013275081 -0.009826699
0001e0 7e a0 1c 3b de 73 13 bc 6f a6 51 bc 29 2c 5c bb
       0.0023899372 -0.008999793 -0.0127960285 -0.0033595657
0001f0 cc cf 38 bc e9 24 ca 3a e1 9e 83 bc 9f 29 81 3c
       -0.011280011 0.0015422377 -0.01606697 0.015766917

action_model._continuous_distribution.log_sigma f4 [1, 2]
000000 10 ba 3b 3a 2c 9d 49 bb
       0.00071612094 -0.0030763848

action_model._continuous_distribution.mu.weight f4 [2, 128]
000000 9d 9b 5a bc bb c3 67 bc 89 5a c1 bb a2 ab 88 bc
       -0.013342765 -0.014145787 -0.005900685 -0.016683403
000010 38 b7 aa 3c b1 12 98 bc 65 05 10 bd 52 1a 55 3c
       0.020839319 -0.0185636 -0.035161395 0.0130067635
000020 ae 8b 76 3c 42 5d a3 3b 9f 54 ec 3c 78 b2 bb bc
       0.015047951 0.0049854824 0.028848944 -0.022912249
000030 fe bd 68 3c 91 30 7a b9 4f a8 b8 bc 10 54 7f bb
       0.014205454 -0.0002385995 -0.022541193 -0.0038960017
000040 f2 4f e4 bc 2b 14 08 bd b7 ac d1 bc a3 40 98 bc
       -0.027870152 -0.03322236 -0.025595052 -0.018585509
000050 66 b4 c1 bc 46 0c 79 3c 86 a2 a5 bb 0d 0b 94 bc
       -0.023645591 0.01520068 -0.0050547747 -0.018071676
000060 83 77 7c bc 34 bf 3b bb e8 7c fc ba 5b 76 23 bc
       -0.015409353 -0.0028647901 -0.0019263299 -0.009976949
000070 28 6d 02 bd 74 1e ee b8 92 e6 6b 3a ec 2b d2 3c
       -0.03184238 -0.00011354397 0.0008998896 0.02565571
000080 e6 6d e3 3b 33 9e c5 bb 16 cf 07 bb 31 c5 eb 39
       0.006940591 -0.0060308217 -0.0020722798 0.00044969612
000090 96 da c0 3c 0a 33 8d 3c 37 82 c9 3b a1 cf 9e 3c
       0.02354173 0.017236251 0.006149556 0.019386115
0000a0 cf d5 5a 3a 76 55 d1 3b 9b c4 20 bd 4c 3d 54 bc
       0.00083479 0.0063883616 -0.039249998 -0.012954067
0000b0 1d 60 7c bb 8a e9 aa bc e8 1a bb 38 f6 67 77 ba
       -0.0038509436 -0.020863313 8.9218665e-05 -0.00094377936
0000c0 ca 8b 40 bc d9 51 78 3c 37 ee 35 3c 96 b8 81 bb
       -0.011752078 0.015156233 0.011104158 -0.003958772
0000d0 e9 d0 2b bc 6b de 52 3b 15 08 ab ba 73 90 bb 3c
       -0.01048682 0.0032176028 -0.0013048673 0.022896027
0000e0 6c 31 06 bc d4 f9 f6 3c 51 1c 0c 3c 81 16 49 bc
       -0.008190494 0.030148424 0.008551673 -0.012273432
0000f0 91 9c 0c bb 2b 47 72 3c 60 54 1e 3c 77 39 ac 3b
       -0.0021455626 0.014787476 0.009663671 0.005255874
000100 ae a0 c4 bc cd d4 8b bb 7c ae 86 3b 58 df e4 bc
       -0.0240024 -0.004267311 0.0041101556 -0.02793853
000110 3e 72 be 3b 71 30 4e 3c 23 cd b9 bb 48 ac 8e 3c
       0.0058119586 0.0125847915 -0.005670206 0.017416134
000120 58 60 62 3c 95 a2 13 3d b9 2e 06 bc be ce 6b bc
       0.013816915 0.036043722 -0.0081898505 -0.014392553
000130 a3 4c ee bc b5 5d 9e 3a 6b 0c 47 3c 52 c0 fc bb
       -0.029089278 0.001208237 0.012148957 -0.007713356
000140 9c 9c 13 3a 9a e3 a8 bb 0f 47 0a 3d e5 f6 e4 b7
       0.00056309416 -0.0051540853 0.033759173 -2.7294687e-05
000150 20 7e 2a bd 0a 81 4a 3c a3 26 07 3c fb cf 02 3a
       -0.04162419 0.012359867 0.008248958 0.0004990098
000160 f0 6f be 3c 2f fa a0 bb 1a 7a 0f 3c 38 1d 52 bc
       0.023246735 -0.0049126367 0.008757139 -0.012824349
000170 b4 98 84 3c 0b 99 f1 bc 03 97 b4 3c d6 4b 43 bb
       0.016186096 -0.029491922 0.022044664 -0.002979984
000180 c9 9f cb 3b cd 4f e2 bc 29 17 83 3c a4 3f 1a bd
       0.0062141162 -0.027625943 0.016002255 -0.03765835
000190 af af 34 3b de 32 01 bd 5c a3 0a bc ca 42 ee bb
       0.0027570536 -0.03154265 -0.0084617995 -0.0072711455
0001a0 52 06 7b b9 48 f5 43 bc d7 7a 9d 3c 0a 2d 88 bb
       -0.0002393958 -0.011960335 0.019223614 -0.0041557597
0001b0 f7 22 43 3b 24 55 2d bc 6a 1b 06 bd f2 4f ab 3c
       0.002977548 -0.010579381 -0.032740988 0.020912144
0001c0 2c 18 6e 3b 03 e4 d9 3b 58 69 90 3a 93 b9 fc 3b
       0.0036330326 0.0066494956 0.0011017723 0.007712552
0001d0 bf 9a 16 bb 97 88 e1 39 53 0e d3 ba 1a 7a d6 bb
       -0.002298042 0.00043017112 -0.0016102291 -0.0065453174
0001e0 e2 71 d2 3c ab 94 e0 bb fe 65 48 bd fe be 8c 3c
       0.02568907 -0.00685366 -0.048925392 0.017180916
0001f0 76 37 74 bc cb f7 ee 3b d1 6c 89 bc 7f 0f 14 3c
       -0.014905801 0.007292723 -0.01677552 0.009036898
000200 81 4b 7e bc c5 8b 84 b9 58 d1 b6 bb f7 3c 90 3c
       -0.015520931 -0.00025281138 -0.005579155 0.017607195
000210 76 6d 9b bb 25 e3 34 3a 91 fd 23 3c bc ec 7d 3c
       -0.0047432734 0.0006900302 0.010009185 0.015498336
000220 8a 0e 43 bc 07 b1 39 3d 12 07 5b bc 5e ac 88 ba
       -0.011905322 0.045334842 -0.013368385 -0.0010427346
000230 38 79 05 bb 22 7c d9 bb 81 da 1e bc 07 b8 cf bb
       -0.0020366441 -0.0066371122 -0.00969565 -0.0063390764
000240 86 00 d1 3a c5 f1 18 bc 2c 03 c2 3c 88 26 ac bb
       0.001594559 -0.009334986 0.023683153 -0.0052536167
000250 5b 7e fa bb b8 30 10 3d 65 3d 1b bc f4 98 ef bb
       -0.0076444573 0.03520271 -0.009475087 -0.0073119346
000260 92 cb 73 bc 25 f5 58 bb f4 df b5 3c ff ca be 3c
       -0.014880078 -0.0033105102 0.022201516 0.023290155
000270 9a 77 e2 3b 48 b0 af 3a ae a4 93 3a e2 29 67 3c
       0.0069112303 0.0013403976 0.0011264288 0.014109107
000280 1e bc 5c bb 5d 2a 81 bb d6 50 b8 bc 9c 0e a1 3c
       -0.0033681463 -0.0039418177 -0.022499483 0.019660287
000290 13 89 d1 3c e4 48 74 bc 68 8e 1d bc 57 50 03 bc
       0.025578057 -0.014909957 -0.009616472 -0.00801476
0002a0 68 17 cf 3c e4 dd f5 ba bd 33 9a bb de 35 14 3c
       0.025279716 -0.0018758145 -0.0047058747 0.009046046
0002b0 b7 fa d3 ba 0e bd cf 3b 77 1f 66 3b 3a fb 6b 3c
       -0.0016172741 0.0063396757 0.003511397 0.014403159
0002c0 0f ea bc ba 6b 1f 11 bc 69 56 8c 3b b4 f5 0d 3b
       -0.0014413017 -0.008857588 0.004282762 0.0021661343
0002d0 83 43 c4 bc 88 ae fd 3b 38 6a b8 3b fc 3d 61 3c
       -0.023957973 0.007741753 0.0056278966 0.013747688
0002e0 bb 1c 39 3b f9 d3 23 3b 27 ae 9f 3c c7 a9 f8 3b
       0.0028245884 0.0024998172 0.019492222 0.0075885984
0002f0 3d 7b 8b 3b 6d ff 55 3b d1 05 83 bc e7 a4 33 3d
       0.0042566345 0.0032653466 -0.015993984 0.043858435
000300 d0 23 eb 3a ba df 1c 3b 11 97 6c bc e2 e6 fb 3c
       0.001793975 0.0023937062 -0.014440314 0.030749742
000310 0e bd 73 bc 17 c1 3b bd 89 d0 88 bc 9b 1c b1 bc
       -0.014876617 -0.04583844 -0.016701 -0.021620085
000320 c1 26 66 bc 31 59 f2 ba 38 e1 fe 39 1e c7 f8 3c
       -0.014047326 -0.0018489716 0.00048614456 0.030368384
000330 ad 09 91 3c f2 90 59 bc da 35 8a bc a8 fb a1 3c
       0.01770481 -0.013279187 -0.016871382 0.01977332
000340 74 06 e0 bb 69 84 49 3c 6e 7d 0c 3d e8 82 87 bb
       -0.006836707 0.012299635 0.034299307 -0.0041354783
000350 d7 78 91 bb c3 c8 e0 3b 6b 64 38 3d c1 ec 80 3c
       -0.004439454 0.00685987 0.04501764 0.015737893
000360 0e f6 74 3c 87 ae 7d bc db 8b 41 bd 1c 56 8f 3c
       0.014951242 -0.015483505 -0.047252517 0.017497115
000370 bc 22 a5 3a f2 9e e4 bb 9f 3c d0 bb 15 fa 15 bc
       0.0012598853 -0.0069769556 -0.006354883 -0.0091538625
000380 99 d6 cc bc 07 e0 0e 3b 54 f1 03 bc 74 2e 35 bd
       -0.025004672 0.0021801011 -0.008053143 -0.044233754
000390 bb e5 00 bd 5d f2 28 3c 93 04 e8 bc 4d 4b 9e 3c
       -0.031469088 0.01031169 -0.028322494 0.019323016
0003a0 59 47 de 3b e8 fe 7f b8 68 a9 36 bb e5 b0 16 3c
       0.0067834076 -6.1034138e-05 -0.002787197 0.009197448
0003b0 b3 ef bc bc 97 d2 d2 bb b2 0e be 3c d7 ce c8 3a
       -0.023063516 -0.0064337957 0.023200367 0.0015320432
0003c0 09 be 36 3c f4 ae a0 3b cd ab fb bb 10 1e 9e bc
       0.011153706 0.0049036685 -0.0076803924 -0.019301444
0003d0 f3 7d 42 3c 21 62 bb 39 03 0b 64 ba c8 3b 42 3c
       0.011870849 0.0003574053 -0.00086991506 0.011855073
0003e0 54 c7 f2 bc ec 77 32 3c 8c 0f 99 3c 4e c8 01 3d
       -0.029636063 0.010892849 0.018684171 0.031685166
0003f0 b2 eb 1b bc e1 f2 2e 3d 90 4e 45 3c ad ef 94 ba
       -0.009516643 0.042712096 0.012042657 -0.0011362933

action_model._continuous_distribution.mu.bias f4 [2]
000000 bb cd 0f 3c 57 3b ad ba
       0.008777077 -0.0013216537

action_model._discrete_distribution.branches.0.weight f4 [2, 128]
000000 f2 b3 a7 bc 53 db f6 3c bc 38 c7 3b 16 38 10 bc
       -0.020471547 0.030133879 0.0060797613 -0.008802434
000010 c6 a2 14 3d a4 da 18 3a b4 9c 9e 3c 74 d7 0e bc
       0.036288045 0.000583092 0.019361831 -0.00871836
000020 e8 8e 02 bb 0e 21 cc 3c f6 11 1a b9 5e fb f9 bc
       -0.0019921605 0.024918105 -0.00014693275 -0.030515369
000030 ba ec 94 39 7e 58 e6 bc b5 90 0e bc e8 5f ba bc
       0.00028405135 -0.028118368 -0.008701493 -0.02275081
000040 ae 30 d9 ba 77 98 60 3b cd 15 5d 3c 73 04 96 bc
       -0.0016570294 0.0034270564 0.013493967 -0.018312668
000050 26 38 5f bc 55 a7 e8 bb 40 78 58 3c 6a 09 29 bb
       -0.013624227 -0.0071000257 0.013212264 -0.0025792965
000060 81 40 45 bd 9e 60 71 bb 9e 90 89 3c ab 80 8e bc
       -0.04815722 -0.003683127 0.016792592 -0.017395338
000070 e4 f8 92 3b 6a d7 3f bc 6e 70 5f bb 40 57 37 b9
       0.0044852365 -0.011709074 -0.0034094113 -0.00017484743
000080 79 a4 0e bd 63 ba a7 3c dd 9a d4 bb cd aa 82 3c
       -0.034824822 0.020474618 -0.0064881877 0.015950585
000090 a5 40 ad 3b f1 2d 13 3c 38 ca 3c bc 31 a9 97 3c
       0.0052872472 0.008983121 -0.011522822 0.018513294
0000a0 28 c0 3c bc de cb 03 bd 77 89 9d bc 76 f6 98 3c
       -0.011520423 -0.032176845 -0.019230587 0.01867221
0000b0 2b 3a a6 bc ee 9e 2a bc 63 4c c6 bc d2 ae b1 3b
       -0.020291409 -0.010413868 -0.024206346 0.0054224515
0000c0 4e 8b f8 bb 8e d6 0a 3b 59 63 ca bb 18 7c 15 bd
       -0.007584966 0.0021185013 -0.006176394 -0.0364953
0000d0 19 e8 3d 39 e6 fc 1a bd 3d ce 30 bc bf 0e dc bb
       0.00018110908 -0.03783884 -0.010791359 -0.006715625
0000e0 42 cb 12 3c 29 ab ce 36 55 e9 35 3d 2e 3b 06 bc
       0.008959593 6.159204e-06 0.044411976 -0.0081928205
0000f0 a1 cc 02 bd fe 77 78 bc 33 dc 0d bb 59 36 90 3b
       -0.03193343 -0.015165327 -0.0021646142 0.00440101
000100 ce c0 72 bd 58 1d b8 3b 36 ad 2a bc 42 1c 96 3b
       -0.059265904 0.0056187324 -0.010417273 0.0045810053
000110 85 8a f1 3c c9 f5 84 3b a5 56 94 3b 78 b9 56 3c
       0.029484997 0.00405762 0.0045269304 0.013105743
000120 70 35 c0 3c a0 e5 b0 bc 44 c5 62 bc 63 5e 52 39
       0.023462981 -0.021593869 -0.013840977 0.00020062322
000130 c6 f3 2c 3a 97 19 b8 bc 50 8b 21 bb 91 33 5e 3c
       0.00065976044 -0.02247314 -0.0024649687 0.013562099
000140 87 99 5f 3c e8 df 43 3c 00 c3 6d ba c7 80 39 bc
       0.013647444 0.011955239 -0.000906989 -0.011322207
000150 9a db 8e bc 25 fb 67 3c 8a ed a2 3c a3 e1 19 bc
       -0.017438699 0.014158999 0.019888658 -0.009392175
000160 1f 5d a2 3c bb a0 3a bb c5 53 fb bb dd eb 1b bb
       0.019819794 -0.002847715 -0.007669898 -0.0023791709
000170 dc 25 13 bc cb 1a 18 3b d1 5b 37 bc cd e2 13 3c
       -0.008981194 0.002320933 -0.011191324 0.0090262415
000180 63 91 08 bb d6 a1 d3 bc e2 af cf 3b f2 36 40 bb
       -0.002083861 -0.025834005 0.0063381055 -0.0029329625
000190 ef c6 5f 3c 7d 50 23 3c fa 79 be bc ec 7e 75 bb
       0.013658269 0.00996792 -0.023251522 -0.0037459685
0001a0 25 25 91 bc bf 1d b4 bb 69 8a 04 bc c5 52 76 3c
       -0.017717907 -0.00549671 -0.00808964 0.015034382
0001b0 12 87 34 bc a0 72 9c 3c e4 e8 2d bd 5a 05 b6 bc
       -0.011018531 0.019097626 -0.04245843 -0.022219349
0001c0 fb 2b 08 bc a3 fd 2c bc ab e5 02 bd 66 83 38 3b
       -0.008311267 -0.010558519 -0.03195731 0.0028154491
0001d0 bb 90 b5 bc ba 75 1c bb b5 dc cb bb 99 6a 2f bc
       -0.02216374 -0.0023873881 -0.0062213787 -0.010706567
0001e0 43 d6 91 3b 69 6c 4a 3b ab 31 3d bb 03 35 33 3c
       0.004450591 0.0030887371 -0.0028868716 0.010937932
0001f0 f8 f0 7c ba 84 dc 28 bc 66 0f 35 bb b3 ca 80 3c
       -0.0009648944 -0.010306481 -0.0027627586 0.015721655
000200 c5 3b 57 3c aa c0 22 bd 6c 3f bf bb a0 d0 d1 3b
       0.013136809 -0.03973452 -0.005836418 0.006403044
000210 9b bc 95 bc 1e e9 19 bc 44 f8 90 bc 69 ca 84 ba
       -0.01827841 -0.009393958 -0.017696507 -0.0010131124
000220 26 57 e7 3a e4 37 e5 bc 02 1a 84 bc cc c1 df 3c
       0.0017649874 -0.027980752 -0.016125683 0.02731409
000230 43 be 4d 3c ac 12 b7 3b 10 45 75 3c ad e6 41 3c
       0.012557569 0.0055869427 0.014970079 0.011834783
000240 3c d4 a4 3b 0f 54 89 3a f1 8c 82 3b aa ad b3 3c
       0.005030183 0.0010477322 0.0039840867 0.021933395
000250 0a 1f 26 bc 1d 22 d0 3b b7 19 78 bc a5 1f 33 3c
       -0.010139236 0.006351723 -0.01514285 0.010932838
000260 90 c9 a2 3c 6a 78 8c 3b a4 22 32 bc 2f c2 fe bb
       0.019871503 0.0042868154 -0.010872517 -0.0077746133
000270 e3 4f 3b 3b 05 37 9e 3c 40 41 b0 bb 58 c2 84 3c
       0.0028581552 0.019313345 -0.005378872 0.016205952
000280 29 bb 50 3c d4 9d 35 bc b6 62 35 3b 9f 52 8d bc
       0.012739935 -0.011084992 0.0027677245 -0.01725131
000290 5f b5 be bc 0b 4b 2a bc 3c 10 06 3d 5f 75 94 bc
       -0.023279844 -0.010393868 0.032730326 -0.018122373
0002a0 4c 16 28 3b 58 da ef 39 df 15 0a 3d 1b 90 58 bc
       0.0025648056 0.0004574831 0.033712264 -0.013217951
0002b0 df f8 89 3c 12 a7 34 bb e9 cf 91 3c dd 3e 27 bc
       0.016842304 -0.0027565402 0.017799335 -0.010207859
0002c0 6c f2 bb bb 33 eb b6 3b 0e c0 32 3b 39 06 19 3d
       -0.005735686 0.005582237 0.0027275118 0.03735945
0002d0 a2 1a 79 bc a0 79 2d 3d 60 22 96 3b 15 8c a7 3c
       -0.015204104 0.04235232 0.0045817345 0.020452539
0002e0 4c 85 24 bc da 3f a5 3c 83 38 38 bd 57 51 0c 3c
       -0.010041546 0.020172048 -0.04497577 0.008564315
0002f0 df 71 6d 3b 96 6d be 3c 52 90 38 3c 1e 74 c9 bb
       0.0036231203 0.023245614 0.011264877 -0.0061478755
000300 1f 16 11 3d 42 e6 b1 bc 59 18 20 3d cf 9f 8e bc
       0.035421487 -0.02171624 0.03908572 -0.017410187
000310 c3 f7 97 bc b5 14 eb bc c3 73 a1 38 fe d0 fe bb
       -0.01855076 -0.028696397 7.6986405e-05 -0.0077763787
000320 7c ea f6 bc 43 7b a9 3c 45 a7 6f 3c a8 b3 0b 3c
       -0.030141108 0.020688659 0.0146272825 0.00852672
000330 09 b4 b6 3a 6c ab ee 3c 39 0b 13 3d b0 a8 46 bc
       0.0013939153 0.029134475 0.035899375 -0.012125179
000340 a7 c5 26 bc 5e 8d c5 bc 5f 7f f7 3b c5 2c 5f 3c
       -0.01017896 -0.02411526 0.0075530256 0.013621514
000350 62 8a 5b 3c 2c 66 46 bc 9a 24 f4 bb fd 19 5a 3c
       0.013399692 -0.012109321 -0.0074506523 0.01331186
000360 42 85 c0 bc 6a 30 1d 3a 92 23 6c bc e2 fb d6 3b
       -0.023501042 0.0005996289 -0.0144127775 0.0065607885
000370 d2 97 8f 3b 7c 19 06 bc f7 89 13 3b 9b f2 50 bc
       0.004382112 -0.008184787 0.0022512653 -0.012753154
000380 38 3f 02 bb 97 af 1e 3d 3d 1b a1 39 56 69 18 bc
       -0.0019874107 0.038741674 0.00030728607 -0.009302458
000390 79 71 c7 bb 8c 00 4e bc 8d 67 9d 3c 5a 7e 03 bb
       -0.006086525 -0.012573373 0.019214416 -0.0020064325
0003a0 eb aa 22 3c 53 e1 90 3b 50 99 98 3c 56 03 c5 bb
       0.009928445 0.004421392 0.018627793 -0.0060123606
0003b0 c4 14 6d 3c 53 60 5a bc 0d 8b dd 3c 2b 05 37 3c
       0.014470283 -0.01332863 0.027043844 0.011170666
0003c0 10 77 10 bc e2 9d 55 3c a3 a3 c5 3c eb c7 2b bc
       -0.008817449 0.0130381305 0.02412588 -0.010484676
0003d0 2f 95 8f 3c c2 b5 38 3b fb a1 1a 3c 32 f5 ed 3b
       0.017527191 0.0028184508 0.009438033 0.0072618956
0003e0 16 26 44 bc fe aa 14 bc 95 a0 07 bc 59 97 48 3b
       -0.011971971 -0.009073971 -0.008278032 0.0030607788
0003f0 fa cd 16 3c 12 ab 17 bc 05 26 04 3c 09 e5 cc bc
       0.009204382 -0.009257095 0.008065705 -0.025011556

action_model._discrete_distribution.branches.0.bias f4 [2]
000000 1b 9b 23 3c 1f 9b 23 bc
       0.0099857105 -0.009985714

onnx::Div_80 f4 [92]
000000 b6 2f 2a 3e 9f 05 f1 3e af 3d 4f 3b eb 04 d4 3d
       0.16619763 0.470746 0.003162246 0.103525005
000010 e9 25 1c 3e 18 21 f3 3e af 3d 4f 3b 97 84 d7 3d
       0.15248837 0.47486186 0.003162246 0.105233364
000020 5f ff 1e 3e c7 30 f0 3e af 3d 4f 3b b6 6c d9 3d
       0.15527104 0.46912214 0.003162246 0.10616438
000030 5b 5f 9d 3d 40 59 f2 3e af 3d 4f 3b 63 53 d6 3d
       0.07684203 0.47333717 0.003162246 0.104651235
000040 9c 94 93 3d 8e 1c e7 3e af 3d 4f 3b f7 ff e7 3d
       0.07206079 0.45138973 0.003162246 0.11328118
000050 8f c9 94 3c c7 9a f7 3e af 3d 4f 3b be fb de 3d
       0.018162517 0.48360273 0.003162246 0.1088786
000060 8f 8e b1 3c 90 78 ea 3e af 3d 4f 3b 3c 47 f6 3d
       0.021674423 0.45795107 0.003162246 0.12025306
000070 af 3d 4f 3b 90 d1 f9 3e af 3d 4f 3b 35 20 f8 3d
       0.003162246 0.48792696 0.003162246 0.12115518
000080 af 3d 4f 3b 72 c5 ed 3e af 3d 4f 3b 72 7b 04 3e
       0.003162246 0.464397 0.003162246 0.12937716
000090 af 3d 4f 3b 65 8f fa 3e af 3d 4f 3b 64 d0 06 3e
       0.003162246 0.48937526 0.003162246 0.13165432
0000a0 af 3d 4f 3b e2 0c ef 3e af 3d 4f 3b 1f fd 0b 3e
       0.003162246 0.46689516 0.003162246 0.13670777
0000b0 af 3d 4f 3b bb 29 fb 3e af 3d 4f 3b 5f 34 12 3e
       0.003162246 0.49055275 0.003162246 0.1427779
0000c0 af 3d 4f 3b db a3 f1 3e af 3d 4f 3b aa 03 16 3e
       0.003162246 0.47195324 0.003162246 0.14649835
0000d0 af 3d 4f 3b 65 7c fb 3e af 3d 4f 3b 12 c5 1c 3e
       0.003162246 0.49118343 0.003162246 0.15309551
0000e0 af 3d 4f 3b 00 0d f2 3e af 3d 4f 3b 86 7f 1e 3e
       0.003162246 0.47275543 0.003162246 0.15478334
0000f0 af 3d 4f 3b 1b bb fb 3e af 3d 4f 3b 51 ea 26 3e
       0.003162246 0.49166188 0.003162246 0.16300322
000100 af 3d 4f 3b 8f d0 f3 3e af 3d 4f 3b 06 5f 28 3e
       0.003162246 0.47620055 0.003162246 0.16442499
000110 af 3d 4f 3b db 99 fb 3e af 3d 4f 3b d5 80 31 3e
       0.003162246 0.4914082 0.003162246 0.17334302
000120 af 3d 4f 3b fe 52 f3 3e 83 ad 67 3c 24 e9 33 3e
       0.003162246 0.47524256 0.0141404895 0.17569405
000130 af 3d 4f 3b 8f 7e fb 3e af 3d 4f 3b 45 f5 3d 3e
       0.003162246 0.49119994 0.003162246 0.18550594
000140 af 3d 4f 3b 13 f4 f1 3e 1b 0f 3b 3d f4 46 43 3e
       0.003162246 0.47256526 0.045668703 0.19070035
000150 af 3d 4f 3b 5c 9a fb 3e af 3d 4f 3b d2 a7 4d 3e
       0.003162246 0.49141204 0.003162246 0.2008355
000160 af 3d 4f 3b a3 c5 ef 3e 75 8a 85 3d a9 fd 55 3e
       0.003162246 0.46830472 0.06520549 0.20897545

onnx::Div_83 f4 [12]
000000 e9 8a 86 40 09 b9 11 3c 12 78 49 40 c4 80 d6 47
       4.204457 0.0088942135 3.1479535 109825.53
000010 ec 77 c5 46 ac 1a 39 47 03 2d 6e 3c b8 e2 54 3b
       25275.96 47386.67 0.014537099 0.0032483768
000020 87 4a c5 3c db a9 30 45 1d 25 25 44 70 e3 93 44
       0.024083389 2826.616 660.5799 1183.1074
