Assets/Scripts/Test2.onnx (onnx, 131520 bytes, 13 tensors)

network_body.observation_encoder.processors.0.normalizer.running_mean f4 [92]
0	0x3c733082	0.014843108
1	0x3f51b1ae	0.8191174
2	0x00000000	0.0
3	0x3f25eb25	0.6481193
4	0x3c124b0b	0.008929024
5	0x3f447c86	0.7675251
6	0x00000000	0.0
7	0x3f20db6b	0.62834805
8	0x3c090ba2	0.00836459
9	0x3f513ad5	0.81730396
10	0x00000000	0.0
11	0x3f25b85a	0.64734423
12	0x3b068c16	0.0020530275
13	0x3f6b9cdd	0.9203623
14	0x00000000	0.0
15	0x3f235736	0.6380495
16	0x3ac505aa	0.0015031595
17	0x3f6c8d37	0.92402977
18	0x00000000	0.0
19	0x3f28ce69	0.65939957
20	0x3904172c	0.00012597133
21	0x3f7b67d0	0.9820528
22	0x00000000	0.0
23	0x3f213e0a	0.6298529
24	0x3a3abc26	0.0007123373
25	0x3f7aea9b	0.9801423
26	0x00000000	0.0
27	0x3f2986a3	0.66221064
28	0x00000000	0.0
29	0x3f7e364d	0.99301606
30	0x00000000	0.0
31	0x3f2041c3	0.62600344
32	0x00000000	0.0
33	0x3f7d1b97	0.98870224
34	0x00000000	0.0
35	0x3f2a87b7	0.66613334
36	0x00000000	0.0
37	0x3f7ef9ce	0.9959992
38	0x00000000	0.0
39	0x3f21024a	0.6289412
40	0x00000000	0.0
41	0x3f7e1046	0.9924358
42	0x00000000	0.0
43	0x3f2c6e65	0.6735595
44	0x00000000	0.0
45	0x3f7f86f6	0.9981531
46	0x00000000	0.0
47	0x3f230fa8	0.63695765
48	0x00000000	0.0
49	0x3f7e746f	0.99396414
50	0x00000000	0.0
51	0x3f28cb0b	0.6593482
52	0x00000000	0.0
53	0x3f7ffc8f	0.9999475
54	0x00000000	0.0
55	0x3f223f0d	0.6337746
56	0x00000000	0.0
57	0x3f7f1893	0.9964687
58	0x3a3ecc39	0.00072783564
59	0x3f23a3a2	0.6392156
60	0x00000000	0.0
61	0x3f7f4fda	0.9973122
62	0x3b286399	0.002569413
63	0x3f1ff2dd	0.62479955
64	0x00000000	0.0
65	0x3f7c504e	0.98560035
66	0x3c3f43a0	0.011673838
67	0x3f1f64bc	0.62263083
68	0x00000000	0.0
69	0x3f7902d1	0.9726992
70	0x3cdf7d1a	0.027281333
71	0x3f1dd38f	0.6165094
72	0x00000000	0.0
73	0x3f77ba60	0.9676876
74	0x3cf27911	0.029598745
75	0x3f1cc90e	0.61244285
76	0x00000000	0.0
77	0x3f70c9f0	0.9405813
78	0x3d73580f	0.05941015
79	0x3f1bbbb8	0.6083331
80	0x00000000	0.0
81	0x3f7233ba	0.9461018
82	0x3d51ac1f	0.051189538
83	0x3f1c47ba	0.61046946
84	0x00000000	0.0
85	0x3f61d2bb	0.88212174
86	0x3df15dc1	0.1178546
87	0x3f197def	0.59957784
88	0x00000000	0.0
89	0x3f5d1df7	0.8637385
90	0x3e08b4af	0.13350175
91	0x3f1befc0	0.60912704

network_body.observation_encoder.processors.1.normalizer.running_mean f4 [12]
0	0x3f01154b	0.50423115
1	0x40283e99	2.6288207
2	0x40c03351	6.006264
3	0xc73905f1	-47365.94
4	0x450bd523	2237.321
5	0x478226b0	66637.375
6	0xc08f951b	-4.4869514
7	0x3e70a34d	0.23499794
8	0xc0f19910	-7.5499344
9	0xc4a1262a	-1289.1926
10	0x42175d8c	37.841354
11	0x44e24d11	1810.4083

network_body._body_endoder.seq_layers.0.weight f4 [128, 104]
0	0x3e2e7790	0.17037797
1	0xbb902fe3	-0.00440024
2	0xbe227932	-0.15866545
3	0x3db9fe92	0.090817586
4	0xbe4117b8	-0.18856704
5	0xbdce282a	-0.100662544
6	0x3d7927fe	0.060829155
7	0x3b28aac8	0.002573656
8	0x3dffcce8	0.12490255
9	0xbdb3f347	-0.08786636
10	0xbd0aefc0	-0.03392005
11	0x3e070f58	0.13189447
12	0xbbb04cdc	-0.005380256
13	0xbe8e7983	-0.2782708
14	0xbe290355	-0.16505177
15	0x3e6c5fd1	0.23083426
16	0x3e484383	0.19557004
17	0xbd5ff068	-0.05467263
18	0xbd9f233c	-0.07770392
19	0x3c117ded	0.008880121
20	0x3e30731e	0.17231414
21	0xbe024861	-0.12722923
22	0x3de9e7c7	0.11421161
23	0x3db1dcfa	0.08684726
24	0x3d9b9d77	0.075983934
25	0x3d8fd112	0.07022299
26	0x3c9659b9	0.01835333
27	0xbe54070b	-0.20705812
28	0xbe0c1f2b	-0.13683765
29	0xbd280ee1	-0.041029815
30	0xbcc3823d	-0.023865813
31	0x3e39c568	0.18141711
32	0xbd530dfc	-0.05152701
33	0x3d8dd51b	0.06925412
34	0xbdad5d7c	-0.08465096
35	0x3cb14d3c	0.021643274
36	0x3bbe2102	0.0058022747
37	0xbcddac4f	-0.027059702
38	0xbbf35756	-0.0074261827
39	0x3dd49190	0.10379326
40	0x3d49a2a3	0.049227368
41	0x3be995b3	0.0071284412
42	0x3a84e776	0.0010139782
43	0x3e0b3082	0.13592723
44	0x3e1346ce	0.14382479
45	0x3e286cf7	0.16447817
46	0xbc6ba79c	-0.014383223
47	0x3e40ac4c	0.18815726
48	0x3cad464d	0.021151686
49	0xbca9e0ea	-0.02073713
50	0x3d230c78	0.039806813
51	0xbdd2fbd7	-0.10301941
52	0x3d96ea2c	0.073688835
53	0xbd1cc03f	-0.038269278
54	0x3e241f55	0.16027577
55	0xbd983e40	-0.07433748
56	0xbde59c55	-0.112114586
57	0xbe4615ea	-0.19344297
58	0x3dfe1510	0.12406361
59	0xbd453f6d	-0.04815619
60	0xbe5df8ae	-0.21676895
61	0xbc7ddd43	-0.015494647
62	0xbd4b7100	-0.049668312
63	0xbc617e9d	-0.013763097
64	0xbd42d24f	-0.047563847
65	0xbdd6c53f	-0.104868405
66	0x3cc80461	0.02441615
67	0xbc937257	-0.017998857
68	0xbd6d0150	-0.05786258
69	0x3d2adb94	0.041713312
70	0xbe001f71	-0.12511994
71	0xbc9521ae	-0.018204536
72	0x3d8aade5	0.06771449
73	0x3e584a8b	0.21122186
74	0xbdc1445c	-0.09436867
75	0x3d3bf58d	0.045888472
76	0x3d47636e	0.048678808
77	0x3dfd8f68	0.12380868
78	0xbe636c4d	-0.22209282
79	0x3c9e189f	0.01929885
80	0x3c3f350f	0.011670365
81	0xbbd55434	-0.006510282
82	0xbe2a45f8	-0.16628253
83	0xbd2c9572	-0.04213471
84	0xbdd325a2	-0.10309912
85	0xbd3a9082	-0.04554797
86	0x3e86d60c	0.2633518
87	0xbddfd177	-0.10928624
88	0xbd46a67e	-0.048498623
89	0x3b2960b4	0.0025844993
90	0x3cba5885	0.022747288
91	0xbced97d7	-0.029003067
92	0xbdb7b6fd	-0.08970449
93	0x3d8c9ac3	0.06865456
94	0x3d1d8929	0.038460884
95	0xbbfd7126	-0.0077344356
96	0xbd016de6	-0.031598948
97	0x3e6c7514	0.23091537
98	0xbcd97ada	-0.026547838
99	0x3de296fb	0.110639535
100	0x3d48934b	0.048968595
101	0xbd8fa424	-0.07013729
102	0xbde932b0	-0.11386621
103	0xbe48b258	-0.19599283
104	0x3cb2f7a5	0.021846602
105	0x3e349d98	0.17638242
106	0xbdd748dd	-0.105119444
107	0xbe0e0ddf	-0.13872479
108	0xbe061ca6	-0.13096866
109	0x3d0dbc25	0.034603257
110	0x3cb0a1b1	0.021561475
111	0xbc6b4f1a	-0.014362121
112	0x3df45f9b	0.11932298
113	0x3d75c061	0.05999792
114	0xbc9fb28c	-0.019494317
115	0xbd2d89e8	-0.042367846
116	0xbdfe2bc3	-0.12410691
117	0x3e500392	0.20313862
118	0x3e0fcbba	0.1404256
119	0xbdea3cce	-0.11437379
120	0x3e26f285	0.16303451
121	0xbe05d368	-0.13068926
122	0xbe5baa97	-0.21451794
123	0xbd91b8a4	-0.071152955
124	0x3cb8d4c9	0.022562401
125	0xbe3c4c63	-0.18388514
126	0x3c76a9ec	0.015055161
127	0xbe10908a	-0.14117637
128	0x3e213e76	0.15746483
129	0xbca56def	-0.020194022
130	0x3d54ac0c	0.05192189
131	0x3b3c5024	0.002873429
132	0x3e017355	0.12641652
133	0xbe2a17ab	-0.16610591
134	0x3bc38ba9	0.0059675765
135	0x3d008e7b	0.03138588
136	0x3e321bb8	0.17393386
137	0x3cbbd5fa	0.02292918
138	0x3de7a7a0	0.11311269
139	0x3d70c0cb	0.05877761
140	0x3e0bd166	0.13654098
141	0x3daf61b7	0.085635595
142	0x3e05a9d2	0.13053063
143	0xbda48246	-0.0803266
144	0xbdc2c94e	-0.09511052
145	0x3c7862ce	0.015160276
146	0xbd33abe0	-0.043865085
147	0x3d2d3c38	0.042293757
148	0x3d46b8fe	0.048516266
149	0xbb34b61c	-0.0027574366
150	0x3d5511ad	0.05201881
151	0x3c1c2ea1	0.009532602
152	0x3d66d3d2	0.05635435
153	0xbdb89609	-0.09012992
154	0x3c9c2c46	0.01906408
155	0xbe5f24cd	-0.21791382
156	0xbce3afbb	-0.027793756
157	0xbc25664a	-0.010095188
158	0x3ddd6aab	0.10811361
159	0xbbde91a9	-0.0067922664
160	0x3d716ab5	0.058939654
161	0xbd80a070	-0.06280601
162	0x3dfa0505	0.12207989
163	0x3d375129	0.044755135
164	0x3ca5d002	0.020240787
165	0x3b9ad3ec	0.00472497
166	0x3ce0b3fa	0.02742957
167	0x3c0a6bac	0.008448523
168	0xbdb53c3b	-0.08849379
169	0xbcb97325	-0.022637913
170	0xbe806f74	-0.25085032
171	0xbbda7b48	-0.0066675283
172	0xbda6117c	-0.08108804
173	0x3de95177	0.11392491
174	0x3cd1bb18	0.025601909
175	0xbdcdeedc	-0.100553244
176	0xbc890054	-0.01672379
177	0x3cc717e2	0.02430338
178	0x3bc2e108	0.005947236
179	0x3dc2d2d5	0.09512869
180	0x3e10e605	0.14150245
181	0x3dcf334e	0.101172075
182	0x3cb2b90a	0.02181675
183	0xbd147f5d	-0.036254276
184	0x3c01311c	0.007885244
185	0x3d6f1b4b	0.058375638
186	0xbda69da2	-0.08135535
187	0x3d3d04d0	0.046147168
188	0x3d369489	0.044575248
189	0xbcaa5c42	-0.020795945
190	0xbdb1dee3	-0.086850904
191	0x3cb427f3	0.021991706
192	0xbe2c5291	-0.16828372
193	0xbdd88faf	-0.105742805
194	0xbcfcb026	-0.030845713
195	0xbd2f0129	-0.042725716
196	0x3e188085	0.14892776
197	0x3d52d48a	0.051472224
198	0x3d8314de	0.064004645
199	0x3de69570	0.11258972
200	0xbda9511e	-0.08267425
201	0xbe6efdee	-0.23339054
202	0x3ba88f11	0.005144008
203	0xbd9ffaf4	-0.078115374
204	0x3b193187	0.0023375468
205	0x3eb92c05	0.36166397
206	0xbe5aef78	-0.21380413
207	0xbdb3579f	-0.08756947
208	0x3cd2fe73	0.025756096
209	0xbd74a880	-0.059731007
210	0xbd6334f3	-0.05547042
211	0xbd593124	-0.05302538
212	0x3d821fa0	0.06353688
213	0x3cb6be3f	0.022307513
214	0xbd3bb24b	-0.04582433
215	0x3c976ec8	0.018485442
216	0xbd2cc72d	-0.042182136
217	0xbdae0318	-0.08496684
218	0x3c1a27e5	0.009408926
219	0x3e83fa3e	0.25776857
220	0x3d375270	0.044756353
221	0xbdd898d3	-0.10576024
222	0x3d801313	0.06253638
223	0xbce93e0f	-0.028471975
224	0xbe7e5c1e	-0.24839827
225	0x3944303e	0.00018709988
226	0xbdbc4923	-0.09193637
227	0x3d72848c	0.059208438
228	0x3deb406f	0.11486899
229	0x3dad919e	0.0847504
230	0xbc3d70a4	-0.0115625
231	0x3d92cd95	0.07168118
232	0x3cd39652	0.025828514
233	0x3de501b6	0.11181967
234	0xbdace07a	-0.08441253
235	0xbcf256fc	-0.029582493
236	0x3dbc74d8	0.09201974
237	0xbdb6fbb2	-0.08934726
238	0xbe14da9d	-0.1453652
239	0x3d9a0f8f	0.07522499
240	0x3d7397ab	0.059470814
241	0xbde4d75c	-0.11173889
242	0xbe32611d	-0.17419858
243	0x3df12a7d	0.11775682
244	0xbd89b8e7	-0.067247204
245	0x3e56540e	0.20930502
246	0x3dface13	0.12246337
247	0x3e37d97c	0.17954057
248	0xbcf5dbe3	-0.030012077
249	0xbdd6486d	-0.10463033
250	0xbdfe61b6	-0.12420981
251	0x3d2e7d8f	0.04260021
252	0xbd09ac7a	-0.033611752
253	0xbd394820	-0.0452348
254	0x3c10a04b	0.008827279
255	0xbe60577a	-0.2190837

network_body._body_endoder.seq_layers.0.bias f4 [128]
0	0xbd5822af	-0.05276745
1	0xbd2a2138	-0.041535586
2	0x3cb3d707	0.021953119
3	0x3d3a0a30	0.04541987
4	0x3d4c11da	0.049821712
5	0x3b26033c	0.0025331518
6	0xbd0c3b71	-0.034236375
7	0x3d494232	0.049135394
8	0x3d362e80	0.04447794
9	0xbd274d2c	-0.04084508
10	0xbd8eafde	-0.06967138
11	0xbd4d5816	-0.050132833
12	0x3daecf3d	0.08535621
13	0xbd59407b	-0.05304001
14	0xbce1146f	-0.027475564
15	0xbaf427f1	-0.0018627626
16	0xbc249887	-0.010046131
17	0xbad2d202	-0.0016084316
18	0xbd226f13	-0.03965671
19	0xbd778108	-0.06042579
20	0xbb5915f1	-0.003312465
21	0xbd52a784	-0.051429287
22	0xbb6af952	-0.0035854173
23	0x3d75c520	0.060002446
24	0xbd754211	-0.05987746
25	0xbc8375e1	-0.01604742
26	0xbd58ef7a	-0.052962758
27	0x3daa60dd	0.083192565
28	0x3d279374	0.040912107
29	0xbd848a4f	-0.06471693
30	0x3c307a4c	0.010771345
31	0xbc61b754	-0.013776619
32	0x3d6479ac	0.055780098
33	0xbd852fb6	-0.06503241
34	0xbd3e21a8	-0.046418816
35	0x3c8341f0	0.016022652
36	0x3d0bda01	0.03414345
37	0xbd1ece2e	-0.038770847
38	0xbc6830c1	-0.01417178
39	0xbd8a2d6d	-0.067469455
40	0xbcb4b662	-0.022059623
41	0xba372f31	-0.0006987928
42	0xbd072fe5	-0.03300466
43	0xbd76bbc2	-0.060237654
44	0xbd32a5f3	-0.043615293
45	0x3d38777d	0.045035828
46	0xbc974bc1	-0.01846874
47	0xbceae207	-0.028672231
48	0xbce6746c	-0.028131686
49	0x3d1477a7	0.036246922
50	0xbd780b56	-0.060557686
51	0x3cf1458c	0.029452108
52	0x3bc962eb	0.006145825
53	0x3ca6cb2d	0.020360554
54	0xbcc04942	-0.023472432
55	0xbabeda02	-0.0014560821
56	0x3b1711d5	0.00230514
57	0xbd18112a	-0.037125744
58	0x3c4aacfe	0.012370346
59	0xbdae7f3a	-0.0852036
60	0xbc3fbfa3	-0.011703405
61	0x3c58883d	0.0132160755
62	0xbdc4d0a9	-0.09610111
63	0xbc3b309d	-0.0114251645
64	0x3bdf9d9c	0.0068242084
65	0xbcd2bf62	-0.025726024
66	0xbd3b7bfc	-0.045772538
67	0x3bf2d3b4	0.007410491
68	0xbd2d2f0a	-0.042281188
69	0x3d79ddc0	0.061002493
70	0xbcbe04f1	-0.023195716
71	0xbc405f0c	-0.011741411
72	0xbd6906c5	-0.05689122
73	0x3cf51880	0.02991891
74	0xbd6e5741	-0.05818868
75	0xbd795512	-0.060872145
76	0xbcde035c	-0.027101211
77	0xbdb42d6b	-0.08797725
78	0xbcc23754	-0.023708023
79	0xbceb985e	-0.028759178
80	0xbd29bcfe	-0.041440003
81	0x3d5aaa22	0.053384908
82	0x3dce42e9	0.10071356
83	0xbd17759f	-0.036977407
84	0xbd375b26	-0.04476466
85	0x3c668813	0.014070529
86	0x3bfed171	0.007776432
87	0x3c7ef1e2	0.015560599
88	0x3d229c7f	0.039700028
89	0xbcc7930b	-0.024362108
90	0x3ca0b8c8	0.01961936
91	0xbc888fee	-0.016670194
92	0x3cc83707	0.024440302
93	0xbc34cc21	-0.011034996
94	0xbd98764d	-0.07444439
95	0xbbf09ebe	-0.0073431423
96	0xbdc6cd61	-0.09707142
97	0xbcb6c83d	-0.022312278
98	0xbd12db41	-0.035853628
99	0x3ca8114d	0.020516062
100	0xbd0b91a9	-0.03407446
101	0xbbe037be	-0.0068425825
102	0xbd7501dd	-0.05981623
103	0x3c8d348c	0.01723697
104	0xbd134280	-0.03595209
105	0xbc8d183d	-0.017223472
106	0x3b672ac7	0.00352733
107	0xbc9ac4ca	-0.018892664
108	0xbc356e7d	-0.011073706
109	0xbcd58459	-0.026064085
110	0xbc9f7de6	-0.019469213
111	0x3d29c668	0.04144898
112	0xbe1eeeab	-0.15520732
113	0x3cd05da1	0.02543527
114	0xbd38722f	-0.04503077
115	0x3d5fd30a	0.054644622
116	0xbc66462d	-0.014054817
117	0xbd1aac35	-0.037761886
118	0xba560b68	-0.0008165152
119	0xbb9751e3	-0.004617916
120	0xbd39a7aa	-0.045325913
121	0xbdcc02db	-0.09961482
122	0xbd82eaa2	-0.06392409
123	0x3cb976a9	0.02263959
124	0xbbb8a5b9	-0.00563499
125	0xbc8afee6	-0.016967248
126	0x3d4df9f6	0.05028721
127	0xbd216785	-0.039405365

network_body._body_endoder.seq_layers.2.weight f4 [128, 128]
0	0x3e84390a	0.25824767
1	0x3d4a0f02	0.04933072
2	0xbd28eaa7	-0.041239407
3	0xbe6e99ea	-0.23300901
4	0xbe6fb222	-0.23407796
5	0xbe908f71	-0.28234437
6	0x3e13f2b8	0.14448059
7	0x3d9090cb	0.07058867
8	0xbd6ce857	-0.057838764
9	0xbc6a7707	-0.014310605
10	0x3d648e74	0.055799916
11	0x3e58c670	0.21169448
12	0x3d1f35f7	0.038869824
13	0x3dcac964	0.099016935
14	0xbd7402ea	-0.05957309
15	0x3a8b53f3	0.0010629877
16	0x3c0d8b7a	0.008639211
17	0x3d4b062b	0.04956643
18	0xba42eb33	-0.000743556
19	0x3de3b2be	0.11118077
20	0xbdb89da2	-0.09014441
21	0xbd6c1aaf	-0.057642635
22	0x3df4065b	0.11915275
23	0x3d88dd62	0.066828504
24	0xbdb99b47	-0.0906282
25	0xbbeb4b2d	-0.0071805925
26	0x3c8a56ac	0.016887031
27	0xbe366bda	-0.1781458
28	0x3db7d201	0.08975602
29	0x3da4f679	0.080548234
30	0x3cc62a09	0.024189966
31	0xbdf1e8d3	-0.11811986
32	0xbbaa0fff	-0.005189895
33	0x3e0ce4de	0.13759181
34	0x3e8b9f2f	0.27269885
35	0xbaed559d	-0.001810718
36	0x3e3a4214	0.1818927
37	0x3e2225bb	0.15834706
38	0x3e150c6b	0.14555518
39	0xbe2c3e73	-0.16820697
40	0xbe03ccd4	-0.12871104
41	0xbe72af00	-0.2369957
42	0x3d994f01	0.07485772
43	0x3df9e12c	0.12201151
44	0x3cc3f335	0.023919681
45	0x3ded3397	0.115821056
46	0xbe92a94a	-0.28644782
47	0x3d913ec5	0.070920505
48	0xbc9e4581	-0.019320251
49	0x3d54a121	0.051911477
50	0xbd85f441	-0.06540728
51	0xbd48bb25	-0.0490066
52	0xbdb3e84c	-0.087845415
53	0xbd04921f	-0.032365914
54	0x3dc11354	0.09427515
55	0x3e1047b9	0.1408986
56	0xbd91c069	-0.071167774
57	0x3d397ad9	0.045283172
58	0xbe4b8b4d	-0.19877358
59	0xbe001f01	-0.12511827
60	0x3e979ee5	0.29613414
61	0xbe31c423	-0.17359976
62	0xbe302cb2	-0.1720455
63	0x3e146b9d	0.14494176
64	0xbdd7b0d4	-0.10531774
65	0x3dffc8e2	0.12489487
66	0xbc937a96	-0.01800279
67	0x3dc0174b	0.09379443
68	0x3e3d65dc	0.18495888
69	0xbe254879	-0.16140927
70	0x3d6f8272	0.05847401
71	0xbd97c50d	-0.07410631
72	0x3e23b0c5	0.15985401
73	0xbdf40187	-0.11914354
74	0x3deaec74	0.11470881
75	0x3dbbb946	0.091661975
76	0xbdec0855	-0.11525027
77	0x3d4cbb77	0.049983468
78	0x3d250cc6	0.040295385
79	0xbdc8ed42	-0.09810878
80	0xbdb090b0	-0.08621347
81	0xbd2159c3	-0.039392244
82	0xbe7c5943	-0.24643426
83	0xbd8a8b61	-0.06764866
84	0xbd8c0b10	-0.068380475
85	0x3e844dde	0.25840658
86	0x3e57367d	0.2101688
87	0xbd90992c	-0.07060465
88	0xbe61f6db	-0.22066824
89	0x3d1b7a8b	0.037958663
90	0xbde07e6b	-0.10961612
91	0xbe1205a5	-0.14259966
92	0x3d53bcfd	0.051693905
93	0x3d9074a8	0.070535004
94	0xbd0e62c3	-0.034762155
95	0xbc5011a0	-0.012699515
96	0x3e13b3f1	0.14424111
97	0xbd83d359	-0.06436796
98	0xbd3c903f	-0.046036
99	0xbdc67c8e	-0.09691726
100	0x3da95caa	0.082696274
101	0x3e32f420	0.17475939
102	0x3c2d4398	0.010575198
103	0xbda22cc6	-0.07918696
104	0x3dea0e7f	0.11428546
105	0xbb203d46	-0.0024450584
106	0x3d9d4922	0.076799646
107	0x3ce5683a	0.0280038
108	0x3cbba580	0.022906065
109	0xbddece38	-0.10879177
110	0x3dc22ed0	0.09481585
111	0xbdc037fc	-0.09385678
112	0xbb6137cb	-0.003436553
113	0xbe55e242	-0.20887092
114	0x3d5dc340	0.054141283
115	0x3d457f97	0.048217382
116	0xbdc7fbb4	-0.097648054
117	0x3e110e06	0.14165506
118	0xbe0f7ee2	-0.14013246
119	0xbc7cfc36	-0.015440991
120	0xbe256aa6	-0.16153964
121	0x3e02f396	0.12788233
122	0xbe09ae12	-0.13445309
123	0xbd80fd1e	-0.06298278
124	0x3da90b65	0.082541265
125	0x3eac888a	0.3369792
126	0xbcdaf15a	-0.026726414
127	0x3e57fc1f	0.2109227
128	0xbdac8f68	-0.0842579
129	0xbc7463ab	-0.014916341
130	0x3cce552b	0.025187096
131	0xbcc0d474	-0.023538806
132	0xbdca38e9	-0.09874136
133	0xbd981547	-0.07425933
134	0x3cd8fac0	0.026486754
135	0x3e065304	0.13117605
136	0x3d641051	0.055679623
137	0x3cd4e88d	0.025989795
138	0x3c49fd01	0.012328387
139	0xbe192e10	-0.14958978
140	0x3df85a15	0.12126557
141	0xbd91c9ed	-0.071185924
142	0xbd309ec5	-0.043120164
143	0xbd9e35f3	-0.07725134
144	0xbd0e36fe	-0.034720413
145	0xbc4e0d9c	-0.012576487
146	0x3c94ea10	0.018178016
147	0x3dda754e	0.10666905
148	0xbd9a8a5f	-0.075459234
149	0xbda15709	-0.07877929
150	0xbdd39d22	-0.10332705
151	0xbe3d81e4	-0.1850658
152	0x3d9afbd0	0.07567561
153	0xbd36b244	-0.0446036
154	0x3ce33db3	0.027739381
155	0xbddae375	-0.10687915
156	0x3a32edd7	0.0006825602
157	0xbc4971aa	-0.012295166
158	0xbd922004	-0.07135013
159	0xbd8ad737	-0.0677933
160	0x3a07b209	0.00051763706
161	0xbca8aeda	-0.020591188
162	0xbe132287	-0.1436864
163	0x3a69ff20	0.0008926261
164	0xbe4b2537	-0.19838415
165	0xbb83fae1	-0.00402771
166	0xbdea3b40	-0.11437082
167	0xbe1d4d40	-0.153615
168	0xbdf04d76	-0.117335245
169	0xbdef3fd5	-0.11682097
170	0x3c323ee8	0.010879256
171	0xbdcf64ec	-0.10126671
172	0xbda50bcc	-0.08058891
173	0xbd41c8aa	-0.04731051
174	0x3d51647a	0.051121213
175	0x3e0401fc	0.12891382
176	0xbe047e6b	-0.1293885
177	0xbdf06b5d	-0.11739228
178	0xbdd8f869	-0.105942555
179	0xbdcdcf7c	-0.1004934
180	0xbd0f03c6	-0.034915708
181	0xbda77c72	-0.08178033
182	0xbe546049	-0.20739855
183	0xbd869b56	-0.06572597
184	0xbc1b9268	-0.009495355
185	0x3aab1412	0.0013052246
186	0xbd8d1f2b	-0.068907104
187	0xbd981e38	-0.07427639
188	0xbd813dd7	-0.06310623
189	0x3c967763	0.018367475
190	0xbe13a0d6	-0.14416823
191	0x3d115a1f	0.035486337
192	0xbdd25592	-0.102702275
193	0x3cb7a9a4	0.022419758
194	0x3e0ad439	0.13557519
195	0x3d3d6037	0.046234336
196	0xbd073e8a	-0.033018626
197	0xbe4987f4	-0.19680768
198	0x3cc789eb	0.024357757
199	0xbd3b81cf	-0.045778092
200	0xbd375dbc	-0.044767126
201	0x3d4fba02	0.0507145
202	0x3e021475	0.12703116
203	0xbc5fa34d	-0.013649774
204	0x3bf51d01	0.007480264
205	0x3de0ee2b	0.10982927
206	0xbdb6d620	-0.0892756
207	0x3e56c276	0.20972618
208	0xbd63d2c9	-0.055620942
209	0xbda76300	-0.081731796
210	0xbd50d76f	-0.050986703
211	0xbc1ac98f	-0.009447469
212	0x3d97f61b	0.07419988
213	0x3dc760da	0.0973527
214	0xbd750c0a	-0.059825934
215	0xbe13bae8	-0.14426768
216	0xbdb11704	-0.08646968
217	0xbc28f280	-0.010311723
218	0xbd93cddd	-0.07217
219	0x3d8dc043	0.06921437
220	0x3da765d6	0.081737205
221	0x3d1ca5d4	0.038244084
222	0x3df3d9e4	0.11906794
223	0x3dcd5060	0.10025096
224	0x3d103b23	0.035212647
225	0x3d25fbdd	0.0405234
226	0x3ca679c2	0.02032173
227	0xbe345067	-0.17608796
228	0x3a72dab3	0.0009264156
229	0xbd061a19	-0.032739732
230	0x3c2aea40	0.010431826
231	0x3d38dff6	0.04513546
232	0xbd9729bd	-0.07381008
233	0x3d3e56ae	0.046469383
234	0x3d2ee304	0.042696968
235	0x3d1278b3	0.03575964
236	0x3d9845b7	0.07435172
237	0x3c5d0ee3	0.013492319
238	0x3cb8cc93	0.022558486
239	0xbd47583c	-0.04866813
240	0x3caaf43c	0.020868413
241	0xbc36077d	-0.011110184
242	0xbd824173	-0.0636014
243	0x3c8ef47f	0.01745057
244	0x3d8135e8	0.0630911
245	0xbdcd3902	-0.10020639
246	0x3cd0e3f9	0.02549933
247	0xbd49edb5	-0.04929896
248	0xbce51b4d	-0.02796712
249	0xbdeb59be	-0.11491726
250	0xbd6b5109	-0.057450328
251	0xbd9212f1	-0.07132519
252	0xbcb0ba07	-0.02157308
253	0xbe4ba4f3	-0.19887142
254	0xbea56abc	-0.32307994
255	0xbe262783	-0.1622601

network_body._body_endoder.seq_layers.2.bias f4 [128]
0	0xbccfff94	-0.025390424
1	0xbdffc5c6	-0.12488894
2	0xbcf4e86b	-0.029895982
3	0xbc8bbeb0	-0.0170587
4	0x3cced8a2	0.025249783
5	0x3ccb01be	0.024781104
6	0x3c24ba2e	0.010054154
7	0x3d2afc15	0.04174431
8	0xbd126e1f	-0.03574955
9	0xbe00afa3	-0.12567
10	0x3d250a32	0.040292926
11	0xbda10755	-0.078627266
12	0xbd9f48d3	-0.07777562
13	0xbd2ab35e	-0.041674964
14	0xbd80f33b	-0.062963925
15	0xbae08e1a	-0.0017132193
16	0x3d200064	0.039062873
17	0xbd5e4fdc	-0.05427538
18	0xbc925e51	-0.01786724
19	0xbd6f9318	-0.05848989
20	0x3db171cd	0.08664284
21	0xbd3d864f	-0.046270665
22	0x3d3aa17c	0.04556416
23	0xbca1aa74	-0.019734599
24	0xbc634eb1	-0.013873742
25	0xbd5095f2	-0.05092425
26	0xbd3e5b4b	-0.046473783
27	0x3d7d0ca3	0.06177963
28	0x3d8120c5	0.063050784
29	0xbce36a84	-0.027760752
30	0xbc8a9d9a	-0.016920853
31	0xbdcde93c	-0.100542516
32	0x3b759ba1	0.0037476795
33	0xbcab1eea	-0.020888764
34	0xbce1aa1e	-0.027546939
35	0xbdb961e8	-0.09051877
36	0xbca1f5ac	-0.019770466
37	0xbd7aa375	-0.06119104
38	0xbc1bba97	-0.009504936
39	0xbd1dbc3c	-0.038509592
40	0xbd90ad0d	-0.07064257
41	0xbd72e2ec	-0.05929844
42	0x3be10149	0.0068666083
43	0xbd8b70e8	-0.068086445
44	0xbd55c7eb	-0.05219261
45	0xbc8858d0	-0.016643912
46	0xbde49acc	-0.11162338
47	0xbcac11c5	-0.021004567
48	0x3c631282	0.013859393
49	0xbd2b5454	-0.04182847
50	0xbe149b4a	-0.14512363
51	0xbbe26857	-0.006909411
52	0xbd101b20	-0.03518212
53	0x3a5596f2	0.0008147798
54	0xbe0a7284	-0.13520247
55	0xbb97f001	-0.004636765
56	0xbdc109d7	-0.09425705
57	0xbbe7b04b	-0.0070705763
58	0xbcc58288	-0.024110094
59	0xbdb26ba3	-0.08711936
60	0xbd46d932	-0.048546977
61	0xbc5c0e20	-0.013431102
62	0xbc57cef3	-0.013171899
63	0xbe0cf7c9	-0.13766398
64	0x3d544836	0.05182668
65	0x3d15677a	0.036475636
66	0xbd61ad9c	-0.055097207
67	0xbd4546b1	-0.04816312
68	0xbde374b8	-0.11106247
69	0x3d650e36	0.055921756
70	0xbceaeace	-0.028676417
71	0xbd7baf83	-0.061446678
72	0xbdb36a79	-0.087605424
73	0xbc656b9a	-0.014002705
74	0x3cc46147	0.023972167
75	0xbdb41639	-0.08793301
76	0xbde5d371	-0.1122197
77	0xbce6c827	-0.028171612
78	0x3cda246b	0.026628694
79	0xbb8fd0be	-0.0043888977
80	0xbcc789cc	-0.024357699
81	0xbdd66c1e	-0.104698405
82	0x3bf4243d	0.007450609
83	0xbdb1d4f5	-0.086831965
84	0xbd1b3c7d	-0.037899483
85	0xbcbbc452	-0.022920761
86	0xbd7a8ae2	-0.061167605
87	0x3babd763	0.005244182
88	0xbc4fac6d	-0.012675387
89	0xbd09bc87	-0.03362706
90	0x3d2ac7af	0.04169434
91	0xbd8fdedc	-0.07024929
92	0xbe1cc237	-0.15308462
93	0x3bf6733a	0.0075210603
94	0xbde11f7d	-0.10992334
95	0xbd141c6a	-0.03615991
96	0xbd5e2f89	-0.05424455
97	0x3cfe265d	0.031024152
98	0xbcfaa5b9	-0.0305966
99	0xbe03b0c9	-0.12860407
100	0xbd67c900	-0.056588173
101	0xbd68cfe1	-0.056838874
102	0xbd44f2cb	-0.048083108
103	0xbd3d01f6	-0.04614445
104	0xbcebd0f9	-0.02878617
105	0x3d2127e3	0.03934468
106	0x3ae8e0b2	0.001776716
107	0xbca84e0a	-0.020545024
108	0xbd88ed81	-0.06685925
109	0xbc2bc481	-0.010483862
110	0x3c1e56be	0.009664236
111	0xbd230498	-0.039799303
112	0x3abc44d8	0.0014363779
113	0xbc9e31e1	-0.019310893
114	0x3bb9eacb	0.0056737415
115	0x3c2aa684	0.010415677
116	0xbd1895a0	-0.03725207
117	0xbace4a20	-0.0015738644
118	0xbe10f306	-0.14155206
119	0xbdcb0515	-0.09913079
120	0xbdbf4377	-0.0933904
121	0xbd880f4f	-0.06643545
122	0xbd7aadce	-0.06120091
123	0xbb4123ca	-0.0029470795
124	0xbce2313f	-0.027611373
125	0xbd4ca70e	-0.049964003
126	0xbd6c5fca	-0.05770854
127	0x3cf3022a	0.029664118

action_model._continuous_distribution.log_sigma f4 [1, 2]
0	0xbea3ae7b	-0.31969056
1	0xbeed4bd7	-0.46346924

action_model._continuous_distribution.mu.weight f4 [2, 128]
0	0xbd246ebf	-0.04014468
1	0xbd0e092c	-0.034676716
2	0x3bbf83d2	0.0058445716
3	0x3cd82c84	0.026388414
4	0x3be3a35f	0.0069469656
5	0x3a8278e8	0.0009954246
6	0x3cb7f920	0.02245766
7	0x3d882451	0.06647552
8	0x3bc0b8e4	0.0058814157
9	0xbce2582b	-0.027629932
10	0x3c53cd46	0.012927359
11	0xbd82551f	-0.06363892
12	0xbcbab6aa	-0.02279218
13	0x3be4420c	0.006965881
14	0xbb9fb503	-0.004873873
15	0x3b949be8	0.004535187
16	0x3db544d5	0.08851019
17	0x3b08522b	0.002080093
18	0xbc88f085	-0.016716251
19	0xbd2239ce	-0.039605908
20	0x3dd0661a	0.10175724
21	0x3ccc64d7	0.024950428
22	0x3d3c4c2e	0.045971088
23	0xb86bfd13	-5.626406e-05
24	0x3c10688e	0.00881399
25	0xbcd71f39	-0.026260005
26	0x3d3cef85	0.04612686
27	0x3d847eee	0.064695224
28	0x3d893d06	0.067010924
29	0xbb72c4d6	-0.0037043593
30	0xbb1aa441	-0.0023596438
31	0xbd8780d9	-0.066163726
32	0x3bb833ab	0.0056213937
33	0xbcf40f14	-0.029792346
34	0xbafbc853	-0.0019209482
35	0xbcde2c57	-0.027120752
36	0x3cced8c0	0.025249839
37	0xbc0bf0a7	-0.008541263
38	0xba22ab21	-0.000620531
39	0xba877956	-0.0010335844
40	0xbb97a13d	-0.0046273754
41	0xbbf25faf	-0.0073966603
42	0x3c082cdf	0.008311479
43	0xbc0d8e17	-0.008639834
44	0xbc8860d9	-0.016647743
45	0x3c161530	0.009160325
46	0xbd70eecc	-0.058821484
47	0xbb49253b	-0.0030692357
48	0x3bda1f9a	0.006656599
49	0xb9edc235	-0.00045348858
50	0xbd8e96ca	-0.069623545
51	0x3c4cb081	0.012493254
52	0x3b4cdbdc	0.0031258976
53	0xbb52b68d	-0.0032152266
54	0xbdc5adcb	-0.09652289
55	0x3c5ab897	0.013349674
56	0xbd884760	-0.06654239
57	0xbdb1cd93	-0.08681788
58	0x39fb2505	0.00047902032
59	0xb96ce78c	-0.00022592972
60	0x3ace1298	0.0015722094
61	0x3b77c040	0.00378038
62	0xbb7140cd	-0.0036812306
63	0xbd823211	-0.06357206
64	0x3d0dba83	0.0346017
65	0x3ca6acd0	0.020346075
66	0xbd18d272	-0.03731007
67	0xbbd7b11f	-0.006582394
68	0xb91b3a0f	-0.0001480358
69	0x3da14738	0.07874912
70	0xbbbaac31	-0.0056967963
71	0x3c247b23	0.010039124
72	0xbb9df16c	-0.0048200395
73	0x3d0f3d37	0.03497049
74	0x3c855d5f	0.016279874
75	0x3b2432f9	0.0025054796
76	0xbd41137d	-0.047137726
77	0x3c6d63b6	0.014489105
78	0x3bfe9f16	0.0077704294
79	0xbc879a40	-0.016553044
80	0x3b4b08c6	0.0030980571
81	0xbc4f80f3	-0.012665021
82	0xbd0aea3d	-0.033914793
83	0x3d085125	0.03328051
84	0x3b194a87	0.002339037
85	0x3bc2e36f	0.0059475224
86	0xbafb2b0b	-0.0019162608
87	0xbbf2d0a7	-0.007410127
88	0x3c9ef754	0.019405045
89	0x3c166a38	0.009180598
90	0x3c31cf40	0.010852635
91	0xbc5ec58f	-0.013596906
92	0xbd50c345	-0.050967474
93	0xbbfc86f1	-0.007706516
94	0x3a9573cd	0.0011402309
95	0x3b81d394	0.0039619897
96	0x3b55604d	0.003255862
97	0x3d762e4d	0.06010275
98	0x3c820b36	0.015874486
99	0xbd2f5470	-0.042805135
100	0xbc800507	-0.015627397
101	0xbb2b87e5	-0.0026173529
102	0xbba02950	-0.0048877373
103	0xbbaf392b	-0.005347391
104	0xb912245a	-0.00013937187
105	0x3d592889	0.053017173
106	0x3c56f75c	0.0131204985
107	0xbd16d26d	-0.03682177
108	0xbc175eb4	-0.009238888
109	0xbb9148a7	-0.0044337097
110	0x38b20459	8.488511e-05
111	0xbb1da4a1	-0.0024054425
112	0x3cb5ba93	0.022183692
113	0xbb53f268	-0.003234053
114	0x3c57eae7	0.013178564
115	0x3d81737f	0.06320857
116	0xba9b59a9	-0.0011852282
117	0x3b47de33	0.0030497431
118	0xbce9e354	-0.028550781
119	0x3b08717e	0.00208196
120	0xbc4fe4c1	-0.0126888165
121	0xbc192401	-0.009346963
122	0x3b8d572c	0.00431337
123	0xbc921dfc	-0.017836563
124	0x3b372b7f	0.002794951
125	0x3d2ac56b	0.04169218
126	0x3cc3f793	0.023921764
127	0x3d6cea2c	0.05784051
128	0xbb59e3f6	-0.0033247448
129	0x3d4a55cb	0.049398225
130	0x3cb0b1cf	0.02156916
131	0xbaefe0c5	-0.001830124
132	0xbb84f75d	-0.0040578083
133	0xbcc587d0	-0.024112612
134	0xbd49c0ed	-0.049256254
135	0xbd6285c1	-0.05530334
136	0xbbf6c7da	-0.0075311484
137	0x3cfcb60e	0.03084853
138	0x3b1277a0	0.0022349134
139	0x3d6f94e2	0.058491595
140	0x3d5bddfc	0.053678498
141	0x3c009798	0.007848643
142	0x3b6dc98c	0.0036283461
143	0xbcb0ba03	-0.021573072
144	0xbb239999	-0.0024963378
145	0x3bbdc938	0.0057918094
146	0xbca8738b	-0.020562908
147	0xbc80ea84	-0.015736826
148	0xbd16b0d4	-0.03678973
149	0xbc572d48	-0.0131333545
150	0xbd1a88d0	-0.03772813
151	0x3bc33127	0.005956787
152	0x3c8116e1	0.01575798
153	0xbd03df04	-0.032195106
154	0x3cb95c43	0.022627002
155	0xbc4d66d5	-0.012536724
156	0x3c64c320	0.013962537
157	0x3bc40ae5	0.005982744
158	0x3c3ebb06	0.01164127
159	0x3cb8ed67	0.02257414
160	0x3a880922	0.0010378698
161	0xbcd8b431	-0.02645311
162	0x3b89c003	0.004203798
163	0x3d1f8c24	0.038952008
164	0x3c84c8a6	0.016208958
165	0x3ccf5e28	0.025313452
166	0x3bb39a2f	0.0054810266
167	0x3acdbebe	0.0015697104
168	0xbba5ff11	-0.0050658067
169	0x3a70a1b6	0.000917937
170	0xb9f0e50b	-0.00045947017
171	0x3b7a203f	0.0038166193
172	0x3b3a7893	0.0028453215
173	0x3b54b73f	0.0032457856
174	0xbc087002	-0.008327486
175	0x3b18a0d0	0.002328921
176	0xba948132	-0.0011330007
177	0x3ba5f6ce	0.005064822
178	0x3c52ddd5	0.012870272
179	0xbb963bb1	-0.0045847525
180	0x3b5d5035	0.003376973
181	0xbadd1d19	-0.0016869634
182	0x3cadaca1	0.02120048
183	0x3bcf0840	0.006318122
184	0x3d3f54ef	0.04671186
185	0xbd85114b	-0.06497439
186	0x3c01e6c4	0.007928554
187	0x3c19b7a1	0.009382159
188	0x3b01e78e	0.0019821855
189	0xbc9708ef	-0.018436877
190	0x3acade87	0.0015477695
191	0x3cb97658	0.022639439
192	0xbc9f4e40	-0.019446492
193	0xbcf28df2	-0.0296087
194	0x3c9e6687	0.019335998
195	0x3c890392	0.016725335
196	0xb93cbf70	-0.00018000393
197	0xbce114ec	-0.027475797
198	0x3c169e7c	0.009193059
199	0x3c882c18	0.016622588
200	0x3bd4aec8	0.006490562
201	0x3cd6788b	0.026180526
202	0x3c854016	0.01626591
203	0x3c4efb20	0.012633115
204	0x3d6d05b9	0.057866786
205	0xbb3d28e2	-0.002886348
206	0xbd0b1758	-0.03395781
207	0xbc99b7bb	-0.018764367
208	0xbb53abd4	-0.0032298462
209	0x3c404026	0.011734044
210	0xbd45c365	-0.048282046
211	0xbcc3155c	-0.023813896
212	0x37810b9e	1.5383408e-05
213	0x3bf6ce8a	0.0075319456
214	0xbbc6411f	-0.0060502435
215	0x3bd338b6	0.0064459695
216	0xbc817df6	-0.015807133
217	0x3cdad910	0.026714832
218	0xbbeabcb3	-0.007163608
219	0xbb87c4df	-0.004143342
220	0x3cdedd3b	0.0272051
221	0x3c5c566b	0.013448338
222	0x3c2e60aa	0.010643164
223	0x3a17dc26	0.00057929975
224	0x3c841ee6	0.016128015
225	0xbcaf15ee	-0.021372762
226	0x3bae36e2	0.005316601
227	0x3cefea25	0.029286454
228	0x3c52ba18	0.012861751
229	0x3c3df45c	0.011593904
230	0x3bd3d2ca	0.006464337
231	0x3c526e42	0.01284367
232	0x3b0b802d	0.0021286116
233	0xbd0361a4	-0.03207554
234	0xbbb46760	-0.0055054873
235	0xbcfd1946	-0.03089584
236	0x3caec7a4	0.02133543
237	0x3ca126f9	0.019671904
238	0xbc0698ef	-0.008215173
239	0x3b9881de	0.0046541533
240	0x3cbebef4	0.023284413
241	0x3aebdf6a	0.001799566
242	0xbc77ecf7	-0.01513218
243	0xbc94f30f	-0.018182306
244	0x3c0c3d20	0.008559495
245	0xbc331786	-0.010930901
246	0x3d331c68	0.043728262
247	0xbac54c2a	-0.0015052606
248	0xbaf997ab	-0.0019042393
249	0x3c9a9f94	0.01887492
250	0x3c9f841b	0.019472172
251	0xbd1e4c51	-0.038647
252	0xbbb9e98e	-0.005673594
253	0xbc9c6a32	-0.019093607
254	0xbc2355e0	-0.009969205
255	0x3c34cea1	0.011035592

action_model._continuous_distribution.mu.bias f4 [2]
0	0x3db50980	0.088397026
1	0xbdc8f9ce	-0.098132715

action_model._discrete_distribution.branches.0.weight f4 [2, 128]
0	0xbea0b20a	-0.31385833
1	0x3c36a167	0.01114688
2	0xbcbdbb6a	-0.023160655
3	0x3c9b0f3a	0.018928159
4	0xbe586d53	-0.21135454
5	0xbe179baa	-0.14805475
6	0x3da7fcd4	0.0820252
7	0x3daaa73a	0.08332677
8	0xbcc1906c	-0.023628436
9	0x3d0d24fe	0.034459107
10	0xbcd32ceb	-0.025778254
11	0xbcb1722c	-0.021660887
12	0xbcba8b4b	-0.022771498
13	0x3be62cdf	0.007024392
14	0xbc81ac46	-0.015829217
15	0xbe14b76f	-0.145231
16	0xbbb2f3c1	-0.0054611866
17	0x3c340650	0.010987833
18	0x3c3ba5ea	0.011453131
19	0xbc02a605	-0.007974152
20	0x3d3cc039	0.046081755
21	0x3da72eec	0.081632465
22	0x3d1aa077	0.037750687
23	0xbde00b6b	-0.10939678
24	0xbd588f28	-0.0528709
25	0x3ccad014	0.024757423
26	0x3cdcd447	0.02695669
27	0xb8b9e5df	-8.864304e-05
28	0xbcbb1e31	-0.022841545
29	0xbb46a244	-0.003030912
30	0x3cd1f301	0.025628569
31	0x3c2f9169	0.010715821
32	0xbe9a4d58	-0.30137134
33	0x3bab6de9	0.005231608
34	0xbbfafd0f	-0.0076595615
35	0xbc4db709	-0.012555846
36	0xbd33c126	-0.043885373
37	0x3ca841e0	0.020539224
38	0x3bb0c95b	0.005395097
39	0xbc8852ed	-0.016641105
40	0xbd308113	-0.043091845
41	0x3cc23b30	0.023709863
42	0xbe54cf00	-0.20782089
43	0xb9b138ce	-0.00033802394
44	0xbd506ff3	-0.050888013
45	0xbc5a922f	-0.013340517
46	0x3ced0758	0.028934166
47	0xbd478077	-0.048706498
48	0xbc744def	-0.014911159
49	0x3b934f1f	0.004495516
50	0x3c82baa7	0.015958143
51	0x3d2db637	0.0424101
52	0x3cf4111d	0.029793316
53	0xbc65d2f4	-0.014027346
54	0x3ca26f97	0.0198286
55	0xbcb24677	-0.021762116
56	0xbc9f7f4d	-0.019469881
57	0x3b81767d	0.0039508925
58	0xbc923f85	-0.017852554
59	0xbb90f003	-0.004423143
60	0xbd3699a1	-0.044580106
61	0xbe2629d2	-0.1622689
62	0xbc15c95a	-0.009142244
63	0x3b8ed452	0.0043588066
64	0xbc41b132	-0.011822032
65	0x3d3ca522	0.04605592
66	0x3c247f42	0.010040106
67	0x3ca89570	0.02057907
68	0x3d1b04f6	0.037846528
69	0xbaea8673	-0.0017892852
70	0xbceefa58	-0.029172108
71	0xbd90d984	-0.07072738
72	0xbcbb66a0	-0.022876084
73	0xbdd5c89a	-0.10438652
74	0xbcc0534f	-0.023477225
75	0xbae75c86	-0.0017651476
76	0x3d6ba592	0.057530947
77	0x3d098be8	0.03358069
78	0x3c8c941d	0.01716047
79	0x3d2724af	0.04080647
80	0xbe717d1f	-0.23582886
81	0xbb632bcf	-0.0034663563
82	0x3d269385	0.04066803
83	0x3db566f9	0.08857531
84	0xbdfcfcc6	-0.123529
85	0xbc118388	-0.008881457
86	0x3c2caa3d	0.010538635
87	0xbc320fc6	-0.0108680185
88	0x3d6efeeb	0.058348577
89	0x3be33b85	0.0069345855
90	0x3c34e161	0.011040063
91	0x3cbb2a32	0.022847269
92	0xbb3db8cb	-0.0028949257
93	0xbca92c53	-0.020651018
94	0xbd4d40c4	-0.050110593
95	0x3c19d4ce	0.0093891155
96	0xbcba6d6a	-0.02275725
97	0x3d8fb713	0.070173405
98	0xbbaaf8d0	-0.005217649
99	0x3d1549c2	0.036447294
100	0xbe6ab6dc	-0.22921318
101	0xbc7dfaf1	-0.015501724
102	0x3bbb2152	0.005710759
103	0xbb99bfa2	-0.004692034
104	0x3b864942	0.0040980885
105	0x3d45762a	0.048208393
106	0x3ce90df0	0.028449029
107	0x3bc3849f	0.0059667374
108	0x3c7ec5bf	0.015550076
109	0x3c7f879b	0.015596296
110	0xbc34d673	-0.011037457
111	0xbcd79a22	-0.026318613
112	0xbc573e7a	-0.013137454
113	0xbc710ff4	-0.014713276
114	0x3d0f14c9	0.03493193
115	0x3d4674ec	0.04845135
116	0x3caa4902	0.020786766
117	0xbea2872f	-0.31743762
118	0xbcb45590	-0.022013456
119	0x3cbff730	0.023433298
120	0xbc88fd9e	-0.016722497
121	0xbd149133	-0.036271285
122	0xbe1ccd3f	-0.1531267
123	0xbd549c17	-0.05190667
124	0xbc8df80b	-0.01733019
125	0x3defc25a	0.117069915
126	0x3d5c5130	0.053788364
127	0x3d003b77	0.03130671
128	0x3eadcd61	0.33945754
129	0xbd105591	-0.035237852
130	0x3cbfd2b3	0.023415899
131	0xbcd1fcef	-0.025633303
132	0x3e63d44b	0.22248952
133	0x3e1f92c4	0.1558333
134	0xbd919ba4	-0.07109764
135	0xbda0ada9	-0.07845623
136	0x3c58e3a8	0.013237871
137	0xbcf93fac	-0.030425869
138	0x3cf176f0	0.02947566
139	0x3cb3e23d	0.021958465
140	0x3aade5e9	0.0013267371
141	0xbcb2dbb1	-0.021833273
142	0x3cfdfff8	0.031005844
143	0x3e1af3b4	0.15132028
144	0xbc20b988	-0.009809859
145	0xbba6e6c3	-0.005093427
146	0xbcd36492	-0.025804792
147	0x3c6b6c4c	0.014369082
148	0xbd23f268	-0.0400261
149	0xbdc04733	-0.0938858
150	0xbd2455fa	-0.040121056
151	0x3e04b1c7	0.12958442
152	0x3d40412f	0.046937164
153	0xbc92a55f	-0.01790112
154	0xbc92e7e5	-0.017932842
155	0xbbf3a466	-0.0074353693
156	0x3ce4e7b5	0.027942518
157	0xbaea7d5d	-0.0017890144
158	0xbcf7b691	-0.030238422
159	0xbd05a09c	-0.032623872
160	0x3ea14dd4	0.3150469
161	0xbc01d7d9	-0.007924997
162	0x3bcedf8a	0.006313269
163	0x3c9211a7	0.017830683
164	0x3d1469df	0.03623378
165	0xbcd0fbb7	-0.025510652
166	0xbcf300f5	-0.029663542
167	0x3d276320	0.040866017
168	0x3d53e7fa	0.051734902
169	0xbd0000b5	-0.031250674
170	0x3e461002	0.19342044
171	0x3c11cc3e	0.008898793
172	0x3d513417	0.051075067
173	0x3d1dd5eb	0.038534086
174	0xbc0d5294	-0.008625645
175	0x3d5ab3ac	0.053394005
176	0xbcea0f45	-0.028571734
177	0x3b393cb0	0.0028264932
178	0xbb6863dd	-0.0035459914
179	0xbd1c6a9a	-0.0381876
180	0xbd1775e3	-0.03697766
181	0x3cdb34f5	0.02675865
182	0xbc09d621	-0.008412869
183	0x3cf52049	0.029922621
184	0x3cb78e47	0.02240671
185	0xbbe8d62e	-0.0071056103
186	0x3af9f6ca	0.0019070741
187	0x3bcac9bc	0.0061885994
188	0x3d81a194	0.06329647
189	0x3e1efbb1	0.155257
190	0x3c8389b3	0.016056871
191	0xbc9328e0	-0.017963827
192	0x3cd61360	0.026132286
193	0xbd0547b2	-0.032539077
194	0xbca1b873	-0.019741273
195	0x3c816ad6	0.015798014
196	0xbcdb2241	-0.026749732
197	0xbba3992f	-0.004992626
198	0x3c7a6abf	0.015284239
199	0x3daafd22	0.083490625
200	0x3b972bd1	0.0046133776
201	0x3dc865b2	0.09785022
202	0x3cebab52	0.028768215
203	0xbbc55721	-0.0060223495
204	0xbd20d7f2	-0.03926844
205	0xbd169890	-0.03676659
206	0xbc41645b	-0.011803712
207	0xbd1da560	-0.038487792
208	0x3e6e9ec8	0.23302758
209	0xbc896a46	-0.016774308
210	0xbd5d3bfc	-0.054012284
211	0xbd936c64	-0.07198408
212	0x3e0d59df	0.13803814
213	0x3c550518	0.013001703
214	0xbcaac942	-0.02084792
215	0x3d061934	0.03273888
216	0xbd653d9a	-0.05596695
217	0x3bbd6c0a	0.0057807015
218	0xbd058f36	-0.03260728
219	0xbcfaeb68	-0.030629829
220	0x3c98e1ba	0.018662322
221	0x3cfe8a2f	0.03107175
222	0x3d63008e	0.05542045
223	0xbccae904	-0.024769314
224	0x3d156019	0.0364686
225	0xbd8c87cb	-0.06861838
226	0x3c8c1764	0.017100997
227	0xbc67a965	-0.014139508
228	0x3e7b6bb7	0.24552809
229	0xb9f3ff2e	-0.00046538695
230	0xbcc5318d	-0.02407148
231	0x3bb00741	0.0053719585
232	0x3bf005f5	0.007324929
233	0xbd8a9142	-0.06765987
234	0xbd56b535	-0.052418906
235	0xbb6f88f7	-0.0036550143
236	0xbbe49f1b	-0.0069769747
237	0xbc70dd29	-0.014701166
238	0xbd1b3e33	-0.037901115
239	0x3cc44ab8	0.02396141
240	0x3d1daa2b	0.038492363
241	0x3cd84bad	0.026403273
242	0xbd1e57d6	-0.038657986
243	0xbd3fffe1	-0.046874885
244	0x3b603f4b	0.0034217413
245	0x3ea648dc	0.32477462
246	0x3d0eca68	0.034861
247	0xbcdd617c	-0.027024023
248	0xb988b164	-0.00026072108
249	0x3d3f6a27	0.046732094
250	0x3e23f4fb	0.16011421
251	0x3d0d24f9	0.034459088
252	0x3a87e408	0.0010367641
253	0xbdf78d55	-0.12087504
254	0xbd42ce5e	-0.04756009
255	0xbcb316de	-0.02186149

action_model._discrete_distribution.branches.0.bias f4 [2]
0	0xbd468cb7	-0.04847404
1	0x3d468ceb	0.048474234

onnx::Div_80 f4 [92]
0	0x3df7a807	0.120925955
1	0x3ec51454	0.38492072
2	0x3a3957b9	0.00070702616
3	0x3e4f9a9b	0.20273821
4	0x3dc0a805	0.09407047
5	0x3ed8467a	0.4224127
6	0x3a3957b9	0.00070702616
7	0x3e55c7d9	0.20877017
8	0x3dba86e6	0.09107761
9	0x3ec5d899	0.38641813
10	0x3a3957b9	0.00070702616
11	0x3e4b8bdf	0.19877575
12	0x3d396a9c	0.045267686
13	0x3e8a9d78	0.27073264
14	0x3a3957b9	0.00070702616
15	0x3e3d0fde	0.18463084
16	0x3d1eb404	0.038745895
17	0x3e87a79e	0.2649507
18	0x3a3957b9	0.00070702616
19	0x3e37c353	0.17945604
20	0x3c383b95	0.011244674
21	0x3e07f227	0.13275968
22	0x3a3957b9	0.00070702616
23	0x3e436b7f	0.19083975
24	0x3cdaa2d7	0.026688976
25	0x3e0ee204	0.13953406
26	0x3a3957b9	0.00070702616
27	0x3e353e55	0.17699559
28	0x3a3957b9	0.00070702616
29	0x3daa9961	0.08330036
30	0x3a3957b9	0.00070702616
31	0x3e538f55	0.20660146
32	0x3a3957b9	0.00070702616
33	0x3dd88270	0.10571754
34	0x3a3957b9	0.00070702616
35	0x3e3e9b3d	0.18613906
36	0x3a3957b9	0.00070702616
37	0x3d806cf2	0.0627078
38	0x3a3957b9	0.00070702616
39	0x3e63a48b	0.22230737
40	0x3a3957b9	0.00070702616
41	0x3db197b3	0.086715125
42	0x3a3957b9	0.00070702616
43	0x3e47e479	0.19520749
44	0x3a3957b9	0.00070702616
45	0x3d2d5b0b	0.042323153
46	0x3a3957b9	0.00070702616
47	0x3e70ebb9	0.23527421
48	0x3a3957b9	0.00070702616
49	0x3d9e2a77	0.07722943
50	0x3a3957b9	0.00070702616
51	0x3e4b55b7	0.19856916
52	0x3a3957b9	0.00070702616
53	0x3bc49566	0.005999255
54	0x3a3957b9	0.00070702616
55	0x3e7612cd	0.2403061
56	0x3a3957b9	0.00070702616
57	0x3d71f797	0.05907401
58	0x3cdcfebb	0.026976934
59	0x3e572e08	0.21013653
60	0x3a3957b9	0.00070702616
61	0x3d508cb7	0.050915446
62	0x3d4f5ddb	0.050626617
63	0x3e7de796	0.24795374
64	0x3a3957b9	0.00070702616
65	0x3df3f754	0.119124085
66	0x3ddbfdb7	0.10741752
67	0x3e6dbc38	0.23216331
68	0x3a3957b9	0.00070702616
69	0x3e26e0cc	0.1629669
70	0x3e26cfb3	0.16290168
71	0x3e849b0a	0.25899535
72	0x3a3957b9	0.00070702616
73	0x3e3507f5	0.17678817
74	0x3e2d8c35	0.16948016
75	0x3e83b7d0	0.25726175
76	0x3a3957b9	0.00070702616
77	0x3e721ab2	0.23642996
78	0x3e721042	0.23639014
79	0x3e8bab99	0.27279356
80	0x3a3957b9	0.00070702616
81	0x3e673e91	0.22582461
82	0x3e61abf0	0.22038245
83	0x3e914b59	0.28377798
84	0x3a3957b9	0.00070702616
85	0x3ea519d8	0.3224628
86	0x3ea51638	0.32243514
87	0x3e93b5d8	0.28849673
88	0x3a3957b9	0.00070702616
89	0x3eafa6c4	0.3430692
90	0x3eae2386	0.34011477
91	0x3e9d0e92	0.3067518

onnx::Div_83 f4 [12]
0	0x408745af	4.2272563
1	0x3b0254e8	0.0019887034
2	0x4054ac44	3.3230143
3	0x48016ebe	132538.97
4	0x46a1a3b4	20689.852
5	0x47e80b6d	118806.85
6	0x3b5506a3	0.0032505176
7	0x3a3e63ee	0.00072628155
8	0x3bb0747f	0.005384981
9	0x453dc025	3036.009
10	0x43f9300a	498.3753
11	0x451eba9a	2539.6626
