Assets/Scripts/Test3.onnx (onnx, 131520 bytes, 13 tensors)

network_body.observation_encoder.processors.0.normalizer.running_mean f4 [92]
00000000: 1b7b 083d 0062 3f3f 0000 0000 7e30 1d3f
00000010: 17e2 c73c 73cc 383f 0000 0000 a5a1 1a3f
00000020: cad3 a53c 2dba 413f 0000 0000 d1de 1c3f
00000030: 28e4 343c e143 5c3f 0000 0000 8ccd 1e3f
00000040: 5352 fb3b b087 613f 0000 0000 9db7 203f
00000050: 2b88 a73a c7fc 783f 0000 0000 49af 203f
00000060: 3eaa f53a b8f9 743f 0000 0000 b4d5 213f
00000070: 0000 0000 904b 7d3f 0000 0000 1241 213f
00000080: 0000 0000 e016 7c3f 0000 0000 8516 233f
00000090: 0000 0000 8b81 7e3f 0000 0000 9d1c 233f
000000a0: 0000 0000 6106 7e3f 0000 0000 14b1 243f
000000b0: 0000 0000 6bea 7e3f 0000 0000 8247 263f
000000c0: 0000 0000 7f05 7f3f 0000 0000 4154 203f
000000d0: 0000 0000 61fb 7f3f 0000 0000 f22a 273f
000000e0: 0000 0000 f5a1 7f3f 0000 0000 08ef 193f
000000f0: 0000 0000 ff1f 7f3f 7d20 583b b3ae 253f
00000100: 0000 0000 4eab 7c3f fae5 3d3c dfcc 143f
00000110: 0000 0000 1928 793f f51a db3c edf0 243f
00000120: 0000 0000 da0b 7c3f 6e78 663c fa0d 113f
00000130: 0000 0000 aa0d 733f 320a 4f3d 4ee4 243f
00000140: 0000 0000 cb08 7b3f e628 943c 4223 0f3f
00000150: 0000 0000 5589 663f caaa cb3d 3fab 243f
00000160: 0000 0000 fe4d 6f3f fed8 823d 45f7 0e3f
0.033320528 0.7475891 0.0 0.6140212 0.0243998 0.72186965 0.0 0.604029
0.02024259 0.75674707 0.0 0.6127749 0.011040725 0.86041075 0.0 0.6203239
0.007669726 0.8809767 0.0 0.6278017 0.001278167 0.9726071 0.0 0.62767464
0.0018742753 0.9569354 0.0 0.6321671 0.0 0.98943424 0.0 0.62989914
0.0 0.98472404 0.0 0.6370624 0.0 0.99416417 0.0 0.63715535
0.0 0.99228483 0.0 0.643327 0.0 0.99576443 0.0 0.6495286
0.0 0.9961776 0.0 0.6262856 0.0 0.9999295 0.0 0.65299904
0.0 0.998565 0.0 0.6013036 0.0 0.996582 0.003297835 0.64719695
0.0 0.9869889 0.011590475 0.5812511 0.0 0.9732681 0.026746253 0.64430124
0.0 0.98455584 0.014066799 0.5666195 0.0 0.94942725 0.050546832 0.64410865
0.0 0.9806029 0.018085908 0.55913174 0.0 0.900533 0.09944685 0.643238
0.0 0.9347838 0.06389044 0.55846053

network_body.observation_encoder.processors.1.normalizer.running_mean f4 [12]
00000000: e5d0 55be 9c3e 2840 71dd c240 001e f4c6
00000010: 2259 b045 d1a3 2447 1c95 8fc0 54a3 703e
00000020: 1699 f1c0 be7c 51c4 5ed7 0443 a5d9 8c44
-0.20880468 2.6288214 6.0895314 -31247.0 5643.1416 42147.816 -4.486952 0.23499805
-7.5499372 -837.9491 132.84128 1126.8014

network_body._body_endoder.seq_layers.0.weight f4 [128, 104]
00000000: c884 8f3d 1023 a3bc 8db0 3bbe 6870 7fbc
00000010: b20d bfbc 17bd a1bd bb7d 6e3d e173 4fbd
00000020: 5cdc c1bd aa3a e6bd 8ad7 25be e7c6 493c
00000030: 753a ecbd de31 5fbd 1ef8 9ebb 4dd4 86bd
00000040: 2d72 853d 30f2 d83a 9ad9 413d 717d 8abd
00000050: e4ca 19bd 0537 90bd 33cc c63c 262b 3d3c
00000060: b929 043d 3b0a 45bd 6be5 13be e6ce 26bd
00000070: 6cb2 3fbe 27b6 a0bc 92ff d73d 62da 403d
00000080: 58dc e1bb da21 05be 4080 1d3c 9a9e 6e3e
00000090: af8a babd a38b f13d 7fbb f1bd 3950 f33c
000000a0: 87ff 72bd 2a91 f63d 08c0 97bd 8be5 a23d
000000b0: edc5 febc 89bd ad3d 47fd 2cbc d1d6 c23d
000000c0: d15a 26be 31d0 2bbe 7c1f 06bc 87c0 0d3d
000000d0: bb4e 01bd ae22 88bd 97c9 463e 148e 033e
000000e0: 61a6 cc3c 5924 77bd b424 eabd b007 9bbc
000000f0: 2740 ac3d 59e0 693b 7e9e 953d 11fc 943d
00000100: 673a 89bc 6065 5ebd f0a9 483e 8c41 723d
00000110: d870 003e 4cf5 f3bc 3b65 423d 6e94 a7bc
00000120: b8f8 623d a649 15be 5489 b93c ab09 81bc
00000130: 4367 ddbd 354c 15bd 7d06 bbbd f5c0 673b
00000140: b2c4 4cbd 85ed edbd 0251 82bc 4741 6bbe
00000150: 0ab3 853c 1871 033d 6c95 303e 3865 843c
00000160: 3f85 0e3e a033 92bd e70f a6bc c211 933c
00000170: 3a7a c5bd 01b3 35be c8cc 163e 4f30 e6bc
00000180: 99b3 88bc 1a61 2ebd 3328 de3d 012e 04be
00000190: 3b01 5f3e fb2a 9dbc a34c 83bd 5db5 d73d
000001a0: 8989 1f3d 1e9f 363b a379 15bd 2f97 983b
000001b0: 4588 84bd a96e 00be cac2 9dbc 5bfa 393d
000001c0: b217 723e e752 243d 0765 113e 6c3b 00be
000001d0: dc22 15be c34a 04be b500 84bd d919 07be
000001e0: 4eae 1ebc e8ea ab3c 70bf 803d a593 29bd
000001f0: f844 8fbd 0f07 80be 071f a7bd f698 48be
00000200: 4069 2d3d d0bf bc3e 26f4 083e 9772 5bbe
00000210: 3fc2 bb3d 3bc0 e4bd dbb5 75bd 136e 56be
00000220: f002 673d c669 2b3d 6075 363d fe80 283d
00000230: c61d 1c3e dfc6 c63d 3444 c5bd 1eff e0bd
00000240: 5d94 3cbe 7fa8 9a3e b767 94bb 36c5 303d
00000250: f8d4 63be b7f7 d93d db2c ee3d a1ad cf3c
00000260: 575d ffbc cc4a c53c 02b0 bfbb 8ae5 093e
00000270: 7bd2 51bd 986c 9d3d 2997 bb3c 77d4 193e
00000280: 8184 06bd d375 ec3d df1f 9fbd 6ca5 1c3e
00000290: 001a b2bc 5dc1 263e f4af 263d ea7f 7e3e
000002a0: fc5c 743b 5f11 3e3e 005b 12be 1771 673e
000002b0: 2c1c 5dbe 34ef 263e e79b 49be 7c3d ac3d
000002c0: 1fb0 943d e9fd 5e3e 4925 40bd 0ee6 803d
000002d0: 022a bbbc e336 203e 3969 16bd dc4e 393d
000002e0: cfe5 cdbd e98f 2f3e 2958 30be 6741 f83b
000002f0: a1bb 48bc bcf3 263c bdca 50bd ea4c 613d
00000300: 896e 8cbd 9e34 773e 8280 55be 6441 313a
00000310: 270c 12be 8878 3e3d 5508 2abe 18d3 ce3c
00000320: e360 993d 5ec0 983d 4f8f 1e3d 6994 853d
00000330: 1246 3fbe bee7 bfbd 31dd 9b3d d976 97bd
00000340: c980 d03d 8c95 763c efc4 df3d 9664 f0bd
00000350: bf4f 823d c6d3 12be 6a2d 863c 960b 02be
00000360: b28a 8abd 66b9 353d d945 bdbd 0872 48bb
00000370: 1daf b03d e1ec 0dbd d3d8 f3bd 9c85 42be
00000380: 5958 08be 9ffd 523e e193 123d 4424 0fbe
00000390: 5aa7 1c3e f079 89bd ad41 4ebe 6eef 19be
000003a0: 1c0d ef39 abcb 903d 80fe 823d dcef 1cbe
000003b0: 7362 bebc 87c2 0b3d 3c1d a0bd 56f3 d3bc
000003c0: 9eb0 cdbd 4135 873d 7a8d c03c 1163 9a3c
000003d0: bb16 613d aa3d bebd 247c d23d a885 153d
000003e0: 6a3c 8f3c 3917 ebbd 1df7 d5bd ce2f 1abd
000003f0: a55d bb3d 4d9b 3abe 7b1e f3bd 9e7e f9bd
0.07007748 -0.01991418 -0.18329068 -0.015590765 -0.02332196 -0.07897394 0.058225375 -0.05064762
-0.09465858 -0.11241658 -0.16195503 0.012315488 -0.11534587 -0.054490916 -0.004851355 -0.06583462
0.06515918 0.001655167 0.04732666 -0.06762207 -0.037547007 -0.07041744 0.024267292 0.011545932
0.032266352 -0.04810546 -0.14442985 -0.040724657 -0.18720406 -0.019618107 0.10546793 0.047083266
-0.006892722 -0.13001195 0.009613097 0.23302689 -0.09108483 0.11794212 -0.1180334 0.02970134
-0.05932572 0.120394066 -0.07409674 0.07953938 -0.031100238 0.084834166 -0.010558433 0.09513629
-0.16245581 -0.16778637 -0.008186217 0.034607437 -0.031569224 -0.066472396 0.19412838 0.12847167
0.02498168 -0.0603374 -0.11432782 -0.018924564 0.084106736 0.00356867 0.073056206 0.0727464
-0.016751481 -0.054295897 0.19596076 0.05914454 0.12543046 -0.029780053 0.047459822 -0.020456519
0.055412978 -0.14578876 0.022648491 -0.01575168 -0.10810711 -0.03644963 -0.09132097 0.0035362814
-0.04999227 -0.11617569 -0.015907768 -0.2297412 0.016320724 0.032090276 0.172445 0.016161546
0.13918017 -0.07138753 -0.020271255 0.017952804 -0.096424535 -0.17744066 0.14726555 -0.028099207
-0.016687201 -0.042573072 0.10847511 -0.12908174 0.21777813 -0.019185534 -0.06411102 0.10532639
0.038949523 0.0027865837 -0.036492955 0.0046566944 -0.06471304 -0.12542213 -0.019257922 0.045404773
0.23641852 0.040118124 0.14198695 -0.12522668 -0.14564079 -0.12919144 -0.06445447 -0.13193454
-0.009685112 0.020986035 0.06286514 -0.04140057 -0.069955766 -0.25005385 -0.08160215 -0.195896
0.042336702 0.3686509 0.13374385 -0.21430431 0.09167909 -0.111694776 -0.059987884 -0.20940427
0.056399286 0.04184892 0.04454553 0.04113864 0.15245733 0.097059004 -0.09632149 -0.1098616
-0.18415971 0.30206677 -0.0045289653 0.043156825 -0.2224921 0.10642951 0.11629649 0.025351347
-0.031172438 0.024083517 -0.005849839 0.13466468 -0.05122612 0.07686728 0.022899227 0.15022455
-0.03284121 0.11545911 -0.07769751 0.15297478 -0.021740913 0.162847 0.040695146 0.24853483
0.0037286868 0.18561314 -0.14292526 0.22601734 -0.21592778 0.16302186 -0.19688378 0.08410165
0.07260155 0.21776547 -0.046910558 0.062938794 -0.02284718 0.15645938 -0.036721442 0.04524122
-0.10053598 0.17144741 -0.1722113 0.007576156 -0.0122517655 0.010189947 -0.050974596 0.05500499
-0.068570204 0.24141166 -0.20849803 0.0006761758 -0.14262448 0.046501666 -0.16604741 0.025247142
0.07489183 0.07458566 0.03871089 0.065224476 -0.18679073 -0.09370373 0.07610548 -0.07395715
0.10180814 0.015050303 0.10926234 -0.11737935 0.063628666 -0.14338598 0.016379077 -0.12699732
-0.06764735 0.044366263 -0.09241838 -0.0030585546 0.0862715 -0.034649733 -0.1190659 -0.1899628
-0.13314952 0.20604561 0.03578556 -0.13978678 0.15298215 -0.06712711 -0.20142241 -0.15032741
0.000455954 0.070700966 0.06396198 -0.15325874 -0.023240304 0.034121063 -0.07818076 -0.025872868
-0.10043453 0.06601954 0.023504961 0.018846067 0.054953318 -0.09289105 0.10277584 0.036504418
0.017484862 -0.11479039 -0.10447524 -0.037643246 0.09148721 -0.18223305 -0.11871048 -0.121823534

network_body._body_endoder.seq_layers.0.bias f4 [128]
00000000: b4e5 21be baa0 d03d ac2b 9fbd 6ed3 62bd
00000010: 0866 97bc 2cd8 4ebe 7431 a43c fee3 96bc
00000020: fbdb 94bc 62b8 853c 7cf4 083d d9e1 1abd
00000030: 31cf 8e3c ecfe 23bd b0b3 e8bd ba0c abbd
00000040: 2955 96bc 515c acbd 9f6f c6bd 20a0 68bb
00000050: ed96 6bbd 2eaa 9e3a ac5f 633c 1ceb f03c
00000060: 32b4 86bd 4895 54be bb22 2c3d fd8a 533c
00000070: 7578 963c 2d19 d93d e606 8cbc b57b 1ebe
00000080: 13fb 083d 9947 f7bc 85ad 70bd 52ad fbbd
00000090: ee9b 0bbe 3ba4 b4bd 777d fe3d d962 04be
000000a0: f98a d4bd 2eaa e0bd c140 3bbe 4f3e ddbd
000000b0: f7d4 cebd 1585 26be c4a5 34be 8bd3 a93d
000000c0: a0fd aabc 04ab 11bd c593 5dbc 765f 98bc
000000d0: 66cb a9bd 249d e5bd bc1a 6ebd 8b6f 98bc
000000e0: 49ea 0bbe ca93 ab3c 76b5 973d 3a5f 0ebd
000000f0: fbe5 c7bc 6a67 783c cee6 97bd 0193 09be
00000100: 9e3b 91bd 55ac 80bc f28d 10be 58d1 d4bd
00000110: 156e 233d 5f7a 99bd aa37 933c 59bd 7a3d
00000120: 4433 233c a585 b53d 45da 4cbd a036 083c
00000130: 2416 44be ff3b aa3a 6b89 3abd 8055 f13b
00000140: 28c6 b9bb e6d8 8f3d 88ae 51bd abe3 cc3c
00000150: 4145 84bd 3823 923d 4347 9fbd 9d1c 78bd
00000160: 3b7c 01bd 6f87 06bd 39db 9bbc caf9 37be
00000170: c8d5 8ebd 3eda 91bd 91ee 32be 3019 8f3d
00000180: bc1a 5cbd 44b0 babd 23d0 ffbd b283 a53b
00000190: 5ae3 db3c 291e 06be 656f 8fbd ff6f fc3d
000001a0: 8087 e6bd 160a 26bd 5d0e f8bc 0830 1b3c
000001b0: 3d56 7ebd 0348 24bc f01e 42bd 6c69 aa3d
000001c0: b606 8a3d 86f7 ba3d de64 ff3c aa94 01be
000001d0: 7f4e 85bc 93e3 8bbd 0aca 4a3d 5c4d b4bc
000001e0: 4ec8 9abd f002 613c 6f8a 16bd 99bf bdbd
000001f0: 10fe 62bd 800c 32bd adbd 75bd bf45 6ebc
-0.15810281 0.10186906 -0.077720016 -0.055377416 -0.01848127 -0.2019965 0.020043112 -0.018419262
-0.018171301 0.016323272 0.033436283 -0.03781304 0.017432781 -0.040038034 -0.11362398 -0.08352037
-0.018351154 -0.084160455 -0.09689259 -0.0035495833 -0.05751698 0.0012105161 0.01387779 0.029408984
-0.06577338 -0.20760071 0.04202531 0.012911555 0.018367985 0.10600505 -0.017093133 -0.15476878
0.033442568 -0.030185508 -0.05875923 -0.122889176 -0.13633701 -0.08820387 0.12426274 -0.12928332
-0.103780694 -0.10969959 -0.1828642 -0.108029 -0.100992136 -0.16261704 -0.1764136 0.08292302
-0.020872891 -0.035563484 -0.0135240005 -0.018600207 -0.08290748 -0.11211613 -0.058130965 -0.018607875
-0.13663591 0.020944495 0.07407658 -0.034758784 -0.024401655 0.015161375 -0.074170694 -0.13434984
-0.07091449 -0.015707174 -0.14116648 -0.10391492 0.039899904 -0.074940436 0.017970879 0.061215732
0.009960953 0.08863381 -0.050012846 0.008313805 -0.19149071 0.0012987851 -0.04554121 0.0073649287
-0.005669374 0.07023792 -0.051191837 0.025010904 -0.06458522 0.07135624 -0.07777264 -0.060574163
-0.031612616 -0.032844003 -0.019025432 -0.1796638 -0.06974369 -0.071217045 -0.17473818 0.06987226
-0.053736433 -0.09115651 -0.12490871 0.0050510997 0.026841808 -0.13097443 -0.07003669 0.12326049
-0.11256313 -0.040536962 -0.030280286 0.009471901 -0.062093962 -0.010026935 -0.047392786 0.08320889
0.06739561 0.091292426 0.031176027 -0.12654367 -0.016272781 -0.06830516 0.049509086 -0.022009544
-0.07557736 0.0137336105 -0.036753114 -0.0926506 -0.055418074 -0.043468952 -0.059995342 -0.014542996

network_body._body_endoder.seq_layers.2.weight f4 [128, 128]
00000000: 1bb1 c13d 165d 9ebd 3fbe 30bb 1c87 a83d
00000010: 24fa 193d 9b26 063e 6fdb 5fbe ab40 453d
00000020: 0c2f 67be 1ec5 c9bd 2a3a fcbd aabf 40be
00000030: 4d87 43be 5aed 36bd 6955 8c3d 35ea 4c3d
00000040: 65b9 4a3c bf33 a03d 49ee 02bc bed9 473e
00000050: feaf e938 e3bb 163e 1815 d2bc f87f a2bd
00000060: 3d6a 9d3d 7ebe 4e3e 8f96 79be 4693 c43d
00000070: 0df2 abbe 9379 ddbd 4574 26be 8627 c0bc
00000080: 5f3a a53d b27f 50bb 9412 d5bd 13a0 fabd
00000090: 02d4 593e 4898 983b 7775 d7bd 9487 1abe
000000a0: b971 173e b6a0 3b3e 33c1 0c3d fcd5 40bd
000000b0: 8269 39bd 3169 c8bd 82ea 1cbe 0d40 89be
000000c0: 670b ca3c 8527 e93c 0bfb b73c 34ec d73c
000000d0: 9349 2fbe d450 6abd 4307 413d 9578 d8bd
000000e0: e250 393e 4fdd 803d 1157 37bc 5e85 113d
000000f0: 5332 16be f7f7 b9bd 6e81 393d dc9a 8bbc
00000100: 176d 4ebe f734 15be c789 f8bd 1aa1 483c
00000110: ba79 c43d b01f 48bd a779 903d c83a 13be
00000120: 0a78 b8bd d027 eb3c 29f8 823b 9e9b ddbd
00000130: 45ec 143c 0486 59bd 4c18 94bd 9459 d43c
00000140: 978e c63d 2d1d febd d283 eabd f861 cfbd
00000150: 9156 f13d 33e6 81bd 03ff 09bd defe 03be
00000160: c6d8 06be a55a 00be 1cc8 ecbd 7115 7bbd
00000170: 243c c23c 8f3b b5bb e791 6e3d 8dfb 7e3d
00000180: 2de4 d4bd e818 b9bd bcbf 82bd d566 b63c
00000190: c465 1abd 4128 0b3e b9eb 82bd 6289 303c
000001a0: f259 2fbd bdb7 01bd c4ce c43c d650 ccbe
000001b0: 9a42 37be dfe7 6fbd d97a 9abe 029d 30bd
000001c0: e5d5 473d 4d4c 32be db1e cc3d 3afa 97bc
000001d0: 4452 e6bd 0c2f 69be f7da dfbd 783b b5bd
000001e0: 432b d33d 3b50 3abe 40c5 783c 2e25 45bb
000001f0: 87c5 6c3e 5792 21bd a251 89bd 6f75 85bd
00000200: 5922 4a3e ba13 51bc 154c 05be 5d4b 70bd
00000210: 83d2 05be c74c 143e 105d 723c 5aa4 6bbd
00000220: 1b88 11be 1409 63bd 4c23 233d 1659 b93d
00000230: 1ff4 3a3d 83ed 803c f508 14be 4d8f fb3c
00000240: 783c ddbd e338 dbbd e30e e23c 17db 37bd
00000250: 1fbe a53d 7588 34be c3f7 3dbe 4c4b 27bd
00000260: e412 0e3e c817 c83d 8ee5 283e 7172 1cbe
00000270: f312 15bd 8df8 d5bd dbfa ebbc 1e2a 233d
00000280: 6ea7 2bbe 0b8a 97bd 831f 57bc 963e 85bd
00000290: 1770 37bd 1fe6 9bbc 622a 62be 3d2f d53d
000002a0: 76a4 27bc 6a69 b9bd bb04 0ebc 100a 97bd
000002b0: 7920 1dbd 0e12 443d a9d4 9c3d f07c 83be
000002c0: 1d43 39be 962a ae3d 7824 7ebc 7437 eabb
000002d0: 3d0a 63be fce4 2fbe ec72 493e 2f18 19bd
000002e0: e689 a6bc da25 8abd c63b c5bc dd29 653d
000002f0: 228d 31be 97e7 39bc 6c1a 79bd 21d3 90be
00000300: 7c69 83be 8bbe cd3a 519b b6bd 86cb 97bd
00000310: 236c 9f3c 764e 6c3d 0f2d 92be 1ea5 b1bd
00000320: 7e05 6c3d 5289 3bbd e3cf a63b b3ec 563b
00000330: f744 a53c 254b 5cbe 0031 87bd 3bf7 bb3d
00000340: ec31 b4bd 1cae 90bd 09c2 87bd 5fab 65be
00000350: 2dc2 36be d1ba ccbd 4e67 673e 1da1 d33c
00000360: 4ef3 a23b 9501 37be 480b 92bd 68d6 313e
00000370: c4b6 e5bd c18f e2bd 878c 073d 2e21 e8bd
00000380: c077 c03c 0a23 45be 5330 1fbd 862b 13be
00000390: 5517 32be ec2a 7d3d 7e96 bfbd 710b 19be
000003a0: 5bbf 7a3c 0f01 c3bc ecb5 b6bd 1ad9 dbbd
000003b0: 15e8 c9bd 4e1c 98bd caab 2abe 5d2b 65bd
000003c0: 50a6 57be 3809 653d f44f 0dbe ed4a b83c
000003d0: 9df9 19be 233c c7bd 044a f13c 72de abbc
000003e0: e1ec 3ebd f687 0bbe da29 483d b9f5 a1bd
000003f0: e83f cabd 4e6c f7bc fe5f 1e3e eb61 0abe
0.09457608 -0.077325985 -0.0026968864 0.08228895 0.03759207 0.13100664 -0.21861051 0.048157375
-0.2257654 -0.0985205 -0.123157814 -0.18823114 -0.19094582 -0.04465995 0.06852228 0.050028045
0.012373303 0.0782237 -0.007991382 0.19516656 0.00011143087 0.1472011 -0.025644824 -0.07934564
0.07686279 0.20189855 -0.2437384 0.09598403 -0.33583108 -0.10814204 -0.16255291 -0.023456346
0.08067774 -0.0031814394 -0.10403934 -0.12237563 0.21272281 0.004656825 -0.105204515 -0.15090781
0.14789476 0.18323025 0.034363937 -0.04707907 -0.045266636 -0.09785689 -0.15323833 -0.2680668
0.02466364 0.028461227 0.022458574 0.026357748 -0.1711791 -0.05720599 0.047126066 -0.10569874
0.1809726 0.06292211 -0.011190192 0.03552758 -0.14667635 -0.09080499 0.04528945 -0.017041616
-0.20158802 -0.14570986 -0.12135654 0.012245441 0.0959353 -0.048858345 0.07054453 -0.14377892
-0.09007271 0.028705508 0.003996868 -0.10820697 0.009089534 -0.053106323 -0.07231197 0.02592162
0.096951656 -0.124079086 -0.11450924 -0.10126108 0.11784089 -0.06342735 -0.033690464 -0.12890193
-0.1316863 -0.12534578 -0.11561605 -0.061299745 0.023710318 -0.0055307816 0.058244612 0.062251616
-0.103950836 -0.090379536 -0.06384227 0.022265831 -0.037694708 0.13589574 -0.06392617 0.010774942
-0.042810388 -0.031669367 0.024024375 -0.39905423 -0.178965 -0.05857074 -0.3017185 -0.043118484
0.04878797 -0.17411919 0.09966823 -0.018551935 -0.1124616 -0.22771853 -0.10930436 -0.088492334
0.10310986 -0.18194668 0.015183747 -0.0030081975 0.23122226 -0.0394462 -0.06705023 -0.06516539
0.19739665 -0.012761051 -0.13017304 -0.058665622 -0.13068585 0.14482413 0.014792696 -0.057529785
-0.14212076 -0.05542858 0.039828584 0.09050195 0.04564297 0.015738254 -0.14456542 0.03070798
-0.10802549 -0.1070421 0.02759499 -0.044886675 0.08092903 -0.17630179 -0.18551545 -0.040843293
0.13874394 0.09770161 0.16493818 -0.15278031 -0.036395025 -0.10447798 -0.02880614 0.039835088
-0.16763088 -0.073993765 -0.013130072 -0.06506078 -0.04478463 -0.019030629 -0.2208648 0.104094006
-0.010232082 -0.09053309 -0.00866812 -0.07374966 -0.038361046 0.04786878 0.07657749 -0.25681257
-0.18092008 0.085042164 -0.0155116245 -0.007147724 -0.22171874 -0.17177194 0.19672745 -0.03737658
-0.020329427 -0.06745501 -0.024076354 0.055948127 -0.17338994 -0.011346719 -0.060816213 -0.2828608
-0.25666416 0.0015697045 -0.08916343 -0.07411866 0.019460743 0.057692014 -0.28550002 -0.08674072
0.057622425 -0.045785256 0.0050907 0.0032794892 0.020174487 -0.2151304 -0.06601143 0.09178015
-0.08798584 -0.07064459 -0.06628806 -0.22428654 -0.1784751 -0.0999657 0.22598001 0.02583366
0.004972852 -0.17871697 -0.07131058 0.17366946 -0.112165004 -0.11062575 0.033093 -0.113344535
0.023494601 -0.19251648 -0.038864445 -0.14372072 -0.17391713 0.06180851 -0.09354876 -0.14945771
0.015304412 -0.023804216 -0.089214176 -0.10734768 -0.09858719 -0.07427274 -0.16667095 -0.055949558
-0.21059537 0.055916995 -0.13800031 0.022496665 -0.15036626 -0.09728267 0.029454239 -0.020980094
-0.046612624 -0.13626084 0.048868038 -0.07908196 -0.098754704 -0.03020301 0.15466306 -0.13513915

network_body._body_endoder.seq_layers.2.bias f4 [128]
00000000: 777a febd 8e8d 6cbe 3af8 9f3c d0b0 aebd
00000010: f2fb 20be 3cad b1bc 2bf5 4d3d c259 54be
00000020: bb89 c3bc 5d4d 2ebe c340 0cbe 94c3 bd3c
00000030: e9c5 6fbd 4920 43bd 2ab4 4ebd b884 6d3d
00000040: 6bc2 82bd 60ac 01bd 699c 5f3c 44ad 51be
00000050: 99ee a0bd cead f0bd 2168 343d 1ec0 34be
00000060: 2286 043c c6ca f3bd 2d41 5abe 6cba 51bb
00000070: 656c eebd daf8 e8bc ba11 09be 4e81 3fbe
00000080: bdcb 48be 97f9 debd 9bae 4fbd 957d 26be
00000090: 9bc8 ccbd daa8 0ebd ffad 6bbe 85ba a73c
000000a0: 42e9 4cbe d5de 02be de14 ddbb 5cf0 3bbd
000000b0: af08 913d 88a7 8abd 36dc 673d d2ff 23be
000000c0: 9f06 d9bd aaa7 8fbd 95d5 26be 8114 d2bd
000000d0: e039 82bd 5258 f7bd dda8 10bd b72d 10bd
000000e0: 9c22 c1bd e4e4 0bbe 6ad7 9dbd 8186 44bd
000000f0: 1c2f 18be 5357 cdbd 69ff 7bbd 35c0 1fbd
00000100: 7eea 1abd ad71 b8bd 4d80 5fbc 8f5b 1a3c
00000110: d0e5 cebd be7a 8fbd fdab 56be 0403 4abe
00000120: b765 6ebe e29d 9abd 227c a8bd f856 0abe
00000130: d407 1ebe fe76 0b3d 5fdf 75bd 9672 3b3c
00000140: 0d22 b7bc 5328 163c 78cd 37bc c916 b6bd
00000150: ed4c 63bd bb04 b0bd af47 9dbd d7ff b2bd
00000160: dab2 5cbe 49db 303d 9c26 c9bc 82ac 89bd
00000170: 2bdb 73bd e844 65bb 5a21 82be bc55 dabd
00000180: b8ab b0bc 011c 5cbe 8b0d 1bbe 94cb 24be
00000190: 0e9e 1abe af8e 18bd 2564 76bd 30de 8cbc
000001a0: 6d59 18be 7e96 9dbc ccdd 2cbe b966 0bbe
000001b0: 4580 49bd b949 a3bd 440a 04be 0c57 9a3d
000001c0: 7135 40be d853 07be 17b4 62bc 532a cd3c
000001d0: 4407 26bd ca69 9ebd 93b1 18be a1d4 f5bc
000001e0: 0b8d 19bd 1f87 f4bd 8875 ddbc 602b 85bc
000001f0: 139b 06bd d7c1 1bbe 0c83 04bd 59ca 27be
-0.12425702 -0.23100874 0.019527543 -0.08529818 -0.1572111 -0.02168905 0.05028264 -0.20737365
-0.023869386 -0.17021699 -0.1369658 0.023164548 -0.05853835 -0.04763821 -0.050464787 0.0579879
-0.063847385 -0.03165853 0.013648131 -0.20476252 -0.07858009 -0.117519006 0.044044618 -0.17651412
0.00808862 -0.1190391 -0.21313925 -0.0032001985 -0.11641768 -0.028438974 -0.13385668 -0.1870167
-0.1960897 -0.10887449 -0.050703626 -0.16258843 -0.099992 -0.034829 -0.23015593 0.020474682
-0.20010856 -0.12780316 -0.0067468723 -0.04588352 0.070817344 -0.06770235 0.056606494 -0.16015556
-0.10596966 -0.07014401 -0.16292413 -0.10257817 -0.06358695 -0.12077393 -0.03531729 -0.035199847
-0.09430429 -0.13661534 -0.077071026 -0.047979835 -0.14861721 -0.100264214 -0.061522875 -0.039001662
-0.037821285 -0.09006057 -0.013641429 0.009421243 -0.10102427 -0.07005833 -0.20964046 -0.19727713
-0.23280989 -0.07549645 -0.082268015 -0.13509738 -0.15432674 0.034049027 -0.060027476 0.011440894
-0.022355104 0.0091648875 -0.011218421 -0.08891065 -0.055493284 -0.08594652 -0.07679688 -0.08740204
-0.21552601 0.043177877 -0.024554543 -0.067223564 -0.059535187 -0.0034983698 -0.2541607 -0.10660884
-0.021566257 -0.21495058 -0.15141885 -0.16093284 -0.15099356 -0.03724545 -0.0601541 -0.017195791
-0.14877863 -0.0192368 -0.16881484 -0.13613404 -0.049194593 -0.07973046 -0.12894541 0.07536134
-0.18770386 -0.13215578 -0.013836882 0.025044596 -0.040534273 -0.077350214 -0.14911489 -0.030008616
-0.037488025 -0.11939835 -0.027033582 -0.016256034 -0.032862734 -0.15210663 -0.03235154 -0.16385783

action_model._continuous_distribution.log_sigma f4 [1, 2]
00000000: cb47 13bf c664 13bf
-0.5753142 -0.57575643

action_model._continuous_distribution.mu.weight f4 [2, 128]
00000000: ede3 7ebb a74b ebbb c004 16bb 8e0a e4ba
00000010: bc8b 053d 8d96 683b 2d54 ae3d 8287 19bc
00000020: 611a c23b e357 5ebd 54a5 38bc 763f 913d
00000030: ebc7 28ba 45e3 7b3b e748 5a3c 7fd7 71bb
00000040: 6c1c 1b3b 3f3c 923b 62dd 033d e3c8 23bb
00000050: d5d5 823c 4405 a7bc c89f 433c 2aeb ab3c
00000060: 9256 653a add5 303d 69b3 f33c 9c82 3539
00000070: 8562 29bb 35a1 703c 52db 323d e283 b3bc
00000080: 292f a8bc 629c 2bbc 6225 12bd 872e 6a3a
00000090: daa8 103c bf92 aab9 0fa6 aabc 8e2d 0a3c
000000a0: e62a e7bc 4866 ca3c ee3c c33a d3b5 97bb
000000b0: 55d3 bbbc 22c0 5dbb 165f 2dbd 23a5 07bd
000000c0: 798d f33b 49a6 48bb 4a17 86bc 3898 b33b
000000d0: 7ed3 11bc a6e6 e33a 6fb0 a53b 1799 6c3b
000000e0: cc1b 33bc 8bd8 0bbd 62dd 503b dbbd 2e3d
000000f0: 4d4d 5dbd 4a27 253b 8875 3c3c 1b2b 80ba
00000100: 6500 b83b ce24 0d3c ea8b e13a 5221 6ebc
00000110: b50f cd3c 2a9e 313b f379 533a d281 e83c
00000120: 7dc0 cc39 4ee1 dabb 559a ca3c fcaa 623c
00000130: 0d6f 87bd bed5 0e3c dcfb 973b 5e20 13bd
00000140: dabb 003c fb4c 103d bda3 08bc 30ad db3b
00000150: 75cc 17bc 248b 6e3d a138 78bb d8f7 703d
00000160: f3e1 b0bb 1a16 abbb 5879 333c e17a 7f3d
00000170: 304d 6839 744e 5c3d abf2 35bd 68b1 823b
00000180: 82ea 1cbb dfd9 fcbc 7cc2 dabc 41f8 863c
00000190: f1e3 15bc 9cbe 4bbb 2140 3b3b 04f6 f73d
000001a0: b04e 9e3b c03f 8cbb 7492 67bc 0996 6b3d
000001b0: ae98 57bb 1e5b b73b 99dc dcbc 27a1 04bd
000001c0: 8dda 1c3c 986f c03a 10f9 c23d bcbd 1c3c
000001d0: d5c5 963a d546 e7bb f475 2bbc 7f7c d83b
000001e0: 2fc8 9ebb c054 b6ba 1142 9dbb f2c8 ac3b
000001f0: a73d e33a 08b2 973c e8cf 5239 74b4 8bbc
00000200: 36b0 19bb bf2d 9c3c 8441 983b a4ce d837
00000210: 28a7 733d 8696 8f3b 4087 91bd b609 3d3d
00000220: 8e49 a03b 527b 0f3d c2ce 683c d17f 62bd
00000230: a165 56bb 6577 19bc 318a cc3b e846 8b3b
00000240: 6dd4 59bb 7062 cb3b ae61 58bd b362 813c
00000250: a5ae 0fbc 73c0 0dbc 0de5 36bd 0278 10bb
00000260: d1c0 b8bb 6bc2 653c 84c2 853d 8335 1d3a
00000270: 9387 de3b ac09 2b3a eeed 633d 8e40 cf3c
00000280: bbd8 393d 8f84 d8ba 2b86 b33c 902b 9dbb
00000290: b4f6 c53a faa6 873b 235f 563d a8ab 053c
000002a0: 5138 3e3d 36dc 7b3c a730 193a 007a 95ba
000002b0: f50d 69ba 52a6 143b 401a 84bd 049f 953c
000002c0: e50f e33c b026 21bb 0d70 d13b 6ea2 4d3c
000002d0: 31d9 a5bb 3466 083c 4eaa 803c a83a 113c
000002e0: 2f05 d13b cf83 993c 5a81 663b 5ea3 143c
000002f0: 598d 963d af73 1b3c d4af efbb 83ec 463b
00000300: 9fc9 29bb 6492 a73a 6026 89bb 216e 823b
00000310: 4e11 e6ba 4926 fc3a db48 543d bb40 0d3d
00000320: 117e 303d affa a7bb ac97 1d3c 9381 613c
00000330: 267b 363d e3a0 1db7 b4cf 4eba 9d47 f2bb
00000340: 14f4 3839 b2ca 00bd dce0 653b f3ab c2ba
00000350: 1824 3f3c 347b 843c bea3 473b 91d1 c23d
00000360: 4294 033d b13c b53b 57ed ecba f661 a8bc
00000370: d5e1 66bb 048f 99bc 173e 913d 325d abbb
00000380: e243 91bb a285 243d c40d 963c b55d 093d
00000390: aef9 c9bb ef81 8fbb 0cce a03b a064 afbb
000003a0: 03a6 ae3c 7d8d 1ebb cd66 2d3d a67b 5b3c
000003b0: ee00 9e3a 425f cf3b 3d7c 373c ff56 75bc
000003c0: d3d2 973d 5cbe 083a 1b7b 5bbc 8ded d1bc
000003d0: e5f0 bd3b fbc4 b4bb d43e ea3c 20a3 ad3b
000003e0: 83f2 65bb e754 e43b 9916 03bc 4155 9dba
000003f0: ac2a c63a d74c 19bc 79c7 9f3b dcb6 4e3c
-0.0038893179 -0.0071806493 -0.0022891015 -0.0017398165 0.032603964 0.0035490126 0.08512149 -0.0093706865
0.0059235548 -0.054283034 -0.011269886 0.07092182 -0.00064384815 0.0038435024 0.013323045 -0.0036902127
0.0023668064 0.0044627483 0.03219355 -0.0024991564 0.015971104 -0.020388253 0.01193995 0.020986158
0.0008748557 0.043172527 0.029748635 0.00017310161 -0.0025846076 0.014686872 0.04366619 -0.021913473
-0.0205303 -0.010474296 -0.035680182 0.0008933325 0.00882932 -0.0003253426 -0.020831136 0.008433713
-0.028218698 0.024706975 0.0014895478 -0.0046298294 -0.02292792 -0.0033836444 -0.04232701 -0.03311647
0.0074326363 -0.0030616692 -0.016368527 0.0054807924 -0.008900521 0.0017387464 0.005056433 0.003610199
-0.01093192 -0.03414206 0.0031870236 0.04266153 -0.054028798 0.002520042 0.011502631 -0.0009778471
0.0056152814 0.008614732 0.0017207835 -0.014534311 0.025031904 0.002710233 0.0008067183 0.028382216
0.00039053327 -0.0066796904 0.024731794 0.013834711 -0.06612978 0.008717952 0.0046381783 -0.03591954
0.007857287 0.035229664 -0.0083398195 0.006703995 -0.009265055 0.058238164 -0.003787555 0.058830112
-0.005398029 -0.0052211406 0.010954224 0.062373046 0.00022153999 0.053785756 -0.04442088 0.0039884336
-0.0023943488 -0.030865608 -0.026704066 0.016475799 -0.009148584 -0.0031088954 0.002857216 0.12107471
0.0048311576 -0.0042800605 -0.014134038 0.05751613 -0.00328974 0.005595579 -0.026960658 -0.03238025
0.009573591 0.0014681695 0.09520161 0.009566721 0.001150305 -0.0070580044 -0.010465134 0.006606638
-0.004845641 -0.0013910756 -0.0047991355 0.005272978 0.0017337099 0.01851751 0.00020104612 -0.01705382
-0.0023450977 0.019064782 0.004646482 2.5845431e-05 0.059485584 0.0043819575 -0.07105875 0.04615184
0.004891581 0.035029717 0.014209451 -0.055297676 -0.0032714384 -0.009366845 0.0062420596 0.004250396
-0.0033238188 0.006206803 -0.05282753 0.015794134 -0.008769666 -0.0086518405 -0.044652034 -0.0022044186
-0.00563822 0.014023404 0.065312415 0.00059970486 0.006791064 0.00065245735 0.05564683 0.025299337
0.045372706 -0.0016518998 0.021914562 -0.004796453 0.001510343 0.004139778 0.052336823 0.008158602
0.046440426 0.015372327 0.00058437366 -0.0011404157 -0.00088903244 0.0022682142 -0.06450319 0.018264301
0.02771754 -0.002458971 0.0063915313 0.012550933 -0.0050612916 0.008325148 0.015706208 0.008864082
0.0063787918 0.018739609 0.0035172314 0.009072153 0.07351179 0.00948803 -0.0073146615 0.0030353374
-0.002590753 0.0012784717 -0.004185483 0.0039804135 -0.0017552765 0.0019237484 0.051827293 0.03448556
0.043088976 -0.0051263194 0.009618681 0.013763803 0.044551037 -9.395389e-06 -0.00078892265 -0.007393791
0.00017638534 -0.031443305 0.0035076654 -0.001485227 0.01166632 0.01617203 0.0030462588 0.09512628
0.03212381 0.0055309166 -0.0018076104 -0.020554524 -0.0035229821 -0.018744953 0.07091921 -0.0052296156
-0.004433141 0.040166505 0.01831711 0.03353663 -0.0061637973 -0.004379503 0.004907375 -0.0053525716
0.021319395 -0.002419322 0.042334367 0.013396179 0.001205472 0.0063284943 0.011199054 -0.014974355
0.074132584 0.0005216354 -0.01339605 -0.025625968 0.005796539 -0.005516646 0.028594412 0.005298987
-0.0035087175 0.006968129 -0.008000993 -0.0012003557 0.0015118918 -0.009356699 0.004876074 0.012616839

action_model._continuous_distribution.mu.bias f4 [2]
00000000: e166 823d ea02 20be
0.06367279 -0.15626112

action_model._discrete_distribution.branches.0.weight f4 [2, 128]
00000000: 1da6 8c3d f85c 3d3d 14ae 9ebb 73f0 d4bc
00000010: 02a9 ab3c 8628 f9bc 6063 933d 5287 a13d
00000020: d729 a0be 688d 923d d05f 503d 27ed bd3c
00000030: 157e 89bc 1469 e73c 5c74 bbbc b10e 2dbd
00000040: 08da e3bc fb96 ca3a dbe8 793c 829c 273d
00000050: e98a 773b 5f7c 2f3d fbbb 23bd 5340 253d
00000060: 2559 25bc c8e1 3d3d 1775 d13d d474 1ebc
00000070: 19ac 813d 64e9 f23b 9a28 0e3d 1572 213d
00000080: 9bdc ad3c d86e 793d 10d1 49be fd10 00bb
00000090: e2e8 90bc 967e f8bb e46e fe3d 6fba 1cbd
000000a0: 3cbe 233c b8c5 efbd c162 2ebd 67ea 85bc
000000b0: 5d06 12bf 7ac8 02bb 1407 e9bd a5bb 1b3c
000000c0: 94db 9d3b 2538 233d f613 603d d4d8 a93c
000000d0: be50 90bc c37b 983d 779d f53b 86a4 97bc
000000e0: 348c 903c 8b54 873d 65cf 84bc 7ffd 3c3c
000000f0: a3e7 8c3d a760 ff3c 8231 a5bb 714a 05bd
00000100: fb86 3e3c 4d40 b13c 6f03 603a 1c0b 0abf
00000110: 9d4b 6a3d bf8d f0bb c756 e03d 1198 813d
00000120: 9568 b33d ed9a 0b3c ef8f 34be 63a0 e4bd
00000130: 8794 7e3d c3d8 b63c d813 d2bc d777 78be
00000140: 0240 763c c49e 0f3a 550c 50bc 3e75 873c
00000150: c133 48bd 033b 9fbb 89fb debc 07b0 c73c
00000160: 89e9 9e3d 7120 21bf 3d25 003c c654 6e3d
00000170: 6259 493d 8d59 983d 30d7 3a3d f0dc 543c
00000180: 0c13 c03c d7ca a83c 7f69 1e3d 3b72 043d
00000190: 9af6 6e3b 3356 f13b 99bd 8bbc 48b2 7a3d
000001a0: 9adc c93c d26e aebb a6d4 903c 2f2b 663c
000001b0: 7423 1cbd 680c 84bc 8018 673d 4501 dabe
000001c0: 97e4 d93d cea0 223c 3891 8f3d 7f2d 833c
000001d0: 22cd e4bd ec37 983c 0d7f d93c a1bf 14bc
000001e0: 89c0 76bc e488 6c3d f6ca 59bd 7917 07bd
000001f0: b72b 9abc bda8 023d 3922 a4bd ee12 4dbc
00000200: d79a 83bd 688d 82bd 1f6a 913b 9f65 a23c
00000210: 8b6a bdbb 8e36 c83b c299 84bd c2f7 b4bd
00000220: ad94 9f3e d46e 9bbd f59e 60bd f09d dcbc
00000230: 548b a23c e026 02bd 75f3 093a b9f3 e53c
00000240: 469e 013d 45b4 8cbb e237 abbc 328e cdbc
00000250: 243f 083c 1c27 13bd f160 393d 5161 31bd
00000260: 00cf 6ebc a3d6 37bd a8f2 d8bd fdf2 a43b
00000270: c814 4abd 2ecb 42bc 80c8 c9bc 6a5b 24bd
00000280: 4e57 8bbc 6c3b 9fbd 394e 473e c452 4f3a
00000290: d1a8 4a3c d2fa e73b 8833 f1bd ae4c 963c
000002a0: ee46 6abc de1d f73d b4cb 143d 92ce ee3c
000002b0: 5542 133f 6262 0e3c 3a95 e43d 7f02 d2bb
000002c0: 876c 62bc 5e00 10bd 1431 01bd cd03 bfbc
000002d0: dbb0 13ba f89a 99bd cc79 153b 6837 9e3c
000002e0: 122c 1ebd c7d6 85bd b21c f43a 3585 32bc
000002f0: 267b 9cbd a8c9 2ebd e856 5f3c 2fd0 b33c
00000300: 5465 7bbc 3762 35bc a6eb 1e3c a316 0b3f
00000310: ecb1 74bd 82bf 163c 60f2 d5bd d842 56bd
00000320: ae3b cdbd aa39 cebc f60e 373e d94c e93d
00000330: 2132 43bd 6e21 8cbc ecc9 1e3d 00b6 843e
00000340: ca3b 71bc a0f3 4b3c fc74 743c 092c 01bd
00000350: 3e11 873d 1d7d db3b b42d 163d 7cb4 12bd
00000360: 46cf b4bd 71c4 203f f845 9dbc 89b8 5abd
00000370: e224 58bd e41e 7fbd 196e 8fbd 667c f2bc
00000380: 4f41 cabc f43c acbc a8b4 1bbd 8bee 5fbd
00000390: 5814 78bc 8dcb 85b9 5b7e fd3c 23e6 86bd
000003a0: 8620 bbbc 0c1e e83c c681 60bc 3f2e a9bc
000003b0: daa7 9c3b ed3a 263c 17a4 57bd fd8b e43e
000003c0: eb95 dfbd 2dd5 f6bb 527f 7ebd c98a f6bc
000003d0: 8997 cf3d ff79 e1bc eca2 e0bc 922f 7cbb
000003e0: eb5b ad3c 2a31 68bd 060b f83b 4195 e93c
000003f0: 2ed8 5d3c 8e02 24bd 6043 a33d dd89 9239
0.06867621 0.04623124 -0.004842529 -0.025993561 0.020954613 -0.03041483 0.07196689 0.078871384
-0.3128192 0.07155877 0.050872624 0.023184372 -0.016783753 0.028248347 -0.022882633 -0.04225034
-0.027813926 0.0015456373 0.015253271 0.04092074 0.0037772006 0.04284322 -0.039974194 0.040344547
-0.0100920545 0.0463579 0.10227411 -0.009671409 0.06331653 0.0074130762 0.03470669 0.039415438
0.021223357 0.060896724 -0.19708657 -0.0019541376 -0.017689172 -0.0075834496 0.124234945 -0.038263734
0.009994086 -0.11707634 -0.042574648 -0.016347123 -0.5704096 -0.001995592 -0.11378303 0.009505187
0.0048174355 0.039848465 0.054706536 0.020733275 -0.017616626 0.07445481 0.007495578 -0.018511068
0.017644979 0.06607922 -0.016212175 0.011535048 0.06880119 0.031174017 -0.005041302 -0.032541696
0.011628862 0.021637106 0.00085454335 -0.539232 0.057201017 -0.007341116 0.109540515 0.063278325
0.08760182 0.008520824 -0.17633031 -0.11163404 0.062153365 0.022320157 -0.025644228 -0.24264465
0.015029909 0.0005478675 -0.012698253 0.016535398 -0.04887748 -0.0048593297 -0.02721955 0.024375929
0.07759387 -0.62940127 0.007821378 0.058186315 0.049157508 0.074389555 0.045615375 0.012992129
0.023446582 0.020604534 0.038674828 0.0323355 0.0036462904 0.007365012 -0.01705818 0.06120518
0.024641324 -0.0053232694 0.017679524 0.014048382 -0.03811975 -0.016119197 0.05641985 -0.42579094
0.10639303 0.009926034 0.0701012 0.016012905 -0.111719385 0.018581353 0.02654984 -0.009078891
-0.015060552 0.057747737 -0.053172074 -0.03298137 -0.018819673 0.031899203 -0.0801434 -0.01251672
-0.06426018 -0.06374627 0.0044376994 0.019823847 -0.005780523 0.006110019 -0.064746395 -0.088363186
0.31168118 -0.07589498 -0.054839093 -0.02693078 0.019841827 -0.031775355 0.0005262413 0.028070318
0.031645082 -0.0042939507 -0.02090067 -0.025092218 0.008315835 -0.03592597 0.045258466 -0.0433057
-0.01457572 -0.044882428 -0.10593158 0.0050338493 -0.049336225 -0.011889262 -0.024631739 -0.04012624
-0.017009404 -0.07775006 0.19463433 0.00079087564 0.0123693505 0.0070794607 -0.11777407 0.01834711
-0.0142991375 0.120662436 0.03632708 0.029151235 0.5752309 0.0086904485 0.11161275 -0.006408989
-0.01381982 -0.0351566 -0.031540945 -0.023317242 -0.00056339585 -0.07500261 0.0022808192 0.01931353
-0.038616247 -0.06535106 0.0018624275 -0.010896017 -0.07640676 -0.042672783 0.01363156 0.021949856
-0.015343983 -0.0110707795 0.009699738 0.54331416 -0.059739992 0.009200932 -0.1044662 -0.05230984
-0.100211486 -0.02517398 0.17876801 0.11391611 -0.04765523 -0.017105784 0.038766786 0.25920105
-0.0147237275 0.012448221 0.014920469 -0.031536136 0.065950856 0.0066982643 0.03666468 -0.035816655
-0.08828597 0.62799746 -0.019198403 -0.053398643 -0.05276955 -0.06228532 -0.07003421 -0.029600333
-0.024689345 -0.021025158 -0.038014084 -0.05467085 -0.015141569 -0.00025519394 0.03094404 -0.06586864
-0.022842657 0.02833464 -0.013702815 -0.020651935 0.0047807517 0.010145885 -0.052646723 0.44638053
-0.109172665 -0.0075327368 -0.06213314 -0.030095475 0.10136325 -0.027523993 -0.027421437 -0.0038480503
0.021161994 -0.05668751 0.0075696735 0.028513553 0.013540311 -0.0400415 0.07971835 0.00027950006

action_model._discrete_distribution.branches.0.bias f4 [2]
00000000: 7635 a7bd da35 a73d
-0.08164494 0.08164568

onnx::Div_80 f4 [92]
00000000: f1c5 373e 6c68 de3e a172 ea39 9874 6a3e
00000010: cdfe 1d3e 856b e53e a172 ea39 2651 6a3e
00000020: ff32 103e f0ac db3e a172 ea39 5311 653e
00000030: 2cfe d53d 9370 b13e a172 ea39 4729 553e
00000040: 02a9 b23d 55ca a53e a172 ea39 c78c 503e
00000050: 025a 123d 1b3c 273e a172 ea39 3306 4a3e
00000060: a82a 313d e8d4 4f3e a172 ea39 790b 4a3e
00000070: a172 ea39 f474 d03d a172 ea39 3d86 543e
00000080: a172 ea39 c5ed fa3d a172 ea39 8c72 4e3e
00000090: a172 ea39 249c 9a3d a172 ea39 c130 613e
000000a0: a172 ea39 3611 b23d a172 ea39 7086 583e
000000b0: a172 ea39 5a92 833d a172 ea39 867c 6d3e
000000c0: a172 ea39 aa12 7a3d a172 ea39 6d95 543e
000000d0: a172 ea39 0683 ab3b a172 ea39 7454 6e3e
000000e0: a172 ea39 e09d 183d a172 ea39 180f 593e
000000f0: a172 ea39 c486 6b3d d0d3 6a3d d52d 6f3e
00000100: a172 ea39 3288 e73d 8031 db3d f31f 683e
00000110: a172 ea39 6f46 253e ac38 253e 7bd6 753e
00000120: a172 ea39 6544 fc3d 982d f13d 5a91 7a3e
00000130: a172 ea39 a55a 603e 4c52 603e 042d 813e
00000140: a172 ea39 d64c 0d3e b673 083e 5b75 883e
00000150: a172 ea39 a83a 993e 5d38 993e 5b34 893e
00000160: a172 ea39 d4db 7c3e 3d6c 7a3e 8984 943e
0.17946602 0.43439043 0.00044717363 0.2289604 0.1542923 0.44808593 0.00044717363 0.22882518
0.14081953 0.42905378 0.00044717363 0.2236989 0.1044887 0.346562 0.00044717363 0.20816527
0.08723642 0.3238093 0.00044717363 0.20366202 0.03573037 0.16331522 0.00044717363 0.19728927
0.04325357 0.20296061 0.00044717363 0.19730939 0.00044717363 0.10178557 0.00044717363 0.20754333
0.00044717363 0.12252382 0.00044717363 0.20160884 0.00044717363 0.07549313 0.00044717363 0.21991254
0.00044717363 0.08694689 0.00044717363 0.21145034 0.00044717363 0.06424399 0.00044717363 0.23192033
0.00044717363 0.061052956 0.00044717363 0.20760126 0.00044717363 0.005234125 0.00044717363 0.23274404
0.00044717363 0.037259936 0.00044717363 0.21197164 0.00044717363 0.05750157 0.057330906 0.23357327
0.00044717363 0.11305274 0.10702801 0.22668438 0.00044717363 0.1614015 0.161349 0.24007599
0.00044717363 0.12317733 0.117762744 0.2446951 0.00044717363 0.21909578 0.21906394 0.25229657
0.00044717363 0.13798842 0.1332539 0.26652035 0.00044717363 0.29927564 0.29925814 0.26797757
0.00044717363 0.24693233 0.24455352 0.29007366

onnx::Div_83 f4 [12]
00000000: 099d 7740 72e0 a43a bcc5 5b40 1116 a047
00000010: 8aef 2247 6a12 ab47 4bc0 063b 3ed5 f039
00000020: 2e3a 5f3b 30cc ea44 796c 8244 1b1b ee44
3.8689597 0.0012579097 3.4339437 81964.13 41711.54 87588.83 0.0020561393 0.00045935245
0.0034061777 1878.3809 1043.3898 1904.847
